dev/test_models/archive/step_8.pth (torch, 37761 bytes, 12 tensors)

encoder.shift_embedding.weight f4 [32, 5]
000000 cb a3 e9 bd 18 2a 4f 3d 59 b8 0c be 99 dc 54 bd
       -0.11408194 0.050577253 -0.13742198 -0.05196819
000010 b2 88 aa bd ef 28 8d bd 65 88 1f 3e 00 8b ed 3e
       -0.08326854 -0.06892573 0.15579374 0.4639511
000020 6f 43 0c 3e 5e 9f 59 be e7 ff cc bd 0f 50 f3 bd
       0.13697599 -0.212522 -0.10009747 -0.11880504
000030 f7 96 40 3e 82 58 8a bd b6 c9 36 3e b6 56 19 3f
       0.18807589 -0.06755163 0.17850384 0.59897935
000040 d0 ba 0c be fd ce 46 bd 7a bf 7c 3e e8 7d 67 bd
       -0.13743138 -0.048537243 0.24682418 -0.056516558
000050 88 cf 51 be ce 63 dd be 19 2b bb be ab d5 11 bf
       -0.20489323 -0.43240207 -0.36556318 -0.56966656
000060 37 c8 b0 be 29 63 0e bf 4a 5d bc be c5 f7 bf be
       -0.34527752 -0.55620056 -0.36789924 -0.3749372
000070 6d 75 10 bf 4e 95 62 3e cd a7 62 3d 63 97 52 3e
       -0.5642918 0.22127268 0.05533581 0.20565562
000080 9d a1 85 3e 90 f6 c5 3d 62 c5 03 3e e5 54 92 be
       0.26099864 0.09666169 0.12868264 -0.28580394
000090 9b f2 3f 3e 20 db 03 bc e6 a8 b4 3e d3 b5 b8 3d
       0.1874489 -0.008047849 0.3528511 0.09019055
0000a0 e8 09 31 3e db a8 aa 3e 3f a4 93 bd cd 10 90 be
       0.17288935 0.33331951 -0.07209062 -0.28137818
0000b0 61 0a 10 3e 05 7c 96 bd 20 ec 36 bd 5c a1 84 3e
       0.14066459 -0.073478736 -0.04465878 0.25904357
0000c0 ad c8 b4 be 7c c3 25 bd a9 d6 df be 20 91 c2 3e
       -0.35309353 -0.04046963 -0.4371846 0.38001347
0000d0 0f 91 9d be 0f 06 29 3d 51 dd 0c bd 7b 2e cd 3e
       -0.30774733 0.041265544 -0.03439075 0.40074524
0000e0 c9 44 49 3c 98 20 86 bd db 91 d3 3e 7b 1b 93 3e
       0.012284466 -0.065491855 0.41322216 0.28731903
0000f0 9c 53 55 be 48 80 cf be 2a 95 3c 3d b8 26 07 3e
       -0.20832676 -0.40527558 0.04604069 0.13198364
000100 8f e2 33 3d 32 9f 7e 3e 92 a3 21 3e 0e 6c 08 be
       0.043917235 0.24865416 0.15785053 -0.1332247
000110 85 79 ce be 98 8e d1 3e 6b 2a 16 3f 01 70 f9 bd
       -0.40327087 0.40929103 0.58658475 -0.12179566
000120 7c 7d 99 be 3b c1 93 3e d7 3f b7 be 29 f9 89 be
       -0.2997855 0.2885836 -0.35790893 -0.26947907
000130 10 34 e6 be 5e 78 1d 3e 54 ab aa be 83 ad 19 be
       -0.44961596 0.15377948 -0.33333838 -0.15007596
000140 c4 cb e3 be ee bc 55 be 06 72 66 3e 91 e6 d5 bd
       -0.44491398 -0.20872852 0.22504434 -0.10444368
000150 38 64 d9 3e 3c fb 91 be f1 8d c6 bd be dc c3 3e
       0.42459273 -0.2851199 -0.09695042 0.3825435
000160 33 98 01 bf 81 e3 f2 bd c9 16 fa bd 4a c5 d6 3e
       -0.5062286 -0.11859799 -0.12211377 0.41947395
000170 c7 05 3a 3e 1f 74 d2 bb 74 84 94 be 3c 3b 9c 3e
       0.18166266 -0.006422534 -0.29007304 0.30513942
000180 c0 d5 d9 bd 8b df f1 3d 61 cb b8 bd 6c 79 a3 be
       -0.10636473 0.118102156 -0.090231664 -0.31928575
000190 ff eb f2 3d 64 47 4f 3e c7 28 b3 3e ec 10 4c 3e
       0.11861419 0.20242077 0.34992048 0.1992833
0001a0 33 fd 60 be 42 4e ae 3e de be 6a 3e aa f2 d0 3d
       -0.21971588 0.3404408 0.22924373 0.102025345
0001b0 8b 32 45 bd 42 2d 0f be a7 f5 09 3e 8a e2 e5 3d
       -0.048143905 -0.13982108 0.13472615 0.112248495
0001c0 41 20 b2 3e 34 bf 8c be 98 51 39 3e c0 b7 3a be
       0.34790233 -0.27489626 0.18097532 -0.18234158
0001d0 d1 7c 07 3c b6 b2 89 be 62 79 c4 bd 15 db 83 3e
       0.008269505 -0.26894158 -0.095934644 0.25753084
0001e0 e7 3f 8f 3e 0b 2c 4c 3e 2e 90 b0 be b7 52 6a be
       0.2797844 0.19938676 -0.34485 -0.22883116
0001f0 bc 90 d3 3e 84 ce 61 3c 5a 3d c9 be 54 1a 98 3d
       0.4132136 0.013782147 -0.3930462 0.07426897
000200 46 31 a0 be 08 a5 f7 bc cf eb c3 3d 53 4a 99 3d
       -0.31287593 -0.03023006 0.09566461 0.07484879
000210 b3 4f ee bd d1 06 26 3d 48 14 55 be fa d3 fb bd
       -0.11636295 0.040533844 -0.20808518 -0.12296291
000220 ec df 8d 3d 44 b2 cc 3e 07 26 6e be f5 e2 03 bf
       0.06927475 0.39979756 -0.23256694 -0.51518184
000230 81 0b d7 be 77 f3 ae 3e 60 ab e0 3e d5 f6 0a bf
       -0.42000964 0.34170124 0.4388075 -0.54282886
000240 71 ba 0f 3e 3e c9 52 3e 60 cb c3 3e bd 6a 34 be
       0.14035966 0.2058458 0.382411 -0.17618842
000250 b6 2b 96 3e ee 32 94 be 1e a6 11 bf 0e 5a 98 bb
       0.29330224 -0.28945106 -0.568941 -0.004649407
000260 1f ed 3a be 40 fa 26 be 23 51 09 bd 0d 7c be be
       -0.18254517 -0.163064 -0.033524644 -0.37204018
000270 50 57 10 3e 09 b8 cf 3e 25 3b a3 3e ca 46 73 3c
       0.14095807 0.40570095 0.3188106 0.01484842

encoder.shift_embedding.bias f4 [32]
000000 55 fe 88 be bb 96 a3 be 27 19 19 be 4b 08 44 3d
       -0.2675654 -0.31950936 -0.14951001 0.04785947
000010 9a 1b c3 be 43 ff 72 3e cb 8c bc be 6c 7b 11 be
       -0.38106996 0.23730187 -0.36826167 -0.14207238
000020 c2 57 e1 be 22 fc 7d 3b 86 81 3d 3d f7 da 9c 3e
       -0.44012266 0.003875502 0.0462661 0.30635807
000030 1b f3 90 3c 94 ed 9c be e0 c7 01 3f 21 06 be be
       0.017694047 -0.30650008 0.5069561 -0.3711405
000040 36 a6 01 3e 7f 3a 8d be d2 76 6c 3e ac 31 2c 3e
       0.1266106 -0.2758369 0.23092201 0.16815823
000050 6f fa 9e 3d ad 86 97 bd fb 98 8e 3e 4c 10 a7 3e
       0.0776261 -0.07398734 0.2785109 0.3262962
000060 7e c0 06 bd 5a e2 09 be 63 4d 1c 3e 7b 03 5f 3e
       -0.03289842 -0.13465253 0.15263896 0.21778671
000070 b4 c4 8f 3e b4 5a c6 3e 2e f7 16 3e c4 ab 10 bc
       0.2807976 0.38741076 0.14742729 -0.008830015

encoder.conv1.h_bias f4 [32]
000000 7c 4e a8 bc db 82 6c bd f6 fc 7f bd 9a e8 ce 3d
       -0.020545237 -0.05774198 -0.0624971 0.10102959
000010 92 bd fa bd b3 41 a3 3d 42 54 ee bc 9d f8 b2 3c
       -0.12243189 0.079715155 -0.029092912 0.021847064
000020 fa d4 fa bc 1c 6c a9 3d 37 24 94 bd d7 81 07 3d
       -0.030619133 0.08272573 -0.0723347 0.03308281
000030 ac 3e 8f bd dc 80 67 3d e6 d2 a0 bb f3 00 e5 3d
       -0.069943756 0.056519374 -0.0049079536 0.11181822
000040 88 b7 30 bd 08 1e 1e bd c3 46 20 bd 1e 7b bc bc
       -0.04314378 -0.03860286 -0.039129984 -0.023007926
000050 a2 94 2b 3d a1 9d 64 bd 16 14 2f 3d 5a 90 21 3d
       0.041889794 -0.05581439 0.042743765 0.039444305
000060 f4 e9 af bd 4a cb 81 3d 9d e7 9a bd 97 6e bf 3c
       -0.08589545 0.063376024 -0.07563708 0.023368163
000070 8c fe 1d be 55 72 d2 3d 0a 40 70 bd 6c 82 ae 3d
       -0.15429133 0.10275713 -0.058654822 0.0852097

encoder.conv1.loop_weight f4 [32, 32]
000000 da f7 69 be ff ef 82 be 8f 52 0b be 2f 78 c9 be
       -0.22848454 -0.25573727 -0.13605712 -0.39349505
000010 b5 f0 3c be 1f 73 d3 be 31 6c db 3e 24 26 ec 3e
       -0.18451197 -0.41298768 0.4285598 0.4612285
000020 64 8e 06 be 40 b8 18 3c 1a 0d 2c 3d 38 28 66 3e
       -0.13140255 0.009321272 0.042004682 0.2247628
000030 4c 93 8f 3d 34 83 80 3e 30 72 52 3e 74 25 6b be
       0.070105165 0.251001 0.20551372 -0.22963506
000040 47 3e 6b 3e 02 3e 7b 3e a8 c6 d8 3e eb 42 d0 be
       0.22972976 0.24535373 0.42339063 -0.40676054
000050 7f 5f 53 3e 2d 74 3b be 37 cb 91 3d 1a 32 85 3e
       0.20641898 -0.18306036 0.07118838 0.26014787
000060 26 be 4d be d4 6f 04 3c 59 13 9e be 16 35 67 3d
       -0.20092067 0.0080833025 -0.30874136 0.05644711
000070 6c 28 81 be 4b 7c 6e 3e 07 07 8c 3e 7c 97 66 be
       -0.25226152 0.23289602 0.2734911 -0.22518724
000080 b5 82 00 3e 4d 7d c0 bb 5a 66 3c 3e 20 cc 05 bf
       0.12549861 -0.005874312 0.18398419 -0.52264595
000090 01 46 3b 3c 31 b9 4b 3e cd 64 8b be 51 11 be 3e
       0.011430264 0.19894864 -0.27225342 0.37122586
0000a0 2b a5 66 bd ee 3b 36 3e e1 ed ee 3d 07 f8 61 be
       -0.05630986 0.17796299 0.116664656 -0.22067271
0000b0 d8 2b 7b bd a4 24 7d 3c fa 82 f0 3d eb 2b 04 be
       -0.06132111 0.01545063 0.11743732 -0.12907378
0000c0 66 21 39 3e 95 21 ab 3e a3 e0 0a bd 6c 19 a6 3e
       0.18079147 0.3342406 -0.033905637 0.3244127
0000d0 93 5b a3 be 9c 6a 34 3e 12 7f c0 be cf 17 24 be
       -0.31905803 0.17618793 -0.37596947 -0.16024707
0000e0 cf 9d b5 3e 37 28 6e 3e 50 80 b8 3e e3 17 3a 3e
       0.3547196 0.23257528 0.36035395 0.18173175
0000f0 0c 4a 21 be 8b ea 5f 3e fe 1b 6d be 6d 47 0f 3e
       -0.15750903 0.21866815 -0.2315521 0.1399209
000100 8e 1f 1f 3e 16 4c 97 be 00 eb bf 3d a9 0a e6 be
       0.15539381 -0.29550236 0.093709946 -0.44930008
000110 d9 92 a7 3d 70 21 a4 3e bd 7b af 3e 56 6b c4 3e
       0.08182306 0.3205676 0.34274092 0.3836314
000120 89 34 af 3e 7a fa ce be 7f eb 8b bd 42 53 55 bd
       0.3421977 -0.40425473 -0.06832027 -0.052081354
000130 4e 07 cf be 0f 73 bf bd 71 55 de be 22 45 94 be
       -0.4043526 -0.093481176 -0.43424562 -0.28958994
000140 cd 1f 9e 3e 74 87 9a 3d 1b e6 a8 be 18 85 37 3e
       0.30883637 0.07545367 -0.32988057 0.17921865
000150 e7 f0 df 3e 94 bb a8 3e 42 58 bd be 1e cf ae be
       0.4373848 0.3295561 -0.36981398 -0.34142393
000160 d0 ad 17 be 77 61 c1 bd a6 04 c9 3d 18 3a 38 3e
       -0.14812398 -0.09442418 0.0981534 0.17990911
000170 56 60 b6 be 55 62 52 bd e3 9c 3d 3e c0 a2 ca be
       -0.35620373 -0.051363308 0.18516879 -0.39577293
000180 70 98 bf be 74 4b c4 3d f1 cf 18 bd 7e d1 08 3f
       -0.37420988 0.09584704 -0.037307683 0.5344466
000190 28 93 63 be 68 15 42 3e 6b 57 9a be 62 fb 49 3e
       -0.22224104 0.18953478 -0.3014482 0.19724801
0001a0 cd cf 0c 3e 8a 39 a4 be d0 4c e9 bc a6 20 f2 3d
       0.13751145 -0.3207515 -0.02847901 0.118226334
0001b0 49 d1 81 be 5e ed c8 3e b6 9e e0 3e 09 65 01 3f
       -0.25354984 0.39243597 0.43871087 0.5054479
0001c0 4c 12 85 3e f8 06 91 bd b8 16 da be 11 64 08 3e
       0.25990522 -0.07081407 -0.42595458 0.13319422
0001d0 0f 72 ad be a9 0a 10 3f e6 83 bd be 62 d8 46 be
       -0.33876082 0.56266266 -0.37014693 -0.19418481
0001e0 81 fb 36 3e fb 5c 9f 3e 7d 18 94 3e c2 a0 96 be
       0.17869379 0.31125626 0.28924933 -0.29419523
0001f0 58 4f 9a 3e f7 55 77 be e0 6a 10 3e 1d f5 09 3f
       0.3013866 -0.24153887 0.1410327 0.5388964
000200 b9 a7 34 bc ef 50 83 3e b1 da 73 be c1 8f 2b be
       -0.011026316 0.25647685 -0.23813893 -0.16754057
000210 d8 10 cc bd 0f 0a 62 3e c9 8a 70 3c 1a d3 cf 3d
       -0.0996415 0.2207415 0.014681526 0.10147686
000220 6a be 6f 3e 72 f7 69 3e c5 ac 99 be a4 e6 11 3c
       0.23412481 0.22848299 -0.30014625 0.008905087
000230 12 4f 63 3e 10 ed 8a be f6 72 7d be bf bd 9b 3e
       0.22198132 -0.2713399 -0.24750885 0.30418202
000240 da 12 96 be ba ac 56 3e 89 c0 6e bd 82 ac 0c 3e
       -0.29311258 0.20964327 -0.058289085 0.13737682
000250 13 79 11 3e 53 0f 88 3e 9f ef 9c 3d 32 f3 45 be
       0.14206342 0.2657419 0.076628916 -0.19331053
000260 5a 62 a5 bd d3 29 99 be 23 ed 43 bd a3 8b df bd
       -0.080754 -0.29914722 -0.047833573 -0.109153055
000270 93 d5 34 be 31 25 84 3d bb 42 92 be 48 e0 62 be
       -0.17659597 0.06452406 -0.28566536 -0.22155869
000280 ec 99 88 be 65 0a 95 be d4 61 a2 3e eb af b0 be
       -0.26679933 -0.29109493 0.31715262 -0.34509215
000290 6b a5 5a 3e de 8e 18 be 8b 85 3f 3e e9 65 6a be
       0.21352164 -0.1489825 0.18703286 -0.22890438
0002a0 47 90 ba be d0 34 8a 3c f1 aa fd be 2a 47 52 3e
       -0.364382 0.016870886 -0.4954448 0.2053496
0002b0 01 15 be 3e 60 cc f8 be 9a f8 da be e8 b3 da bd
       0.371254 -0.48593426 -0.42767793 -0.10678846
0002c0 6d 8d 72 3e cc 02 f6 bd 82 ce bc 3e 95 16 0f bd
       0.23686762 -0.12012252 0.36876303 -0.034933645
0002d0 aa 5c 03 be d3 a0 c6 3d d2 51 2f 3e 68 d2 cb bc
       -0.12828317 0.096986435 0.17121056 -0.024880603
0002e0 0a 81 69 b8 aa 52 f6 be e3 01 d0 be c2 b0 25 3e
       -5.5671706e-05 -0.48109943 -0.4062644 0.16180709
0002f0 b4 3d 9b 3e ce 45 9f 3e 50 e1 c6 be f9 3f 36 be
       0.30320513 0.31107944 -0.38843775 -0.17797841
000300 75 e5 ee 3d 55 2b d4 3e fe dd 2d 3e 6c 74 08 3e
       0.11664859 0.4143931 0.16979215 0.13325661
000310 eb 1c be 3e 6b 82 87 3e 56 c6 aa bd 32 8d a2 be
       0.37131438 0.2646669 -0.08338611 -0.31748348
000320 5f 50 a2 3c 22 b3 77 3e 3d a9 49 3e 20 b6 b0 bd
       0.019813715 0.24189427 0.19693466 -0.086284876
000330 12 89 58 3e 0d af 77 3e 7a 2d 30 be ac 73 a1 bd
       0.21146038 0.2418787 -0.17204848 -0.07883391
000340 72 06 32 3e e8 a8 5d be 95 75 a9 bd 68 e7 c8 be
       0.17385271 -0.21646464 -0.0827438 -0.3923905
000350 e8 78 7b 3c 2a a3 bd be f1 0c be bd 4d 41 57 3d
       0.0153486505 -0.37038547 -0.09279812 0.05255251
000360 31 56 ea 3e 2a 30 a3 be ee 12 c2 3e 84 d5 4d be
       0.45768884 -0.31872684 0.37905067 -0.20100981
000370 19 3c 80 be 36 fa 9c 3e 3c 94 ce 3e db e7 c9 bd
       -0.2504585 0.30659646 0.4034747 -0.09858676
000380 39 8d 0e 3e ec a5 9b bd 3a ce ce be 05 18 20 3e
       0.1392106 -0.076000065 -0.40391713 0.15634163
000390 c9 04 b8 3e 54 65 95 be a4 98 f6 3d 30 76 bd bd
       0.3594115 -0.2917887 0.12040833 -0.09251058
0003a0 fe 1e 47 3e 7c 33 8d 3d 52 1d cb 3e e2 fb 94 3e
       0.19445416 0.068945855 0.39670807 0.2909842
0003b0 1c e1 8f be 4a 54 bb 3e 7c 20 b6 3e 4a 73 4b 3c
       -0.28101432 0.36587745 0.3557166 0.012417624
0003c0 71 a6 2a bd ea 6b 14 3e 00 90 be 3e d2 af 8e 3e
       -0.041662637 0.14494291 0.37219238 0.27868515
0003d0 64 ed 3f 3d d8 66 86 3e ee 0c 56 3e f9 e9 86 be
       0.046857253 0.2625034 0.2090337 -0.26350382
0003e0 3b c0 9f 3e 84 c0 50 be a9 a2 a0 be 27 b3 97 3e
       0.31201348 -0.20385939 -0.313741 0.2962887
0003f0 82 35 ca 3e 23 35 98 be 22 04 7c 3e 88 66 05 bf
       0.39493948 -0.2972804 0.24610952 -0.52109575

encoder.conv1.linear_r.W f4 [2, 32, 32]
000000 44 58 18 be a0 21 04 be ea 6b 16 3e 93 60 39 be
       -0.1487742 -0.12903452 0.14689603 -0.18103246
000010 39 b8 93 bc db a0 b0 3d 3b 69 0f be cf e4 00 be
       -0.01803218 0.08624431 -0.14004986 -0.12587284
000020 27 42 55 be 9f fc d6 3c a5 ae 9a bd 76 74 da 3d
       -0.20826016 0.026243506 -0.07552842 0.106667444
000030 07 6f 68 3d 97 1a 4e bd 2a 6a 41 3e 3c e4 af bd
       0.05674651 -0.050318327 0.18888155 -0.08588454
000040 6f 7d 19 be ed e9 1b 3e d0 2e 54 3e cc b0 1e be
       -0.14989255 0.15225954 0.20720983 -0.1549713
000050 68 94 eb bd 50 90 0d 3c 43 55 7f bd 60 0c 00 3e
       -0.115029156 0.008640364 -0.06233717 0.1250472
000060 8e 81 f0 3d 93 24 50 3d b7 fe c0 bd 51 36 85 3d
       0.117434606 0.05081613 -0.09423583 0.06504501
000070 ba 26 a7 3d d7 32 3e 3d c0 b5 ef bc 54 af db 3c
       0.081616834 0.046435203 -0.02926147 0.026817001
000080 46 0b 2a 3c 6c d4 10 be 3c b5 f8 3d 99 cc b6 3d
       0.010378664 -0.14143533 0.12143943 0.08925743
000090 67 33 0e 3e 66 45 14 3e be 47 3b 3c 54 c1 9e bd
       0.13886796 0.14479598 0.011430679 -0.07751718
0000a0 85 f1 24 bd 9f e9 b5 bd 9f e9 86 bd 76 6f db 3d
       -0.040269393 -0.0888245 -0.065875284 0.10714619
0000b0 c0 6c 1b 3e 42 2f e7 3d 9e 49 15 3d 2c 66 ea 3d
       0.15178204 0.112883106 0.03644716 0.11445269
0000c0 b7 c5 8a be 5b 7a f1 3d e8 a2 c6 3d b0 ea 8b 3a
       -0.2710397 0.117909156 0.09699041 0.0010674801
0000d0 53 f8 b7 3d e8 f9 4f 3d d7 78 e8 bd b7 8f dd bd
       0.08982911 0.05077544 -0.11351173 -0.10818427
0000e0 81 ac db bc 28 b9 f4 3d dd 41 e2 bd 0e 0a 8a 3d
       -0.026815655 0.11949378 -0.11047719 0.06740199
0000f0 ce 89 d2 3d 0a 76 11 3e dd c0 64 bd 36 bc ef 3d
       0.102801904 0.14205185 -0.05584799 0.1170582
000100 42 cf 2c be b3 67 bf 3d fd 44 06 bc 7b 3f 8e bd
       -0.16875938 0.09345951 -0.008195159 -0.06945702
000110 e3 16 7d 3d 97 36 1f be 30 ac 01 3e 1a 34 b9 bd
       0.061789405 -0.15548168 0.1266334 -0.09043141
000120 cd f2 5d be be 69 05 3d c2 69 8a bd 33 80 02 3e
       -0.21674652 0.032571547 -0.06758453 0.12744217
000130 53 51 36 be 03 ed 85 bd 36 ba 3b 3e 37 80 86 3d
       -0.1780446 -0.06539347 0.18332753 0.06567424
000140 7f e0 0f be 4d b3 26 bc e9 84 70 3c 1b e0 23 be
       -0.14050482 -0.010174585 0.014680126 -0.16003458
000150 d0 f4 16 3e 00 4b 66 3c ba 5f 02 be a0 87 fa 3a
       0.14741826 0.014055967 -0.1273183 0.0019113906
000160 24 f9 30 3e 3f 1b d4 3d cf e4 47 3d 54 d9 05 be
       0.1728254 0.10356759 0.048802193 -0.13071185
000170 06 4f bb 3d 61 d0 c5 3d bb e8 b5 39 d2 5b 0a be
       0.09145932 0.09658886 0.00034696408 -0.13511589
000180 b5 5f 40 3d 55 fa aa 3e cf ff 21 bd f6 7b 12 be
       0.046966273 0.33394113 -0.0395506 -0.143051
000190 52 12 3b be e2 a9 d4 3c 64 72 a0 3d 17 d5 ae 3d
       -0.18268707 0.025959913 0.07834318 0.085367374
0001a0 02 cd 0b 3e bb 28 20 3e 3d f6 75 3e b3 7c 1c 3e
       0.13652423 0.15640537 0.24019714 0.15281944
0001b0 94 92 bd 3b be e2 e3 bd f1 f2 b9 3a 5d b2 ae bd
       0.0057852957 -0.11127232 0.0014186782 -0.08530114
0001c0 8b c1 af 3d 75 d0 a7 3d 7a b1 c1 3d 8c 2a 10 3e
       0.08581837 0.08194057 0.09457679 0.1407873
0001d0 28 c9 21 be 4e 45 7b bd bb 5a 3c 3e 30 92 f7 bd
       -0.15799391 -0.06134539 0.18393986 -0.1208843
0001e0 d6 0f 14 bc e4 50 be 3d b4 69 0e 3e 41 db ba bd
       -0.009036979 0.092927724 0.1390751 -0.091238506
0001f0 12 c9 9a 3d 92 e0 9c 3d 79 29 8e 3c f9 c4 15 3e
       0.07557882 0.07660021 0.01735376 0.1462592
000200 50 b4 75 3d c6 71 2c be e0 42 89 3d 24 38 41 be
       0.059986413 -0.16840276 0.067022085 -0.18869072
000210 b1 f8 eb 3d 68 b8 49 be 50 1f 3f 3e ae 11 06 be
       0.115220435 -0.19699252 0.18664289 -0.13092682
000220 4b b6 09 3d a1 a1 a5 3c 5a 09 73 bd a7 79 2a 3e
       0.033621114 0.020218672 -0.05933509 0.16647969
000230 a6 89 09 3e 88 96 3d be 74 8b f2 bd 38 b7 52 3e
       0.13431415 -0.18514454 -0.11843005 0.20577705
000240 d8 fd 0b ba 7e 6e 83 bb de 4f 7c bb 00 8c 50 bc
       -0.0005340255 -0.0040109744 -0.0038499753 -0.012728691
000250 dc e2 95 bb 38 d8 5e 3d 87 7a 10 be 02 be 24 3e
       -0.004574163 0.05440542 -0.1410924 0.16088107
000260 af 1d 82 bc cc a5 2a 3e 24 e2 37 3e dc a5 ed 3d
       -0.015883295 0.16664809 0.1795736 0.11603901
000270 8c 4a 3a 3d db 28 20 be 22 3a 78 3d df 1e 97 bd
       0.04548125 -0.15640585 0.060602315 -0.07378935
000280 ca 42 11 be 78 b2 40 bd de 9c d6 bd e3 d2 c8 bd
       -0.14185634 -0.0470452 -0.10479139 -0.098058484
000290 c2 8e f2 bc ba 37 22 be 0d 24 a8 bd 20 53 3f be
       -0.029609088 -0.1584157 -0.08210001 -0.18684053
0002a0 2a 21 8d 3d 38 8b 2f 3e 6f 52 e0 bd 79 f5 2a be
       0.06891091 0.17142951 -0.10953223 -0.16695203
0002b0 d8 98 bb 3d cc 69 70 be cc 5a 0c 3e 02 00 de 3c
       0.09160012 -0.23477858 0.13706511 0.027099613
0002c0 88 2a 05 bd d6 46 27 3c fa 80 32 be 31 da 8a bd
       -0.032511264 0.01020976 -0.17432013 -0.06779898
0002d0 93 c6 d6 3c e9 ff 14 3e fb b3 14 3e eb 1a a8 bd
       0.026217734 0.14550747 0.14521782 -0.08208259
0002e0 6f b4 55 3e 93 30 07 3e e7 a0 89 3d 46 fc 6e be
       0.20869611 0.13202123 0.06720143 -0.23338422
0002f0 df 88 c1 bd 32 fa 8b be ce b0 f5 bd 8d 59 21 bd
       -0.09449934 -0.2733932 -0.119966134 -0.039392043
000300 b2 91 23 3d ac 37 de 3c a7 44 0a 3e f5 a6 05 bc
       0.039933868 0.027126156 0.13502751 -0.008157481
000310 cc d8 18 3e d7 2c ee bd 11 12 bc bd ee fa 36 be
       0.14926451 -0.11629646 -0.091831334 -0.1786916
000320 d2 eb a1 3d 63 e6 40 bd 89 8d 69 bd fe 8d ab bd
       0.07906307 -0.047094714 -0.057019744 -0.08376692
000330 73 56 2e 3e 37 c7 80 bd af 76 41 3e c8 54 10 3e
       0.17025165 -0.06287997 0.1889293 0.14094841
000340 f4 5a d3 bd 87 12 8f bc 6b 0e 53 3e 9a 5d 4b 3c
       -0.10320082 -0.01746489 0.20610969 0.012412453
000350 ff 8b d5 3d 30 75 98 bd 60 07 72 be 1c 89 a8 3d
       0.10427093 -0.07444227 -0.23635626 0.082292765
000360 dc f0 4f 3d c6 79 de 3d 37 e0 1d 3e 64 7c ec 3d
       0.05076681 0.1086307 0.15417562 0.11547163
000370 b4 af 7a bd c1 bb d0 bd b0 97 be 3d f3 43 a5 3d
       -0.06120272 -0.10192061 0.09306276 0.08069601
000380 f3 75 0f 3e d6 35 1c be 1e e4 1b 3e 99 c9 88 bc
       0.14009838 -0.15254912 0.15223739 -0.016697692
000390 5d 1b 13 3d 07 40 0b 3e aa 94 a5 bd a8 15 dc bd
       0.035914768 0.13598643 -0.08084996 -0.10746318
0003a0 fb 13 94 bd ac 4a f0 bc 90 c4 00 be 38 2e 1a be
       -0.072303735 -0.029332481 -0.12574983 -0.15056694
0003b0 ad 11 50 3d 38 4e 49 be f3 9b fa bc 84 4d 9e bd
       0.050798107 -0.19658744 -0.03059194 -0.07729629
0003c0 07 3b 4c 3d 64 79 06 be 80 c7 b6 3a 2f 2b 26 be
       0.04986098 -0.13132244 0.0013944954 -0.1622741
0003d0 d7 6b b5 bd d7 09 0a 3e c0 ca 3a 3d 31 57 4f 3a
       -0.088584594 0.13480316 0.045603514 0.0007909416
0003e0 f2 63 35 3e 7f 53 9e bd c5 2a fb 3d 0f fe f5 3c
       0.17713907 -0.07730769 0.12264017 0.030028371
0003f0 8e 5c d2 bd 35 02 8a bd de ed 86 bd 5c 5c 2d 3e
       -0.1027156 -0.06738702 -0.06588338 0.16929764

encoder.conv2.h_bias f4 [32]
000000 25 29 57 bd 11 2e fa 3c 84 21 2c 3d 61 f4 89 3d
       -0.052529473 0.030539544 0.04202415 0.06736065
000010 53 da 19 bd 36 6e a7 3d e9 9d 23 3d 21 6a 03 bd
       -0.037561726 0.08175318 0.039945517 -0.032083634
000020 6d f7 6a 3b 77 75 76 3c 65 52 40 bc 76 3b a4 bd
       0.0035853044 0.015042654 -0.011738394 -0.08019154
000030 bd 16 8e 3d f2 21 a8 bd de bd 7e 3c ee f2 c8 3b
       0.06937931 -0.082095996 0.015548198 0.006132475
000040 a6 60 84 3b ff 7a 04 3e cf 0a 4d bc fc 67 7c bd
       0.0040398417 0.12937544 -0.012514784 -0.061622605
000050 b4 25 6b 3d 98 69 8f bd 31 1d ce 3c ec 3e d2 bd
       0.057409003 -0.07002562 0.025160404 -0.10265908
000060 e9 81 66 bc b8 a2 aa 3d 32 4b ca 3c a4 86 58 3d
       -0.014069059 0.083318174 0.024694059 0.05286278
000070 f7 17 df 3d 6e 20 2e bd 25 bd b4 bd de 18 bc 3d
       0.10893243 -0.042511396 -0.08825139 0.091844305

encoder.conv2.loop_weight f4 [32, 32]
000000 4c cc d3 bd 1b 47 c9 ba 57 60 1f be 22 20 2a 3e
       -0.10341701 -0.0015356274 -0.15564094 0.1661382
000010 9a 6d 6b bd c1 a1 08 3e c8 ce a6 be 8b 06 d9 be
       -0.05747757 0.13342954 -0.32579637 -0.42387804
000020 ef 62 85 3e 37 25 14 be 77 60 c2 3e f6 5f b9 3e
       0.26052043 -0.14467321 0.37964222 0.36206025
000030 37 ab 1c 3e 2d 40 50 be 7a 8c 81 be 48 af 66 be
       0.15299688 -0.20336981 -0.25302488 -0.22527802
000040 30 57 da 3e 62 60 45 3e f3 e2 98 3e 02 ce dd 3d
       0.42644644 0.19275048 0.2986065 0.108303085
000050 b8 d4 90 3d 3c 8e d1 be 90 28 35 3e 78 b3 c0 bd
       0.07071823 -0.4092883 0.17691255 -0.09409231
000060 04 8e 23 3e 0c 10 71 3d e6 43 84 be a9 c1 bb 3e
       0.15972143 0.058853194 -0.25833052 0.36671188
000070 a9 7b 91 be e4 79 e5 3d e4 e6 ba be fb 97 bf 3d
       -0.28414658 0.112048894 -0.3650428 0.0935516
000080 90 29 a9 3e 31 6f 98 be 48 44 b6 bd 3a 6d 69 bd
       0.33039522 -0.29772332 -0.08899742 -0.056988932
000090 c9 9d d9 be 16 b1 4f be 89 51 e4 be 08 5f 66 bd
       -0.42503193 -0.20282397 -0.44593456 -0.056242973
0000a0 06 b3 21 3e d6 00 bd 3e 61 ba 69 be f0 c1 cb 3e
       0.15790948 0.369147 -0.22825004 0.397964
0000b0 44 36 e3 bd eb 39 45 bd 47 50 b0 3e 5d 2a d9 3e
       -0.11094335 -0.048150938 0.34436247 0.42415133
0000c0 6c ba b5 3d 56 99 33 be 3a 7c 81 be 08 a1 a3 3d
       0.08873448 -0.17538962 -0.2529009 0.07989699
0000d0 51 9d 3b 3d 04 9b 10 bd d5 fd 6e 3e b3 d6 30 be
       0.045804325 -0.035304084 0.23339017 -0.17269401
0000e0 d7 1d 6a 3d 9c 30 d2 be bb 24 a0 3e 8a 4f 52 3e
       0.057157364 -0.4105271 0.31278023 0.20538154
0000f0 e0 30 ae 3d aa 28 9c bc d1 91 91 3c 78 b5 9b 3e
       0.08505416 -0.019062359 0.017769726 0.30411887
000100 6f 2c 8e be bf 67 80 bd 2b 96 88 3e 87 59 b8 3b
       -0.27768275 -0.06269788 0.2667707 0.005625907
000110 79 69 5f 3e df e1 41 bd 95 1d 5b 3e ec 03 58 3d
       0.21817578 -0.047334548 0.21398003 0.052738115
000120 4e 5d bc bc 0c b3 80 3d 9f 13 48 be 7d 5f fe bc
       -0.02299371 0.062841505 -0.19538735 -0.031051392
000130 d7 12 5a 3e f0 95 52 3d b9 00 9a 3c 7b e1 94 3c
       0.2129625 0.051412523 0.018799173 0.018173924
000140 10 c0 80 3e c6 27 ae 3d a3 ab 55 be 1d 8f 9c 3e
       0.25146532 0.0850368 -0.20866255 0.30577937
000150 49 a9 81 3e 91 71 a6 3e 19 09 1b 3e 4b a8 37 3e
       0.25324467 0.3250852 0.15140189 0.17935292
000160 12 10 90 be 05 3c 66 be ae b5 1a 3e 3e 7e 13 3e
       -0.2813726 -0.22483833 0.15108368 0.14403626
000170 f4 c2 99 be d2 9a e7 bd 5b 33 a9 3e 5a 34 57 be
       -0.3003155 -0.113088265 0.33046994 -0.21016064
000180 59 e2 f0 be 49 02 64 3d 50 f5 f9 3d df 68 8f 3e
       -0.4704769 0.05566624 0.12204993 0.28009698
000190 63 4e b7 3d 4c d2 40 3d cb ec 0e 3e 38 e1 f2 be
       0.08950498 0.047075555 0.13957517 -0.47437453
0001a0 af 5f 36 bd 0a 1f 4d 3e 27 76 8e 3e 66 b1 3f 3d
       -0.044524845 0.20031372 0.27824518 0.04680004
0001b0 4b dd e7 3e 0b 2a ce be ee 0d 5a 3e c5 13 e7 bd
       0.4528602 -0.4026645 0.21294376 -0.112830676
0001c0 a9 f0 7f be 30 42 9b be 9b d9 0a 3e 66 a3 0d 3d
       -0.24994148 -0.30323935 0.13559572 0.034579657
0001d0 e5 86 89 be d1 5f dd bc 16 0f ba be f2 d8 35 3e
       -0.2686073 -0.027023228 -0.36339635 0.1775854
0001e0 9e 73 b3 3e e2 c0 e1 3d 89 f9 21 be 51 6c 7f 3e
       0.35049146 0.110231176 -0.15817846 0.24943663
0001f0 7f 86 0b 3f d4 23 be 3d 08 43 0c be 3d 23 a9 bd
       0.545021 0.092841774 -0.13697445 -0.08258674
000200 22 0a 71 3d e7 c9 e5 3b df 09 94 3e 68 2f 87 3d
       0.058847554 0.007012594 0.2891378 0.06600839
000210 1b 37 ac 3e 82 80 66 be e2 f7 fa 3d db 7d a6 be
       0.33635792 -0.2250996 0.12254311 -0.32517895
000220 ce 76 9e 3e 0f 4b 43 3d bf 92 d0 be ab 07 1d 3e
       0.30950016 0.047679003 -0.40736958 0.15334956
000230 0c a9 ac 3e a7 90 8b be ca 6e 72 3e 13 c4 09 be
       0.33722723 -0.27258798 0.23675075 -0.13453703
000240 0c 59 f5 3e 06 68 6e 3d 1b ac 66 3e e7 15 be 3e
       0.479195 0.058204673 0.2252659 0.37126085
000250 95 5d ba be 1e 5d 81 3e 81 5b b1 be ce e0 61 3e
       -0.36399522 0.25266355 -0.34640124 0.22058412
000260 d4 3d c3 bd df 61 8c be 14 a5 45 3d e2 93 3d be
       -0.09533277 -0.2741842 0.048253134 -0.18513444
000270 30 03 83 be 2f 2d a2 be d7 51 72 3e ca 7d a6 3d
       -0.2558837 -0.31675097 0.23664032 0.08129461
000280 77 4e 9b 3e 08 f5 81 3d 98 b8 63 3e a4 a3 3e 3e
       0.303333 0.06345564 0.22238386 0.18617111
000290 5f 4a 8d be e0 7f 18 3e 0b df a4 be 39 d8 18 be
       -0.27595803 0.1489253 -0.32201418 -0.14926232
0002a0 a2 2d 89 be 45 ed 62 3e 1b cd 8f 3e 7b a4 c7 be
       -0.26792628 0.22160824 0.2808617 -0.38992676
0002b0 44 8f bc 3c a1 c4 51 3e b8 11 43 3e 5d 20 67 3e
       0.023017533 0.20485164 0.19049728 0.2257094
0002c0 0d 89 81 be 44 40 0b 3e c4 2e 82 be df c5 53 3e
       -0.25299874 0.13598734 -0.25426304 0.2068095
0002d0 d3 18 c3 be b8 fe 4a 3e c9 9f fd 3d 73 d1 3d be
       -0.38104877 0.1982373 0.12383992 -0.1853693
0002e0 18 fc f9 be 82 41 bf 3d c7 63 de bd cc af 1d be
       -0.48825145 0.093386665 -0.10858875 -0.15399092
0002f0 35 34 79 be d0 38 d1 be ca 05 d7 be da bc 82 3e
       -0.24336322 -0.40863657 -0.41996604 0.25534707
000300 4e 63 ad 3e 64 8e b5 bd ba db 59 3e 7d 02 c5 be
       0.33864826 -0.088650495 0.21275225 -0.3847846
000310 7e a4 90 3e dc 3f 9c be 6d 44 da 3e 65 ef 93 3e
       0.28250498 -0.3051747 0.4263033 0.2889358
000320 fb 6f 24 3e 66 02 87 3e 3f 65 65 bd da 2b bc 3e
       0.16058342 0.26369017 -0.05600476 0.36752206
000330 e1 55 68 be 31 01 f5 bd 2a 67 70 3e 7e f1 93 3e
       -0.2268901 -0.11963118 0.23476854 0.2889518
000340 47 94 d1 3d b4 c7 36 be b0 cd 80 be 8d 7e 09 bf
       0.1023336 -0.17849618 -0.25156927 -0.53708726
000350 06 a2 c1 3e 7b 6c 83 be d8 d8 ad 3e 76 fd d0 be
       0.37818927 -0.25668702 0.339545 -0.40818375
000360 2a a1 88 3e fc 8e 2a 3d ec 4a 6a 3e 8e 48 29 3e
       0.26685458 0.041640267 0.22880143 0.16531584
000370 64 29 9c be 26 51 0d 3e 85 5c 1c 3d 8e 5c 3d 3d
       -0.3050033 0.13800487 0.03817417 0.046230845
000380 fc 70 17 be f4 94 f6 3e 03 86 98 3e 1e 1b 8a bd
       -0.14789194 0.48160517 0.29789743 -0.067434534
000390 59 fc ca 3d 10 b7 63 be 59 ae 7c be 8f 52 a8 3c
       0.09911413 -0.22237802 -0.24675883 0.02054718
0003a0 1f ff 5e be aa 39 8b be 3f 33 c1 3e d4 d1 65 3e
       -0.21777008 -0.27192432 0.3773441 0.22443324
0003b0 2a 2b 6c 3d 40 5d c0 be 78 9d 07 3d 7a f1 e6 be
       0.057658352 -0.37571144 0.03310916 -0.45106107
0003c0 9f ee b3 bd 90 d3 04 3f 47 e7 6f 3e 64 ce 7e 3e
       -0.08785748 0.5188532 0.23428069 0.2488342
0003d0 2d 27 5f 3e bf 9d e1 bc 0f 2e 80 3e 11 36 23 3d
       0.21792288 -0.02754104 0.2503514 0.039846484
0003e0 37 48 e8 be d2 f7 8b be 88 e1 82 3e 17 97 8b 3e
       -0.45367596 -0.2733751 0.25562692 0.2726371
0003f0 a8 cb 70 3e 56 9a 97 3e b8 8b c3 be 59 d6 1f be
       0.23515189 0.29609936 -0.38192534 -0.15609111

encoder.conv2.linear_r.W f4 [2, 32, 32]
000000 6b 23 22 3d 30 0a d3 3c 42 5f f4 3b 94 59 9d bd
       0.03958456 0.025761694 0.0074576447 -0.07683101
000010 6a 7f b3 3d 8a 02 e5 bd c2 df a1 bd 95 2e 88 3d
       0.08764537 -0.11182125 -0.079040065 0.0664951
000020 46 0e de bc ab f6 35 bc 54 03 21 be 1e d4 1b 3e
       -0.027106415 -0.0111061735 -0.15723926 0.15217635
000030 24 85 70 3e c4 15 d7 bd b3 fb 39 3e bb 42 28 3e
       0.23488289 -0.10502198 0.18162422 0.16431706
000040 cb 0a 12 3d 06 e0 29 3e b6 80 9e bd fc 26 99 bd
       0.035654824 0.16589364 -0.077393934 -0.07478139
000050 08 81 09 bd 7d 4a 89 be 92 e4 b2 bd 1d 85 c1 bd
       -0.03357032 -0.26814643 -0.087350026 -0.094492175
000060 75 61 3c 3c 3c 50 2a 3d 2d 08 8b bd 54 b0 af 3d
       0.011497845 0.041580424 -0.06788669 0.08578554
000070 42 c9 87 3d 6a 4f 37 bd ec e3 d5 3d 32 93 be bd
       0.06630184 -0.04475347 0.10443863 -0.09305419
000080 bb 74 a7 bd 0d 8f b8 bc 23 dd 6e 3c f6 19 e5 3d
       -0.081765614 -0.02252915 0.01457909 0.11186592
000090 07 4d 71 bd 43 e8 6c 3e 5b 4d 0d 3e 59 e8 88 3d
       -0.05891135 0.23135476 0.1379904 0.06684942
0000a0 2b 4b ba 3d 7e ef 72 bd e8 01 b9 bd b1 6b 14 be
       0.090963684 -0.05931043 -0.09033567 -0.14494206
0000b0 24 5a c1 bd e9 a5 10 be 57 53 09 3e 82 54 81 bd
       -0.09441021 -0.1412579 0.13410698 -0.06314947
0000c0 44 11 4f 3d 6b a9 41 3e af d0 08 be 67 13 49 be
       0.050553575 0.18912284 -0.13360856 -0.19636308
0000d0 a4 05 32 3e 4e c5 4a be aa c9 25 3e 9b 90 72 be
       0.17384964 -0.19801828 0.1619021 -0.23687975
0000e0 dc ed 4a bc 91 fb 9f 3d 66 f3 d8 3d 1a 7f 04 be
       -0.012385812 0.07811654 0.105932996 -0.1293911
0000f0 90 55 a5 3d 47 10 09 bd 73 f4 9a 3c ea e3 81 3e
       0.080729604 -0.03346279 0.01891539 0.25369197
000100 ee 77 93 bd 91 8d 39 bb 2d fa 41 bd 26 f3 4e bd
       -0.07200609 -0.002831314 -0.047357727 -0.050524853
000110 b9 c9 14 bd 94 12 11 3d 9f 5b 05 3d a2 b4 86 be
       -0.03632519 0.035418108 0.03255808 -0.26309687
000120 ed 26 a5 3d 09 b6 57 be 22 c4 4a 3e 4c e8 61 3d
       0.08064065 -0.21065535 0.19801381 0.055153176
000130 0e 68 1c bd 88 57 0f be 9c 1a 1e 3d d7 f5 18 bd
       -0.03818517 -0.13998234 0.038599595 -0.037343826
000140 5b 67 d4 bc ba fd 14 3e 34 f8 6f 3b 61 6a 87 3c
       -0.02592819 0.14549914 0.0036616446 0.016530218
000150 1f 6b 5c bd 79 c1 56 3d 98 3a 0f 3e 91 1c df 3d
       -0.053813096 0.052430604 0.13987195 0.108941205
000160 e8 4e 3e 3b db be 7d bd 4a 0d 05 3d f8 19 bd 3d
       0.002903873 -0.061949592 0.032483377 0.09233469
000170 57 f1 a0 3d 6a 6a b2 3b c2 39 89 3d 8a 66 6b 3e
       0.07858532 0.0054448145 0.067004696 0.22988334
000180 a7 61 72 3e 19 7b 18 bd 7e cf 44 be 8f d9 30 3c
       0.23670064 -0.03722677 -0.19219777 0.0107940575
000190 36 b2 ad be e0 57 99 be a4 02 96 be 6f 9e dd 3d
       -0.33925027 -0.29949856 -0.2929889 0.108212344
0001a0 92 ed 27 bd 58 f3 06 3e cc 23 b0 be 79 3d 21 3e
       -0.04099805 0.13178766 -0.3440231 0.15746106
0001b0 51 8e 09 3e ca 4c b1 3e 83 2c 9f be 3e 76 af 3e
       0.13433196 0.34628898 -0.31088647 0.342699
0001c0 ee 71 24 be 19 ea 37 be a6 40 a0 3d 5e cd 15 bd
       -0.16059086 -0.17960395 0.07824831 -0.036572807
0001d0 32 9b 7b 3d b8 43 ab bd 97 98 2c bd ff f9 9d bd
       0.061427303 -0.08362526 -0.04213771 -0.077136986
0001e0 34 49 28 3e 36 94 8c bd 29 e9 b4 3d e0 cb b8 bc
       0.16434175 -0.068642065 0.08833534 -0.022558153
0001f0 86 a7 14 3e e5 6b 5e 3d 3b 11 05 3e 83 de d5 bd
       0.1451703 0.054302115 0.12994854 -0.10442831
000200 b5 cf 2c 3d bc 96 1f 3e cd 38 94 bd 6d 29 7b 3c
       0.042190272 0.15584844 -0.072373964 0.015329701
000210 ef 65 8c bd f7 9c 2f 3d 50 87 c2 bc 7d 6e a5 3d
       -0.0685538 0.042874303 -0.023746163 0.080777146
000220 b5 43 dd bd 3c 02 33 3d f4 39 78 bd 75 ed c4 bd
       -0.1080393 0.043703303 -0.060602143 -0.09615604
000230 e3 b0 3d 3d 2c 52 cf 3d 91 20 de bd e7 c0 a1 bd
       0.04631127 0.10123095 -0.10846055 -0.07898121
000240 e7 71 73 bc c1 d3 21 3e 89 7c e7 bd b7 fc df bd
       -0.014858699 0.15803434 -0.1130305 -0.109368734
000250 65 b8 23 3e 35 b8 b7 3d c5 07 09 3c 44 89 20 3e
       0.1598831 0.089706816 0.008363669 0.15677363
000260 b2 f6 fa 3d a8 57 f5 3d 63 4b da bd ae e6 cb 3d
       0.12254085 0.1197961 -0.1065891 0.09956108
000270 f4 02 18 bd 40 c8 2f 3e 2a 64 ab 39 a7 c0 10 be
       -0.03711219 0.17166233 0.0003269029 -0.14135991
000280 18 d4 50 bc 93 ae 0d 3e 6c 14 2c 3e 6f ce f3 bd
       -0.01274588 0.13836126 0.16804665 -0.119046085
000290 4a 0a 4b bd bb c4 32 3e c9 07 ae bd cc a8 31 be
       -0.04957036 0.17457859 -0.08497579 -0.17349547
0002a0 7a 5a a9 3d e6 0c 1d be d6 e5 0b be 6a 61 2c be
       0.0826921 -0.15336952 -0.13661894 -0.16834036
0002b0 7b dd b8 3d 54 97 8e be 1d d3 7e bc 37 4e a4 3b
       0.09026619 -0.2784983 -0.015553263 0.0050142067
0002c0 78 61 25 be ee b9 9c 3e 9c b1 a1 bd 05 9f 89 3d
       -0.16150463 0.30610603 -0.078952044 0.06719784
0002d0 b7 d1 07 be 01 ad 23 be 1c 42 db bd 0c c6 d2 3d
       -0.13263594 -0.15983965 -0.10705969 0.10291681
0002e0 78 d8 a4 3d 8a 7c 0d 3e 0c 73 0d 3e c2 e2 50 3e
       0.08049101 0.13817039 0.13813418 0.20399001
0002f0 2f 42 76 bd b2 6a a1 3c 79 ad 09 bc ba 4a 1f 3e
       -0.06012171 0.019704197 -0.0084031755 0.1555585
000300 f0 6d 02 be a4 cc fa 3d 91 f5 01 be 81 33 15 bb
       -0.1273725 0.12246063 -0.12691332 -0.0022766294
000310 49 18 19 bd d8 66 86 3d 8b ab c9 bd 5f 8e e6 3d
       -0.037376676 0.06562585 -0.09847172 0.11257624
000320 e4 d6 5a bd b7 d3 5a 3d 55 7d 77 bd f8 54 17 3e
       -0.053427592 0.053424563 -0.06042226 0.14778507
000330 ad 2e fc bd 7c d5 fe 3d 07 ea 81 3d 6c 08 09 3e
       -0.1231359 0.12443063 0.06343465 0.13382119
000340 c9 40 e4 3d 68 0a c8 bc 51 e9 62 bd 40 1f 09 3e
       0.11145169 -0.024419025 -0.05539829 0.13390827
000350 f3 45 30 3e 4b 04 c9 bd 85 fd 3e be c8 9d 16 3e
       0.17214184 -0.09815272 -0.18651398 0.14708626
000360 16 56 b5 bd bb fd 0d 3c d2 86 29 3d 7a 84 8f bd
       -0.0885431 0.008666451 0.04138834 -0.0700769
000370 da f6 f8 3d 6b 0a c6 3d 9f 4b b7 3d 47 e9 af bd
       0.12156458 0.09669956 0.089499705 -0.08589416
000380 c6 4f 2b be 61 9c 1a 3e c3 68 1b 3e 46 b9 3c 3e
       -0.1672965 0.15098716 0.15176682 0.18430051
000390 b5 ff 0f 3e 22 17 83 3e 7d 94 4b 3e 1c c7 a2 3d
       0.14062388 0.25603586 0.19880863 0.07948133
0003a0 6b aa 72 3d 75 d6 17 3d 77 e3 42 be f2 e0 f4 bd
       0.059244554 0.037069757 -0.19032083 -0.119569674
0003b0 b9 01 a2 3d 12 d3 90 bb fc e3 1a be d8 ce 43 3d
       0.07910485 -0.004419693 -0.15126032 0.047804683
0003c0 ab 93 62 bd 8c 7c 90 3e 3b ee e5 bd f1 76 f8 bd
       -0.05531661 0.28220022 -0.112270795 -0.12132061
0003d0 1f 85 4e 3e f2 36 0c 3c 33 a1 1a 3d 20 fe 20 be
       0.20167969 0.008558022 0.037751388 -0.15721941
0003e0 fd cc 57 bd cb c3 0c 3e 4e 38 3a 3d dd 9e 7c 3d
       -0.052685726 0.13746564 0.045463853 0.06167494
0003f0 7b 35 51 3e 56 30 6b 3d 0c 75 37 3d 3c e1 92 3d
       0.20430557 0.057419144 0.04478936 0.07171866

decoder.shift_attention_embedding.weight f4 [32, 32]
000000 57 93 eb bd 2e ff 06 3d 15 37 24 3d ff fb 1c be
       -0.11502712 0.032958202 0.040091593 -0.15330504
000010 f2 94 a4 bd 2f da 34 be 7d f7 c2 3d f9 47 65 bd
       -0.080362216 -0.17661355 0.09519861 -0.05597684
000020 b0 8f c1 3c 6d 1f 40 be 7b 46 ff bc 4b 36 30 be
       0.023628086 -0.18761988 -0.031161537 -0.17208211
000030 55 f6 cf bd 35 2f ea bc da f9 18 bd fb 85 98 3c
       -0.10154406 -0.028586963 -0.037347652 0.018618574
000040 70 fe 2d bd 81 9f c9 3c 55 a4 c8 3c 83 7b 61 3c
       -0.04247898 0.02461219 0.024492422 0.013762358
000050 d3 aa 96 3d 2e 70 a9 bd 24 a5 96 bd 78 68 b0 bd
       0.07356801 -0.0827335 -0.07355717 -0.08613676
000060 91 19 76 bd 8f f7 33 3c 3f 20 c8 bd 7b ee 8c 3d
       -0.060082976 0.010984316 -0.097717755 0.06881424
000070 65 c8 de 3c fd ff fe 3d bc 84 1a be 7c bc 09 be
       0.027195165 0.1245117 -0.15089697 -0.13450807
000080 fc c1 ad bc 1a 72 85 be 56 4f bc bc 4f b9 8c bd
       -0.021210663 -0.26063615 -0.02298705 -0.06871282
000090 d6 88 f6 bc 95 d6 ff 3c 17 f9 00 3e 8a 95 09 be
       -0.030094545 0.03123025 0.1259502 -0.13435951
0000a0 26 88 5a bd 37 59 48 3e 17 91 1d be ea 1c 23 be
       -0.053352498 0.19565283 -0.15387379 -0.15928999
0000b0 2e 49 20 3d 67 82 80 bd fd cc 51 3d d3 c5 c8 3d
       0.03913229 -0.06274872 0.051220883 0.09803357
0000c0 93 43 3d 3a 5d 1b 16 be 41 58 ec bc 52 8a 2d bd
       0.0007219847 -0.14658876 -0.028850676 -0.04236824
0000d0 89 c1 83 3c 5e 8f 37 bd 34 bc 9f 3d a5 ae 27 3e
       0.016083496 -0.04481446 0.07799569 0.16375215
0000e0 69 da 1e 3e 2f 5a 0a 3e 07 2d 09 3e 95 9b b9 bd
       0.15513004 0.13510965 0.13396083 -0.09062878
0000f0 d1 fe 00 bd ac 74 f1 3b 99 07 18 3d f8 62 04 3e
       -0.03149301 0.0073686447 0.03711662 0.12928379
000100 f3 11 5d 3e a6 8e d9 3d 22 3c 08 3d fd 0a 3d ba
       0.21588878 0.10622911 0.033260472 -0.0007211415
000110 9b 89 96 3d 3e 6a 35 be a3 f0 19 bd fb f2 5f bd
       0.07350465 -0.1771631 -0.037583005 -0.054675084
000120 42 8a 9c bc fc b5 40 3e 94 ef 27 3e c9 ff cf bc
       -0.019108895 0.18819422 0.16399986 -0.025390523
000130 37 97 39 bd de 13 68 bd e6 37 4b 3e 75 d4 c5 3d
       -0.045310225 -0.05665957 0.19845542 0.096596636
000140 6c fb da bd 42 cc 67 be 12 df ef bd f6 15 c8 3d
       -0.10692486 -0.22636512 -0.11712469 0.09769814
000150 ef 11 7d be df c0 5f 3e 43 e1 cf 3d 6e 24 c3 3d
       -0.24713872 0.21850918 0.10150387 0.09528433
000160 da 6f 9a bd cb 07 9d bd f9 86 83 3c 00 ca d9 3c
       -0.07540865 -0.07667502 0.01605557 0.026585579
000170 dc e9 3c be 74 fc ce bb e3 5b 0f be e0 ef 81 be
       -0.18448585 -0.006316716 -0.13999896 -0.25378323
000180 ff eb 20 3d ba 57 29 3e 27 52 a1 3c cb c3 5f 3d
       0.039287563 0.16537371 0.019692494 0.054630082
000190 b9 d7 a3 bd 52 07 08 be ec f0 76 bd 79 92 f2 bd
       -0.0800013 -0.13284042 -0.060288355 -0.11844344
0001a0 a2 52 9b bc 36 cd b9 3d 1b ae de bd 6f a6 27 3e
       -0.0189603 0.09072344 -0.10873052 0.16372083
0001b0 8d af 70 3d 1f 17 7c 3c 27 3e 71 3c 56 4a e8 bd
       0.05876117 0.015386372 0.014724291 -0.113423035
0001c0 b6 a8 70 bc 5a a6 be bd 88 9c 68 3e f0 33 e3 3c
       -0.014688661 -0.09309073 0.22715962 0.027734727
0001d0 85 f5 ca bd 61 21 c0 bb 17 7a 99 3c b1 96 48 3e
       -0.099101104 -0.005863354 0.018734975 0.19588734
0001e0 f1 bd 2d bd 8b 1a 5f be d2 b9 8d 3c 1d c0 ef 3d
       -0.04241747 -0.21787469 0.01730052 0.117065646
0001f0 73 b0 5e bd 4d 51 12 be 23 33 be bc 9d 1e ad 3d
       -0.054367494 -0.14288826 -0.023217743 0.08453105
000200 be 90 62 3e 82 0d 63 bd 8e a0 4e be 32 a3 75 3d
       0.22125527 -0.055432804 -0.20178434 0.05997009
000210 05 96 19 3e 25 17 1d be e8 96 92 3b 94 a2 41 bc
       0.14998634 -0.1534086 0.004473556 -0.011818547
000220 2f 7c 4b bc 10 83 0e 3e a6 2e 08 3e 16 87 bb 3d
       -0.012419744 0.13917184 0.13299045 0.09156625
000230 62 6d aa bd 32 df 67 3d 53 34 27 bb cb 21 71 bd
       -0.08321644 0.05660934 -0.0025513365 -0.058870118
000240 80 26 3e bd 02 f9 9b bd 72 2e 2f 3e 3c 98 9f 3b
       -0.046423435 -0.07615854 0.17107561 0.0048704427
000250 f6 5c 55 bd 9c c1 4c 3e 88 ba df bd be 32 5f 3d
       -0.052090608 0.19995731 -0.1092425 0.05449175
000260 18 ed b7 3d 59 e4 2d be e3 90 d6 bc 71 4a b7 bd
       0.08980769 -0.16981639 -0.026192134 -0.089497454
000270 a1 75 aa bd 78 28 4f 3c 52 9f 9c 3d 23 f8 55 be
       -0.08323217 0.012643926 0.076475754 -0.20895438
000280 45 8e 0e be bb 8e 47 bd b5 45 97 3c f1 e9 93 3d
       -0.13921459 -0.048720103 0.018465856 0.07222355
000290 c9 f4 0f bd cb 89 66 bb 1e 1f 7d 3d 77 bc 52 be
       -0.035145555 -0.0035177346 0.061797254 -0.20579706
0002a0 f9 25 9a 3e 2d 60 b1 3d a7 be d2 bd bf c9 bb 3c
       0.30107096 0.08660922 -0.1029027 0.022923348
0002b0 50 cd f1 3d 0a f7 94 bc c1 e3 a3 bd 32 a4 49 3e
       0.118067384 -0.018184204 -0.08002425 0.19691542
0002c0 ed ec b4 bd ce 5b 47 3e 1e 4d ea 3d 0e d9 c8 3d
       -0.088342525 0.19468614 0.1144049 0.09807025
0002d0 6c f4 44 3e 3b cc 1d 3d 28 e5 61 bc a2 84 27 bc
       0.19233865 0.038524847 -0.013787545 -0.010224493
0002e0 aa a7 30 3e f4 ee c0 bd a1 3c cf 3d 0c 45 43 3c
       0.17251459 -0.09420577 0.10118986 0.0119183175
0002f0 ca ed 3c bc 72 f7 ba bd 05 9a 5a bc 28 ee 81 3d
       -0.011531303 -0.09129228 -0.013342385 0.06344253
000300 ad 63 9d 3e 27 be 9b bd ee 8c 78 3a 0a 54 1f bc
       0.3074011 -0.07604628 0.00094814494 -0.009724626
000310 f6 78 10 3e 59 d7 1d be 59 97 0f 3e b3 f5 82 3e
       0.14108643 -0.1541418 0.14022578 0.2557808
000320 16 d4 9b be 49 e9 ad bd c8 04 85 3e ed e5 3e 3e
       -0.30435246 -0.08491761 0.2598021 0.18642397
000330 26 d1 80 be 6e 58 ad 3e f7 bc 0f 3e b7 da e1 bd
       -0.25159568 0.3385653 0.14036928 -0.11028045
000340 42 ce 09 3e 2c 41 9c be 74 63 60 3e 85 81 76 3e
       0.13457587 -0.30518472 0.21912938 0.24072845
000350 0f 63 4b be 15 f4 b3 3e d1 55 05 be 9f 92 b8 3e
       -0.19862007 0.35147157 -0.13021018 0.36049363
000360 fb 8a 26 be b0 20 46 be ca 92 65 bd 64 11 b9 be
       -0.16263954 -0.19348407 -0.056048192 -0.3614608
000370 fd bd 85 be 89 2d 1f be 70 28 3b bc b1 29 0f be
       -0.26121512 -0.15544714 -0.011423215 -0.13980748
000380 79 5c c9 bc b7 a6 8e bd 4b 60 36 3d d4 d7 62 bc
       -0.024580227 -0.06965392 0.044525426 -0.013845403
000390 76 6e 41 3d c9 3c d4 bc 16 bc df 3d 10 89 3a be
       0.047224484 -0.02590789 0.109245464 -0.18216348
0003a0 86 cb 9d bd ce d7 0c 3e b5 d5 fc bc 9d 55 18 3e
       -0.07704835 0.13754198 -0.030863622 0.14876409
0003b0 80 11 16 be 28 41 ef 3d 34 c9 d1 3d cf 75 0a be
       -0.14655113 0.116823494 0.102434546 -0.13521503
0003c0 e0 b5 21 be 4b f2 67 3c de 2d 4f 3d 6d b9 ac bd
       -0.15792036 0.014156888 0.05058085 -0.08433805
0003d0 c2 14 89 bd fb 96 1b be a7 83 e1 bd 3c c3 03 3d
       -0.06693412 -0.15194313 -0.11011439 0.032168612
0003e0 e8 54 e4 bd 6f b9 c5 3c d8 94 27 bb 97 85 0d 3c
       -0.11149007 0.024136273 -0.0025570896 0.008637807
0003f0 6e 01 56 3d 46 18 2a be 4a 7d 87 3d 16 aa f8 3d
       0.052247457 -0.16610822 0.06615694 0.12141816

decoder.shift_attention_embedding.bias f4 [32]
000000 ba 9c 8e 3d bf 00 35 bd f0 57 18 be 91 f1 f6 bc
       0.06963487 -0.044190165 -0.14877295 -0.030144485
000010 59 c4 1d bd 92 60 ec 3d 42 b1 bf bb 86 df 13 3e
       -0.03851733 0.11541857 -0.005849988 0.14440736
000020 70 0c 29 3e 60 75 05 3d cc 52 23 3e cf de cb 3d
       0.16508651 0.03258264 0.15949553 0.09954607
000030 30 d2 07 be 56 20 c0 3d 76 96 18 be 2f b1 10 3c
       -0.13263774 0.093811676 -0.14901146 0.008831306
000040 8e 53 8b 3c a3 6b d3 bd bd 10 8b bd 35 e4 84 bc
       0.017007615 -0.103232644 -0.06790302 -0.016222099
000050 38 ce fb bc 37 4f ac bd c8 27 7c bd 0e 11 f9 bd
       -0.030737981 -0.084135465 -0.061561376 -0.12161456
000060 84 c6 ae 3d b9 66 3f bd fb b9 e3 bb a4 ed 1a be
       0.085339576 -0.046728823 -0.006949661 -0.15129715
000070 87 a4 d4 3c 61 07 5d bd 4d 5f 09 3e e1 0b b4 bd
       0.025957359 -0.053962115 0.1341526 -0.08791328

decoder.worker_attention_embedding.weight f4 [32, 32]
000000 cf d3 73 3d 83 a0 17 be 2f 3d e5 3d 1b 97 ae bd
       0.05952817 -0.14807324 0.111933105 -0.08524915
000010 a8 b7 50 bd d9 09 96 3d 68 3d 3f bd 89 ac 0e bd
       -0.0509564 0.07326097 -0.04668942 -0.03483251
000020 ca ae 0e 3e cc 0c 47 3e 5a 9c f9 3b c1 16 6a 3e
       0.13933864 0.19438475 0.0076175155 0.22860242
000030 ad 80 95 bd f7 46 a9 bd 92 3e 2d be 03 b5 cf bd
       -0.072999336 -0.082654886 -0.169184 -0.10141947
000040 06 8b 9d 3c f2 e0 17 be 37 bb 3d 3e 08 c4 2b be
       0.01923133 -0.14831904 0.18528448 -0.16773999
000050 26 b8 48 bd 5c b0 ea 3d 51 b5 da 3d bb fe ed bc
       -0.049003743 0.11459419 0.106791146 -0.029052129
000060 f6 44 1a 3e 0b fd e8 bc 2a 49 13 bd 46 bc 8b bd
       0.15065369 -0.028440973 -0.035958447 -0.0682302
000070 f5 4c 86 bd 3c 42 f8 bd b8 e0 33 3d 11 66 9c 3d
       -0.06557647 -0.12122008 0.04391548 0.07636655
000080 dd ec 3a 3e f7 31 de 3d 9a 20 07 bd df 39 58 bd
       0.18254419 0.10849374 -0.032990076 -0.052789565
000090 af bd 1b be bb f8 fb bd 5b f4 21 3e e6 9e e8 3c
       -0.15209077 -0.12303301 0.1581587 0.028396081
0000a0 dc dc 98 bb 37 f9 e9 bc c6 df 0d bd 45 c2 fc 3d
       -0.0046650004 -0.028561218 -0.034637235 0.123417415
0000b0 8f a9 a9 bd 66 49 05 bd ed 96 28 be 09 ac 1e 3e
       -0.08284294 -0.0325407 -0.16463824 0.15495314
0000c0 22 ed 20 3a 7f 62 25 be 99 cf f7 3d 7a d5 bb bd
       0.0006138851 -0.16150855 0.12100143 -0.09171577
0000d0 a0 be 23 3e 9e ef 27 3e 39 88 fa 3c 59 47 1a 3e
       0.15990686 0.164 0.030582534 0.1506628
0000e0 8c 01 fe bd e7 69 f3 bd 7b 0c 5e bd 34 b3 32 bd
       -0.12402639 -0.11885434 -0.05421112 -0.043627933
0000f0 6d 6f 1c 3e 94 28 60 3d 5b 25 89 bc db 1c c5 3d
       0.1527688 0.0547262 -0.016741445 0.09624644
000100 b3 16 4a be 42 11 e6 bd 17 8c 35 3e 57 20 70 3d
       -0.19735222 -0.112337604 0.17729221 0.05862459
000110 e8 2c ca 3d 90 f9 8c 3e 26 ee 46 3d 7c d0 01 be
       0.098718464 0.2753415 0.04856696 -0.12677187
000120 9f 9a bb 3c fe 05 8a be 8a 06 f3 bc 20 ae 75 be
       0.022900878 -0.26957697 -0.029666204 -0.23992205
000130 61 69 f0 bd 09 8a 59 be f5 40 61 3e 74 4c 1c bd
       -0.117388494 -0.21244062 0.21997435 -0.03815885
000140 c7 83 b3 3d 4a e1 9e bb aa 36 34 3d 95 6f bc bd
       0.08765369 -0.004848634 0.043997444 -0.0920097
000150 fa 82 99 be be 9d 96 bc 9d c2 e3 3d 89 41 7d bd
       -0.2998274 -0.018385764 0.11121104 -0.061830077
000160 d9 38 cb 3c 83 8b 5c b6 06 fe a1 bd 2a 1a ea 3d
       0.02480738 -3.286376e-06 -0.07909779 0.11430772
000170 82 3d c7 bd cd ca 21 3d 97 1c 84 be 11 c7 e7 3d
       -0.097285286 0.039500047 -0.25803062 0.11317266
000180 9e 7b cc bd 99 8a 85 3d 95 ac c7 bd b2 1a 06 be
       -0.099845156 0.06520576 -0.09749714 -0.13096121
000190 7f 2a 02 3e bd cf 4f 3e 3f 7c 1e bd d1 86 9f bd
       0.12711523 0.2029409 -0.03869271 -0.07789386
0001a0 c0 a4 31 3e f0 5c 85 bd 08 2d 5e 3e ef 83 7c 3d
       0.17348003 -0.06511867 0.21696866 0.06164926
0001b0 7d 86 c2 bd e9 bf 5f 3c e3 0c ab 3d df 43 59 be
       -0.09498308 0.013656595 0.08352067 -0.21217297
0001c0 c8 68 e6 bd 2e 57 35 3c b0 c8 9a bd 97 3b ae bc
       -0.11250454 0.011068149 -0.07557809 -0.021268649
0001d0 82 8a 01 be 25 0c 93 bd a4 28 ef bd f4 07 d4 3c
       -0.12650493 -0.07180051 -0.116776735 0.025882699
0001e0 3a 2c af bd 83 3d 4b 3e f2 3b a3 bd 5c 5b 99 bd
       -0.085533574 0.19847684 -0.07970418 -0.074881285
0001f0 a7 93 9d 3c a2 1f 01 be 9c 17 62 bd 7b 6e f9 bd
       0.019235445 -0.12609723 -0.055198297 -0.121792756
000200 ba d8 a0 be 83 ff 79 be 56 70 0b 3e 60 c1 ea bd
       -0.3141535 -0.24413876 0.13617072 -0.114626646
000210 ca ed f2 bb 0d cd 0e 3e c6 3c 3e be 32 31 34 be
       -0.0074136006 0.13945408 -0.1857787 -0.17596892
000220 12 bc 93 3d 72 01 8c 3d b5 92 13 3e b4 62 23 3c
       0.07213606 0.06836213 0.14411433 0.009972263
000230 10 4f 2c 3c e8 42 c6 bd f2 2e ec bc aa 43 47 bd
       0.010516897 -0.0968073 -0.028830979 -0.048648514
000240 6f 8b 2d bc 67 5f 3e be b0 88 9c bd bb d6 1a bc
       -0.010592326 -0.1859108 -0.076432586 -0.00945061
000250 5c e6 b5 bd 1c 73 35 bd 42 fe 86 3e 3c 42 88 bc
       -0.08881828 -0.04429923 0.26365858 -0.016633146
000260 8c 19 03 be 44 07 78 3d 71 27 cf 3d da 43 94 3d
       -0.12802714 0.060553804 0.10114945 0.07239504
000270 bf 1a 1c 3d 06 00 70 3c 2f 93 39 be e7 d8 71 3e
       0.038111445 0.014648443 -0.18122552 0.23617898
000280 85 c6 89 3e d7 73 b8 bd ef 7f 1c bd 7b e3 1e be
       0.2690927 -0.0900647 -0.038207944 -0.15516464
000290 45 73 c7 bd 35 dc 3a be 40 32 b1 bd bf b1 3c 3e
       -0.09738783 -0.18248065 -0.086521626 0.1842718
0002a0 c8 01 24 be a2 62 3a 3e 08 84 03 be 4d cc 88 3c
       -0.16016304 0.18201688 -0.12843335 0.01669898
0002b0 ba 80 20 be a6 95 16 bd 2d 63 df bd 8f 87 c6 bd
       -0.15674105 -0.03676381 -0.10907588 -0.096938245
0002c0 cd 54 3b 3e 21 ca d1 3d 36 e7 31 bd d1 f1 a1 bd
       0.18294068 0.10243631 -0.04343339 -0.07907451
0002d0 c4 07 76 3e 3e 95 c1 3d 2f 58 49 bd 4c ec f6 3a
       0.240264 0.09452294 -0.049156364 0.0018838733
0002e0 b5 a2 d1 3d 4c 6e 4e be 7a 89 c9 3b 23 35 01 3d
       0.10236112 -0.20159262 0.0061504217 0.031544816
0002f0 af 53 c5 3c 91 53 16 3e d7 0d 3b 3d fd e9 70 bd
       0.024087755 0.14680316 0.045667496 -0.0588169
000300 d6 8e 29 be 53 0a b7 3d a7 97 2b 3e 0f 92 ed bd
       -0.16558394 0.08937516 0.1675707 -0.11600124
000310 5a 2b 25 3e 1d 8c 01 3e e9 90 04 be dc f2 35 be
       0.16129819 0.12651105 -0.12945904 -0.17768425
000320 62 bd 70 3e 44 f0 a5 3b cb 7b 99 3e c1 53 9a be
       0.23509744 0.0050640423 0.2997726 -0.30142024
000330 da 0e 0f be 4a 14 3e be aa f7 7f 3e fa 3f 84 be
       -0.13970509 -0.18562427 0.2499682 -0.2583006
000340 52 1d c6 b9 06 b8 34 3e 48 c2 a9 3d c3 60 2a 3e
       -0.00037787348 0.17648324 0.08289009 0.16638474
000350 3f 69 5e be db c1 d0 3d b4 6d 22 bd 97 cc e1 bc
       -0.21719836 0.10193225 -0.039655402 -0.027563376
000360 16 3d d5 bd 82 59 58 3e 1a c2 66 bd 22 29 69 3e
       -0.10412042 0.21127895 -0.056337453 0.22769597
000370 92 a7 17 3e e3 e0 4d bd 06 84 34 bd 60 ad b9 3c
       0.14810017 -0.050263297 -0.04407122 0.02266568
000380 05 ef 07 3e 81 52 62 3d 01 0f 50 3e da 1d f1 3c
       0.13274772 0.055254463 0.20318224 0.02943318
000390 ff 74 09 3e f3 ec fe 3c 52 4a 11 bc 30 0c 51 bd
       0.13423537 0.031118846 -0.008867817 -0.051037014
0003a0 cb ec 06 3d 90 9a 14 3c 65 9a a6 3d bb 70 03 be
       0.032940667 0.009070054 0.08134917 -0.12835972
0003b0 78 80 d2 3b 4e 94 27 3e 2a 03 a2 bd f7 3b 48 3e
       0.006424006 0.16365167 -0.0791076 0.19554125
0003c0 80 ba b6 3c 54 cc a0 3d 08 2b 26 3c fb a8 f6 3d
       0.022305727 0.078514725 0.010142095 0.12043949
0003d0 6b 47 0a be 88 1f b8 bd d1 c0 26 be b8 15 14 be
       -0.13503806 -0.08990389 -0.16284491 -0.1446141
0003e0 48 94 cc bc 55 63 93 3d a8 11 8e 3e f4 5f 01 be
       -0.02497305 0.071966805 0.27747846 -0.1263426
0003f0 71 a7 2a bd c5 0c cc bd b3 0c e3 3d 59 bc e0 bd
       -0.04166359 -0.09963373 0.110864066 -0.109734245
