dev/test_models/step_8.pth (torch, 37761 bytes, 12 tensors)

encoder.shift_embedding.weight f4 [32, 5]
-2.1782584 -1.0544175 -3.5553887 -1.5009298 -1.1715652 1.3859948 1.0403883 3.655686
1.5740505 1.6225554 1.9028589 1.4155827 3.6897807 0.7448643 1.0810395 -2.6011908
-0.62688094 -3.8095284 -1.4179364 -1.4299446 -1.6389318 -0.77906597 -3.7261224 -1.3123466
-1.3571295 2.3833334 0.7675793 3.6304617 1.2889476 1.2350287 -2.0428233 -1.3265413
-4.1561584 -1.2141978 -1.3227265 -1.6972355 -0.87607926 -3.9190357 -1.4916317 -1.7010295
-2.4880912 -1.1520832 -3.5765214 -1.477649 -1.5247966 1.9112604 0.6420115 3.863493
0.89401037 1.8640211 -2.1901402 -0.48164946 -3.6805794 -1.043262 -1.8074704 -2.5207736
-0.84398186 -3.687457 -0.79361093 -1.4483387 1.6786561 0.8448123 3.637535 0.95437604
1.289467 2.5109875 1.1924491 3.3844993 0.66362584 1.1158289 -1.760392 -0.68265355
-3.5865371 -1.3161246 -1.6932676 1.6679288 0.9773097 3.1366503 1.175524 1.2027555
-2.023048 -0.88547456 -3.7934647 -1.1166477 -1.9885782 -2.0666904 -0.5945463 -3.4524002
-1.5095738 -1.6964668 -1.7927805 -1.2376313 -3.1067255 -1.2492812 -1.4710289 2.3010023
1.4749906 3.4419188 0.75495607 1.1531888 2.5257587 0.65057623 4.0958734 1.2817494
1.2019706 -2.099297 -0.9061659 -4.0670123 -1.6635345 -1.1574394 -1.8677884 -0.52228063
-3.999922 -1.4492766 -1.4210988 -2.189755 -1.2925204 -3.7516897 -1.1469424 -1.2173599
-2.2952142 -0.63485265 -4.0165405 -1.124547 -1.5871891 1.8355789 0.6723795 3.9851
1.0266352 1.8238003 -1.7772183 -0.7535112 -3.7125936 -1.0942417 -1.150327 2.1813064
0.7202032 4.0122595 1.2927828 1.7623823 -1.9990343 -0.7071723 -3.42895 -1.2912056
-1.8451555 2.0936882 1.2273235 3.3924243 0.87508667 1.8167341 2.0569525 1.0723908
4.219295 1.637946 1.8955911 -2.0272267 -0.9485473 -3.7738476 -1.0227026 -1.5490732
00000000: 9668 0bc0 27f7 86bf 7d8b 63c0 781e c0bf
00000010: d9f5 95bf 4768 b13f 722b 853f c2f6 6940
00000020: 7d7a c93f e5af cf3f e190 f33f d031 b53f
00000030: 5e25 6c40 6daf 3e3f 815f 8a3f e979 26c0
00000040: 457b 20bf 50cf 73c0 f17e b5bf 6d08 b7bf
00000050: 84c8 d1bf de70 47bf ca78 6ec0 f9fa a7bf
00000060: 6bb6 adbf 8988 1840 1480 443f 7c59 6840
00000070: 3cfc a43f 6c15 9e3f 9ebd 02c0 1bcc a9bf
00000080: 40ff 84c0 d56a 9bbf 1a4f a9bf 033f d9bf
00000090: bb46 60bf 7bd1 7ac0 caed bebf 56bb d9bf
000000a0: e33c 1fc0 7677 93bf bae5 64c0 9a23 bdbf
000000b0: 892c c3bf 2ea4 f43f de5a 243f 7843 7740
000000c0: dddd 643f 3e98 ee3f 422b 0cc0 c29a f6be
000000d0: 9d8e 6bc0 9c89 85bf 315b e7bf 5b54 21c0
000000e0: 320f 58bf 4cff 6bc0 162a 4bbf 2a63 b9bf
000000f0: 34de d63f 9e45 583f 60cd 6840 fd51 743f
00000100: 410d a53f 05b4 2040 2ca2 983f a39b 5840
00000110: 62e3 293f 7bd3 8e3f 8654 e1bf 62c2 2ebf
00000120: d389 65c0 c576 a8bf febc d8bf b17e d53f
00000130: f830 7a3f e1be 4840 9277 963f e4f3 993f
00000140: 9e79 01c0 76ae 62bf 20c8 72c0 50ee 8ebf
00000150: bb89 febf a844 04c0 3034 18bf 20f4 5cc0
00000160: b739 c1bf d325 d9bf d579 e5bf b46a 9ebf
00000170: 97d4 46c0 72e8 9fbf ad4a bcbf 9f43 1340
00000180: 7ecc bc3f 6648 5c40 cd44 413f b19b 933f
00000190: 08a6 2140 2a8c 263f 6511 8340 5d10 a43f
000001a0: 2cda 993f e25a 06c0 7dfa 67bf f724 82c0
000001b0: b3ee d4bf f926 94bf b113 efbf 2fb4 05bf
000001c0: b9fe 7fc0 e581 b9bf 91e6 b5bf f224 0cc0
000001d0: 4f71 a5bf af1b 70c0 02cf 92bf 73d2 9bbf
000001e0: cae4 12c0 b485 22bf 8087 80c0 28f1 8fbf
000001f0: 0329 cbbf 40f4 ea3f 1021 2c3f e10b 7f40
00000200: c868 833f 4a72 e93f e47b e3bf 1ce6 40bf
00000210: 229b 6dc0 1d10 8cbf ea3d 93bf 869a 0b40
00000220: 3d5f 383f 6e64 8040 e879 a53f be95 e13f
00000230: 5be0 ffbf 3e09 35bf eb73 5bc0 3a46 a5bf
00000240: 0e2e ecbf fdfe 0540 f018 9d3f 7b1d 5940
00000250: ae05 603f be8a e83f 1ca5 0340 1a44 893f
00000260: 7704 8740 37a8 d13f bba2 f23f 15be 01c0
00000270: ffd3 72bf b886 71c0 ebe7 82bf 0848 c6bf

encoder.shift_embedding.bias f4 [32]
-2.4462206 2.0769923 2.3138766 -2.7534578 -2.346894 2.5918415 -2.4785883 -2.1570287
-2.333362 2.5283585 -2.1396334 -2.758393 2.4699552 2.6891022 -2.485066 2.5516891
-2.662615 -2.3847377 -2.3507419 2.362692 2.2730765 -2.5946255 -2.585104 -2.651296
-2.0550354 2.0530362 -2.5910418 2.1788776 -2.3759131 2.5391471 2.383548 -2.2575374
00000000: e18e 1cc0 71ed 0440 8e16 1440 a738 30c0
00000010: 8333 16c0 bbe0 2540 31a1 1ec0 c20c 0ac0
00000020: ce55 15c0 a0d0 2140 c1ef 08c0 8389 30c0
00000030: bf13 1e40 401a 2c40 520b 1fc0 e04e 2340
00000040: 4968 2ac0 8b9f 18c0 8e72 16c0 5936 1740
00000050: 167a 1140 580e 26c0 5872 25c0 d5ae 29c0
00000060: b385 03c0 f264 0340 a1d3 25c0 bb72 0b40
00000070: f60e 18c0 6381 2240 0d8c 1840 7e7b 10c0

encoder.conv1.h_bias f4 [32]
1.5565562 1.1901406 1.1344465 -0.0413909 0.78560346 -0.017636668 -0.036904562 -0.05913786
1.1621164 -0.10535869 0.88864446 -0.014323871 0.9524327 0.9483621 -0.055361636 1.1068048
1.0041779 -0.018167574 1.6952382 -0.06839344 -0.04875368 1.1916972 1.0369859 0.9032753
0.83905995 1.0174179 0.85060024 0.9979541 -0.018221168 -0.16039944 1.2234082 -0.08319123
00000000: 3c3d c73f 8756 983f 8b35 913f 8189 29bd
00000010: 4f1d 493f c67a 90bc 3d29 17bd 8a3a 72bd
00000020: 3bc0 943f 4cc6 d7bd 347e 633f abae 6abc
00000030: a1d2 733f dcc7 723f e2c2 62bd c8ab 8d3f
00000040: e788 803f 2ad4 94bc 91fd d83f dc11 8cbd
00000050: f0b1 47bd 8989 983f f4bb 843f 0d3d 673f
00000060: a2cc 563f c03a 823f f0c0 593f eb79 7f3f
00000070: 8f44 95bc c03f 24be a498 9c3f 2a60 aabd

encoder.conv1.loop_weight f4 [32, 32]
-1.649285 -1.7165203 -1.1391656 -0.31750363 -1.1894897 0.22964442 0.16588333 0.08588179
-0.9336907 0.39154282 -0.7816951 0.1949456 -1.3477912 -1.0012333 0.3898686 0.18086247
-1.3394299 0.30742085 -2.0005906 -0.18738028 0.4379497 -0.99579006 -1.5330607 -0.9852408
-1.1847649 -1.3640436 0.22311679 -1.0315655 0.15640816 0.5777488 -1.0721874 0.15267813
1.4462402 1.311723 0.54188645 0.25743702 1.1565218 -0.055268228 0.1289847 0.40096122
1.073661 -0.4112276 0.6198935 -0.31362012 0.9895497 0.4335994 -0.067561105 -0.24365784
0.45896992 -0.3156784 1.3483166 0.016861362 0.00071085535 1.0219538 1.4188635 0.9115591
0.93917364 1.097242 -0.29794505 0.66402304 -0.019188287 -0.080862634 1.391236 0.1573298
1.6623288 0.67503214 0.9852676 0.42130336 0.8586843 0.35062242 -0.11391964 -0.4058636
1.0830392 -0.0061818482 1.0365096 -0.26373607 1.4755447 0.5946819 -0.2139533 0.23958777
1.0384823 -0.17896146 1.307004 0.12788217 -0.046720468 1.1134737 1.3030264 1.2251469
1.0250441 1.5297471 -0.0854 1.1388986 -0.20680973 -0.17334603 1.466077 -0.18266094
-2.115002 -1.3962625 -1.1123165 0.3844917 -0.5993666 0.25258425 -0.021213489 -0.26298442
-1.4198362 0.21983215 -1.3212913 0.4171867 -1.0106748 -1.2406454 -0.14340875 -0.028216552
-0.94974273 -0.43857387 -2.1318314 -0.1357221 0.51629925 -0.8695321 -1.1215794 -0.9752031
-1.0729882 -0.803259 0.45936397 -1.2801543 0.44498077 0.43452752 -1.2133065 0.29776412
-1.5935907 -1.2665358 -0.92108643 -0.3199156 -0.9566624 0.08477548 -0.16675363 0.20435873
-1.3046572 -0.29249007 -1.3378366 0.007804394 -0.9439996 -1.2533308 0.02708981 0.12854558
-1.2562126 -0.003669979 -1.287157 -0.28618878 -0.20764954 -1.1893543 -1.468736 -0.7029256
-0.74537015 -1.381853 -0.23740661 -1.4450547 0.3100621 0.077128574 -1.462526 -0.06425291
1.5156635 1.4599739 1.0461723 0.2527983 1.2190092 -0.3542005 -0.46794763 -0.08306728
0.8334135 -0.010546022 1.4641598 0.18119618 1.3236383 1.2300972 -0.14021079 0.06439037
0.81476015 -0.24834697 1.9367745 -0.18211195 0.11333641 1.4651309 1.5675119 1.2886045
0.87705326 0.7540467 -0.339949 1.4809709 0.27857244 -0.61204207 1.8451138 -0.49752176
-1.6933717 -1.6811031 -1.2209021 0.3469945 -0.8879163 -0.07225431 0.42880458 -0.13288808
-1.018207 -0.2075515 -1.1797748 0.12323645 -1.1572464 -0.6669391 0.29448864 0.12159911
-0.8517085 0.012894528 -2.027095 0.007915635 -0.25936827 -1.2921007 -0.8238335 -1.4729006
-0.5754079 -0.67960465 0.13376991 -1.0480282 -0.2660121 -0.2370402 -1.6781187 0.024815293
-1.9334447 -1.3009756 -0.997338 -0.22349171 -0.8434816 0.27259365 -0.40911594 -0.27669924
-1.087742 -0.17459205 -1.3097095 0.37108144 -1.3960316 -1.0505009 0.3555152 -0.0035145306
-0.6922666 0.115073964 -1.3598021 -0.21225029 0.35381246 -1.638202 -1.4821203 -0.7892904
-0.7006366 -1.2569581 0.19309814 -0.92490596 -0.2789275 0.37090433 -1.2096051 0.18439078
00000000: c51b d3bf f0b6 dbbf 2ed0 91bf d68f a2be
00000010: 3341 98bf e827 6b3e 52dd 293e cbe2 af3d
00000020: 5b06 6fbf 4d78 c83e 2c1d 48bf d29f 473e
00000030: 6c84 acbf 6a28 80bf db9c c73e 0334 393e
00000040: 7072 abbf 4466 9d3e ad09 00c0 9ee0 3fbe
00000050: f13a e03e 19ec 7ebf 553b c4bf be38 7cbf
00000060: 60a6 97bf fb98 aebf ba78 643e 570a 84bf
00000070: 7629 203e 58e7 133f 703d 89bf a857 1c3e
00000080: 661e b93f 8ae6 a73f 12b9 0a3f c9ce 833e
00000090: e808 943f f060 62bd 9114 043e ca4a cd3e
000000a0: b96d 893f 6d8c d2be 57b1 1e3f d192 a0be
000000b0: 2153 7d3f be00 de3e 7a5d 8abd 7181 79be
000000c0: 1bfe ea3e 99a0 a1be a395 ac3f d720 8a3c
000000d0: b258 3a3a 62cf 823f 529d b53f f05b 693f
000000e0: af6d 703f 6d72 8c3f 418c 98be 6afd 293f
000000f0: c130 9dbc 4f9b a5bd 0514 b23f 101b 213e
00000100: 31c7 d43f e8ce 2c3f 7f3a 7c3f 13b5 d73e
00000110: bcd2 5b3f c884 b33e b34e e9bd 5bcd cfbe
00000120: 07a1 8a3f 1a91 cabb 59ac 843f 6a08 87be
00000130: a6de bc3f 133d 183f 9316 5bbe 7f56 753e
00000140: fdec 843f ac41 37be e84b a73f 8bf3 023e
00000150: f65d 3fbd 4e86 8e3f 92c9 a63f 9dd1 9c3f
00000160: a534 833f c1ce c33f 32e6 aebd 6ec7 913f
00000170: eec5 53be 9f81 31be 69a8 bb3f 780b 3bbe
00000180: 315c 07c0 bbb8 b2bf 6360 8ebf 19dc c43e
00000190: 1770 19bf b952 813e e9c7 adbc e5a5 86be
000001a0: 31bd b5bf ae1b 613e 1320 a9bf 7f99 d53e
000001b0: cb5d 81bf 78cd 9ebf bed9 12be 6626 e7bc
000001c0: 5722 73bf c18c e0be ed6f 08c0 bcfa 0abe
000001d0: 302c 043f a899 5ebf ea8f 8fbf e9a6 79bf
000001e0: ad57 89bf 62a2 4dbf c131 eb3e 19dc a3bf
000001f0: 85d4 e33e 647a de3e a14d 9bbf 8a74 983e
00000200: c8fa cbbf d81d a2bf 52cc 6bbf facb a3be
00000210: d4e7 74bf c49e ad3d 77c1 2abe 6a43 513e
00000220: 02ff a6bf 42c1 95be 3b3e abbf 00bc ff3b
00000230: f5a9 71bf 256d a0bf 73eb dd3c 74a1 033e
00000240: 93cb a0bf 0884 70bb 90c1 a4bf 5687 92be
00000250: 15a2 54be c33c 98bf 8bff bbbf eff2 33bf
00000260: 94d0 3ebf 8fe0 b0bf b81a 73be 8df7 b8bf
00000270: 76c0 9e3e 96f5 9d3d 0d34 bbbf 0897 83bd
00000280: 4301 c23f 6de0 ba3f f9e8 853f c76e 813e
00000290: 7e08 9c3f c559 b5be d596 efbe 2e1f aabd
000002a0: 965a 553f 39c9 2cbc 9769 bb3f 7e8b 393e
000002b0: fb6c a93f d373 9d3f 6b93 0fbe 19df 833d
000002c0: 1f94 503f ab4e 7ebe 3ae8 f73f 8e7b 3abe
000002d0: eb1c e83d 6989 bb3f 3ba4 c83f fef0 a43f
000002e0: 9086 603f 3409 413f cc0d aebe 7490 bd3f
000002f0: 0ca1 8e3e caae 1cbf b02c ec3f 2cbb febe
00000300: 67c0 d8bf 632e d7bf 8546 9cbf 43a9 b13e
00000310: 7c4e 63bf 11fa 93bd 468c db3e d013 08be
00000320: 9b54 82bf 6188 54be dc02 97bf 6463 fc3d
00000330: a620 94bf 85bc 2abf 37c7 963e f408 f93d
00000340: 9109 5abf 9243 533c edbb 01c0 94b0 013c
00000350: ebcb 84be 8e63 a5bf c1e6 52bf 0288 bcbf
00000360: ef4d 13bf 92fa 2dbf fbfa 083e ca25 86bf
00000370: bd32 88be abba 72be 98cc d6bf 7149 cb3c
00000380: 1e7b f7bf 5e86 a6bf 8b51 7fbf 03db 64be
00000390: 69ee 57bf 6591 8b3e a577 d1be 86ab 8dbe
000003a0: 213b 8bbf 42c8 32be 90a4 a7bf 63fe bd3e
000003b0: 2ab1 b2bf d076 86bf 1706 b63e 0a54 66bb
000003c0: 6238 31bf e6ab eb3d ff0d aebf 2458 59be
000003d0: e826 b53e 9ab0 d1bf 1eb6 bdbf f00e 4abf
000003e0: ec5c 33bf 01e4 a0bf 85bb 453e a3c6 6cbf
000003f0: 96cf 8ebe 2ce7 bd3e 57d4 9abf f0d0 3c3e

encoder.conv1.linear_r.W f4 [2, 32, 32]
0.17669843 -0.09441994 -2.3875961 0.15483707 0.09123404 -0.05817044 -0.104067594 0.13615924
-2.4752898 0.04362826 0.13972105 0.11157957 -0.11207082 -0.09050233 0.013866643 -2.5340104
-2.2097163 0.004252404 -2.3905094 0.07601636 0.18839435 -2.4826632 0.15405472 -0.03107857
0.037803676 0.017897967 -2.3929634 0.21541654 0.06711906 0.05768057 -0.038225222 0.14972988
-0.16697164 -0.1294496 2.2092807 0.10257592 0.061878845 0.009766144 -0.09908913 0.12075357
2.4200191 0.07888415 0.094938494 -0.16722694 -0.05802362 0.103528865 -0.15832056 2.3173873
1.9811869 -0.11045344 2.335096 0.09746833 -0.062450442 1.9954283 0.05564896 -0.12543343
-0.049231276 -0.07472459 2.120569 0.085678406 0.12632476 0.08438898 -0.08681514 0.067560114
-0.17703456 -0.17835785 2.3076124 -0.0077048717 -0.088656634 0.083158575 0.070675 0.12748669
2.571885 -0.11811687 0.121391706 -0.07881333 0.08623993 -0.16533853 -0.17028484 2.7335722
2.0734413 -0.09787823 2.480145 -0.111721784 -0.07946346 2.2472637 0.004681208 0.000783986
0.0190885 0.13969442 2.003503 0.014895607 -0.14894873 0.03923251 0.16298728 -0.08691662
0.12667242 -0.08358138 -2.2531672 -0.008828601 0.015862696 -0.08109137 0.07727323 0.12843028
-2.5209365 -0.12988296 -0.04974254 -0.09968757 -0.092903 0.0741693 0.18644994 -2.3801932
-2.0644944 -0.046303436 -2.6053445 0.24146384 -0.03220427 -2.421645 -0.013653389 0.13500911
0.05208336 0.07022334 -2.2620487 -0.10625164 0.03829424 0.09485443 0.01054061 0.13155082
-0.021755744 0.07489177 -2.405158 0.049086366 0.028107932 -0.086078525 -0.090164475 -0.069019586
-2.5223982 0.025074342 0.1383627 -0.05248114 -0.10415934 -0.13591887 -0.13951693 -2.397099
-2.2929184 -0.03936781 -2.4049206 -0.07306694 0.071547024 -2.356376 -0.121351376 -0.027442047
-0.071374916 -0.02118563 -2.1733894 0.11562818 0.097966716 -0.10270418 -0.103169635 0.02227954
-0.21127625 -0.14825524 2.508525 -0.08525848 -0.2373995 0.1331587 -0.0861676 -0.08877979
2.4926412 -0.16443114 -0.15846336 -0.015042135 -0.122835614 -0.19720271 0.0686812 2.3791065
2.229399 -0.11497091 2.3846877 -0.14100935 0.08380578 2.4595654 0.14547451 0.059487656
0.072745025 0.023531828 2.2648373 -0.05305161 -0.12725104 -0.011546524 -0.012655096 0.049688857
0.1481887 -0.036349546 -2.4023485 -0.14694633 -0.051325355 0.101155095 0.17494418 0.1604333
-2.4352436 0.1492629 -0.08015892 0.14607792 -0.033873707 0.028702207 -0.02420405 -2.444808
-2.4351976 0.110793814 -2.706751 -0.1668547 0.15167487 -2.4419587 -0.08640132 0.0029588342
0.16935779 0.03294362 -2.3213894 -0.006692979 0.16169892 0.030433536 0.20882873 -0.09908021
0.09992253 0.103787564 -2.1994615 0.10907614 -0.12987746 0.055155214 -0.11969652 0.03778093
-2.4107761 -0.015051087 0.013183128 0.08935968 0.102176264 0.024868375 -0.011220077 -2.5137112
-1.96919 -0.17209902 -2.3821485 0.03323289 0.119715914 -2.4087114 -0.053258117 0.064057514
0.08247583 0.13173828 -2.3772442 -0.053807963 0.15892331 -0.12440481 0.1251251 -0.0025332985
00000000: 6ff0 343e 3e5f c1bd 60ce 18c0 9c8d 1e3e
00000010: ead8 ba3d 2144 6ebd 6421 d5bd 546d 0b3e
00000020: 266b 1ec0 8cb3 323d 0913 0f3e d483 e43d
00000030: 6385 e5bd 4959 b9bd eb30 633c 3a2d 22c0
00000040: fe6b 0dc0 c057 8b3b 1bfe 18c0 77ae 9b3d
00000050: 73ea 403e f4e3 1ec0 85c0 1d3e 7c98 febc
00000060: 07d8 1a3d c29e 923c 5026 19c0 2796 5c3e
00000070: b875 893d 7642 6c3d 0d92 1cbd ca52 193e
00000080: 9dfa 2abe 708e 04be db64 0d40 5313 d23d
00000090: ac74 7d3d 2d02 203c 3eef cabd a64d f73d
000000a0: 98e1 1a40 038e a13d 1d6f c23d 8a3d 2bbe
000000b0: 2daa 6dbd f106 d43d c91e 22be 1350 1440
000000c0: 8897 fd3f 6a35 e2bd 3672 1540 7a9d c73d
000000d0: 09cc 7fbd 326a ff3f 2af0 633d 9f71 00be
000000e0: bca6 49bd 3509 99bd 67b7 0740 2978 af3d
000000f0: 475b 013e 21d4 ac3d 23cc b1bd f55c 8a3d
00000100: 8c48 35be 71a3 36be ecaf 1340 2679 fcbb
00000110: 9c91 b5bd 0b4f aa3d 0ebe 903d df8b 023e
00000120: c499 2440 42e7 f1bd 379c f83d e268 a1bd
00000130: 8f9e b03d 814e 29be 265f 2ebe d9f2 2e40
00000140: 43b3 0440 6274 c8bd b2ba 1e40 64ce e4bd
00000150: bdbd a2bd 2bd3 0f40 d264 993b 6984 4d3a
00000160: 7c5f 9c3c 0e0c 0f3e 6539 0040 b40c 743c
00000170: 0486 18be 45b2 203d 23e6 263e 5701 b2bd
00000180: 6ab6 013e b72c abbd e433 10c0 d6a5 10bc
00000190: 7cf2 813c 3b13 a6bd 6d41 9e3d 3a83 033e
000001a0: 0657 21c0 0a00 05be d5be 4bbd ff28 ccbd
000001b0: ee43 bebd 13e6 973d bcec 3e3e 1655 18c0
000001c0: ad20 04c0 aca8 3dbd f7bd 26c0 4c42 773e
000001d0: a0e8 03bd 3bfc 1ac0 77b2 5fbc d43f 0a3e
000001e0: 5c55 553d 41d1 8f3d 68c5 10c0 769a d9bd
000001f0: 6cda 1c3d 0a43 c23d 86b2 2c3c 42b5 063e
00000200: 1a39 b2bc db60 993d 1cee 19c0 c90e 493d
00000210: 9b42 e63c f049 b0bd 27a8 b8bd 245a 8dbd
00000220: f96e 21c0 b568 cd3c f4ae 0d3e 77f6 56bd
00000230: 7e51 d5bd 512e 0bbe 87dd 0ebe 126a 19c0
00000240: 2dbf 12c0 2440 21bd 38ea 19c0 1fa4 95bd
00000250: 3f87 923d ddce 16c0 1287 f8bd 25ce e0bc
00000260: 032d 92bd 7c8d adbc d018 0bc0 78ce ec3d
00000270: c6a2 c83d 9256 d2bd 9a4a d3bd 9583 b63c
00000280: cd58 58be 39d0 17be ac8b 2040 ff9b aebd
00000290: db18 73be c15a 083e a378 b0bd 2ed2 b5bd
000002a0: 6f87 1f40 a360 28be 3844 22be 4973 76bc
000002b0: 3d91 fbbd 82ef 49be bba8 8c3d 4843 1840
000002c0: 79ae 0e40 de75 ebbd b99e 1840 c164 10be
000002d0: 5da2 ab3d 8569 1d40 45f7 143e 54a9 733d
000002e0: 58fb 943d d2c5 c03c 18f3 1040 a54c 59bd
000002f0: 194e 02be a22d 3dbc 5257 4fbc 8b86 4b3d
00000300: c7be 173e 43e3 14bd 14c0 19c0 1979 16be
00000310: 893a 52bd 672a cf3d 9124 333e a148 243e
00000320: 08db 1bc0 60d8 183e 5c2a a4bd 7395 153e
00000330: 28bf 0abd e420 eb3c 9247 c6bc bc77 1cc0
00000340: 47da 1bc0 dee7 e23d 693b 2dc0 f5db 2abe
00000350: a850 1b3e 0d49 1cc0 2df3 b0bd 00e9 413b
00000360: 216c 2d3e e4ef 063d a591 14c0 c750 dbbb
00000370: 6794 253e c04f f93c 33d7 553e 91ea cabd
00000380: 2fa4 cc3d 938e d43d fac3 0cc0 5063 df3d
00000390: 99fe 04be 6fea 613d 7323 f5bd 2dc0 1a3d
000003a0: 284a 1ac0 d698 76bc 0cfe 573c 3502 b73d
000003b0: ca41 d13d c3b8 cb3c 6ad4 37bc a5e0 20c0
000003c0: 6b0e fcbf ba3a 30be 1f75 18c0 361f 083d
000003d0: 9e2d f53d 5428 1ac0 2f25 5abd 9630 833d
000003e0: 17e9 a83d 66e6 063e c524 18c0 bd65 5cbd
000003f0: cbbc 223e f3c7 febd cb20 003e b205 26bb

encoder.conv2.h_bias f4 [32]
0.32894433 -0.42222533 -0.46371105 0.43275458 -0.56498885 0.68864316 0.33529517 0.42473388
0.7202725 1.0962332 0.541381 -0.26347044 -0.3383838 0.1306599 -0.3819157 -0.3322487
-0.5071477 0.50081056 -0.8564472 0.7098937 -0.37782493 -0.6726067 0.62474996 0.29305115
0.76842505 -0.29784817 -0.785805 0.63433725 0.13438615 -0.7303893 0.43160266 0.84570056
00000000: 646b a83e eb2d d8be 896b edbe 0292 dd3e
00000010: 1ca3 10bf eb4a 303f cfab ab3e b876 d93e
00000020: c763 383f 5f51 8c3f f297 0a3f 99e5 86be
00000030: a440 adbe b5cb 053e 748a c3be 801c aabe
00000040: 6fd4 01bf 1f35 003f 2040 5bbf 98bb 353f
00000050: 4572 c1be f42f 2cbf 9def 1f3f cd0a 963e
00000060: 81b7 443f 8e7f 98be 842a 49bf ed63 223f
00000070: 869c 093e cbfa 3abf 06fb dc3e d57f 583f

encoder.conv2.loop_weight f4 [32, 32]
-0.15860207 -0.035221595 -0.093786694 -0.05350879 -0.43143943 0.06319105 -0.10746914 0.144857
-0.2546949 -0.35157335 -0.28103343 -0.37889272 -0.094137795 0.23494186 -0.20263234 0.09788773
0.2907886 -0.03686504 -0.23321204 -0.17994943 -0.17983362 0.39798322 0.056908682 0.3641605
0.007302084 -0.11795133 -0.5273129 -0.07415876 0.33173513 0.4116232 -0.115454 0.26300064
0.15088123 0.05136434 -0.012684803 -0.099129476 -0.37492177 -0.18280573 -0.01930885 -0.15840052
-0.2888801 -0.29405802 0.24231422 -0.37982863 0.089419425 -0.02662453 0.18873355 -0.08752124
0.22364509 0.36882454 0.045437895 -0.26084393 -0.09516941 -0.37359923 -0.040552415 -0.07928248
-0.2892269 0.038701158 -0.010144574 -0.071232386 0.13093276 0.035236944 0.0028397345 0.14741698
1.0545478 -1.3656259 -0.87031484 1.3575414 -1.4516717 1.6347934 1.4975003 0.9031489
1.694089 1.7593539 0.8670385 -0.83123136 -1.0852286 1.0646596 -0.9597754 -1.5207274
-0.97918886 0.8416813 -1.6866211 1.8483834 -0.8651956 -0.93680334 1.6213315 0.7194137
1.5714991 -1.168495 -1.6989974 1.1639187 1.1038686 -1.2591251 0.87811226 1.4461324
-0.33860737 0.08805138 -0.2515451 0.18132329 0.12394917 -0.22925454 -0.04649242 0.2490412
-0.052986503 -0.1725508 0.24668843 -0.005977966 0.17595077 -0.12715894 0.13507004 0.20031707
-0.13348025 -0.10159924 -0.38282573 0.37803218 0.4202869 0.103199646 -0.295615 -0.24460684
-0.22467996 0.37806883 -0.17169526 -0.044626452 -0.3686202 0.016682511 0.00931358 -0.26732117
0.18225679 -0.36807194 0.06672522 0.24536023 -0.19958343 -0.46491292 -0.35915613 -0.19985162
-0.24860938 0.047868326 -0.25953215 0.39549375 0.3010439 0.13727209 -0.18939368 -0.3337951
0.33211318 0.22063236 0.3249644 0.2523171 0.20422977 0.11340558 -0.04208182 -0.20730112
-0.3462513 -0.3342139 0.09753279 -0.44757068 -0.21289824 0.3946607 0.12954071 -0.37588617
0.4165775 0.102994055 0.020739168 -0.123421475 0.18938941 -0.19409733 -0.047094166 -0.16094995
0.38926554 0.026889274 -0.044117354 0.038812853 0.02382668 -0.27106804 0.29894513 0.39625525
-0.25333282 -0.42028356 -0.43425968 -0.33162713 -0.12168376 -0.322174 -0.3216344 -0.22378439
0.40873098 0.11694686 -0.24878624 0.38282773 -0.57595944 0.22494158 0.51314646 0.04542803
0.41125682 0.34885946 -0.011629226 0.048044395 -0.20590003 -0.3956755 -0.25106934 0.27645794
-0.28832835 0.24376656 0.034933764 -0.25925177 -0.36053762 -0.46272978 0.34403947 0.44334787
-0.04254556 -0.17136157 0.38294852 -0.031441517 -0.06509181 -0.18563028 -0.442481 -0.36208588
-0.4344848 0.08097584 0.32678637 0.17940693 -0.18576239 0.044988915 0.3708388 0.0072774217
0.487806 0.25858513 -0.038768888 0.19690989 0.29783547 -0.3660081 0.013262421 0.24434514
-0.15324855 0.0984834 -0.3111784 -0.2491307 0.25949174 -0.47166368 -0.09262545 0.28867117
0.070036665 0.053332776 -0.25020182 -0.113477595 -0.34037125 0.370813 0.25796923 -0.15265045
0.1621011 -0.2695219 -0.3195592 -0.07040463 -0.009550452 0.48329473 -0.2812442 0.40025517
00000000: 9568 22be 8544 10bd 3d13 c0bd 082c 5bbd
00000010: a1e5 dcbe 4f6a 813d c818 dcbd 6555 143e
00000020: 5f67 82be 6c01 b4be 9de3 8fbe 3afe c1be
00000030: 51cb c0bd 9994 703e da7e 4fbe 5d79 c83d
00000040: 3ee2 943e ccff 16bd 23cf 6ebe aa44 38be
00000050: 4e26 38be 75c4 cb3e 1419 693d 3f73 ba3e
00000060: 5246 ef3b 7890 f1bd fafd 06bf 8ce0 97bd
00000070: 30d9 a93e 47c0 d23e 2673 ecbd 05a8 863e
00000080: 9c80 1a3e 6a63 523d ecd3 4fbc 6504 cbbd
00000090: bff5 bfbe 6d31 3bbe 982d 9ebc bf33 22be
000000a0: 18e8 93be c68e 96be 3821 783e e678 c2be
000000b0: 8821 b73d b01b dabc 5e43 413e 563e b3bd
000000c0: 3803 653e 92d6 bc3e 161d 3a3d 568d 85be
000000d0: 2ee8 c2bd 6648 bfbe 4a1a 26bd da5e a2bd
000000e0: 8c15 94be 1b85 1e3d 6d35 26bc 49e2 91bd
000000f0: 3d13 063e 9d54 103d d71a 3a3b 7af4 163e
00000100: 6cfb 863f d4cc aebf f4cc 5ebf ebc3 ad3f
00000110: 61d0 b9bf e940 d13f 17ae bf3f c434 673f
00000120: e9d7 d83f 8232 e13f 3cf6 5d3f 94cb 54bf
00000130: c5e8 8abf c446 883f d7b3 75bf 32a7 c2bf
00000140: 1fac 7abf 6d78 573f 33e3 d7bf d497 ec3f
00000150: 757d 5dbf 58d2 6fbf ca87 cf3f 7f2b 383f
00000160: e226 c93f 3f91 95bf bf78 d9bf 4afb 943f
00000170: 914b 8d3f 032b a1bf f7cb 603f de1a b93f
00000180: f25d adbe 4854 b43d 85ca 80be d0ac 393e
00000190: 10d9 fd3d b4c1 6abe d66e 3ebd a804 7f3e
000001a0: 6008 59bd 28b1 30be e49b 7c3e d0e2 c3bb
000001b0: 702c 343e f435 02be cd4f 0a3e eb1f 4d3e
000001c0: 0caf 08be 4313 d0bd bc01 c4be 6f8d c13e
000001d0: d82f d73e 565a d33d d95a 97be 377a 7abe
000001e0: 8112 66be 3d92 c13e e2d0 2fbe 3aca 36bd
000001f0: c9bb bcbe c3a9 883c fc97 183c 52de 88be
00000200: 86a1 3a3e ed73 bcbe 3ba7 883d b63f 7b3e
00000210: 995f 4cbe 1109 eebe 50e3 b7be e7a5 4cbe
00000220: 7593 7ebe 9411 443d 66e1 84be 287e ca3e
00000230: 6d22 9a3e 0e91 0c3e 6bf0 41be 31e7 aabe
00000240: bd0a aa3e 73ed 613e bc61 a63e b52f 813e
00000250: 9c21 513e 2f41 e83d fd5d 2cbd bf46 54be
00000260: da47 b1be 161e abbe 45bf c73d fc27 e5be
00000270: ff01 5abe f810 ca3e 52a6 043e 2774 c0be
00000280: a549 d53e 8cee d23d 30e5 a93c 66c4 fcbd
00000290: 4cef 413e 73c1 46be d0e5 40bd 10d0 24be
000002a0: d04d c73e e546 dc3c 66b4 34bd 3afa 1e3d
000002b0: 2b30 c33c 6ec9 8abe 560f 993e f8e1 ca3e
000002c0: d7b4 81be 682f d7be 4957 debe 08cb a9be
000002d0: 5635 f9bd fef3 a4be 44ad a4be bc27 65be
000002e0: 3045 d13e d681 ef3d d2c1 7ebe ff01 c43e
000002f0: 1472 13bf 1657 663e 915d 033f be12 3a3d
00000300: 4190 d23e b59d b23e 8288 3ebc 33ca 443d
00000310: 75d7 52be fb95 cabe 298c 80be e58b 8d3e
00000320: c69f 93be f19d 793e b516 0f3d a6bc 84be
00000330: 6398 b8be ebea ecbe f125 b03e 7efe e23e
00000340: 4144 2ebd 6879 2fbe d411 c43e d2c8 00bd
00000350: db4e 85bd dd15 3ebe df8c e2be 5263 b9be
00000360: cb74 debe a9d6 a53d 8b50 a73e 73b6 373e
00000370: 7f38 3ebe 4c46 383d 95de bd3e 7077 ee3b
00000380: b5c1 f93e 4565 843e 20cc 1ebd bfa2 493e
00000390: e47d 983e 6a65 bbbe a04a 593c 9d35 7a3e
000003a0: 30ed 1cbe aab1 c93d c652 9fbe 1e1c 7fbe
000003b0: 1adc 843e e77d f1be 69b2 bdbd b5cc 933e
000003c0: 626f 8f3d 7873 5a3d 741a 80be f166 e8bd
000003d0: 2445 aebe 34db bd3e 8b14 843e 6650 1cbe
000003e0: d5fd 253e c6fe 89be 439d a3be 4d30 90bd
000003f0: 8079 1cbc 6872 f73e 3dff 8fbe 3fee cc3e

encoder.conv2.linear_r.W f4 [2, 32, 32]
1.1289626 -1.2314211 -1.402128 1.1147908 -1.4050395 1.7158358 1.1385719 1.5501201
1.6791059 2.0610151 1.3311305 -1.0227469 -1.038991 1.0738122 -1.144252 -1.0248227
-1.2315196 1.6050133 -1.54024 1.6182663 -1.0762849 -1.4768299 1.5978067 0.9055672
1.7658143 -1.1798656 -1.7252153 1.395527 1.2470784 -1.4771701 1.0625917 1.7371929
1.1702747 -1.1306869 -1.1699865 1.313417 -1.0136013 1.4126457 1.1770434 1.389761
1.4988525 1.8820336 1.2236879 -1.0048445 -1.1198874 0.89669144 -1.0431749 -1.2417092
-1.3702052 1.6418636 -1.3503608 1.5835841 -1.3147273 -1.3270029 1.2789285 1.1037204
1.5377108 -1.2198381 -1.6714706 1.3793659 1.1354793 -1.5154146 1.1257232 1.4877366
2.4617076 -2.207514 -2.5475395 2.6641147 -2.5567513 2.635401 2.355571 1.9506394
2.6253629 2.6730087 2.5247068 -2.309882 -2.3692107 2.4079387 -2.2673748 -2.4269297
-2.5322802 -1.4116842 -2.4042735 2.5598135 -2.0259457 -2.6370227 2.3232038 2.390859
2.662316 1.6537435 -2.1768582 2.2686188 -2.1575778 -2.5156045 2.5777078 2.4615073
0.0053576436 0.02901829 0.12482656 0.09048711 0.12829089 0.071165785 -0.124949366 0.13892701
0.072413154 -0.0088418145 0.037294473 0.16714932 -0.17858718 0.10948213 -0.014573444 0.15509793
-0.09289662 -0.020525953 0.022549855 0.11882873 -0.1353155 0.13654293 4.9754095e-07 0.070922166
0.12515977 0.014330081 0.020759309 0.10218805 -0.06269309 -0.053616256 0.12559238 0.11388105
1.1644552 -1.2597467 -1.2020608 1.007867 -1.1091368 1.5694358 1.1806532 1.4241606
1.4741111 1.88614 1.3802472 -1.1775978 -0.8752754 1.1340264 -1.0155653 -1.2391754
-1.2231159 1.3287663 -1.4398048 1.3712626 -1.0525411 -1.2395568 1.4396328 1.1051687
1.5723349 -1.075972 -1.5339606 1.3650813 1.1301237 -1.551696 1.186464 1.5993822
-0.043465238 -0.12690435 0.17277025 0.1265707 0.1947693 -0.24750696 -0.22214262 -0.23876421
0.14507858 -0.16289411 -0.13384093 0.06582278 0.1114084 0.018051261 0.05482664 0.04335531
-0.030097459 -0.08613402 0.049300406 -0.25323436 0.22267358 0.27677077 -0.14587998 -0.21612236
0.033341322 -0.15821508 0.16814207 -0.23213334 -0.17386857 0.18755649 -0.07278793 -0.08537013
-0.14402881 -0.0027657032 -0.10975266 -0.17067744 -0.07373605 -0.1159686 -0.16647042 -0.17094898
-0.15388985 -0.046472248 0.11051299 0.029026698 0.19971529 0.037765115 -0.14973359 0.04671098
-0.069776624 -0.021682886 -0.034456946 0.19039343 0.046226952 -0.05698354 -0.1016036 -0.07776784
0.07252345 0.15494736 -0.12008827 -0.084045485 0.14277375 -0.080409035 -0.027827006 0.06882074
0.02937407 0.123546824 -0.0077686147 0.16808547 0.08918825 -0.10638515 0.07079648 0.16636416
0.10833366 0.061176557 -0.005895755 3.3206095e-06 0.12257322 0.17228948 -0.15497582 0.11661776
-0.1538168 0.0015174528 -0.017116517 -0.046589755 -0.07464469 -0.18354905 0.10711825 0.068548955
-0.06313939 -0.083157256 -0.24660315 -0.06312135 0.049716484 -0.12982331 -0.08392285 0.071283326
00000000: d981 903f 359f 9dbf ee78 b3bf 77b1 8e3f
00000010: 56d8 b3bf 82a0 db3f b9bc 913f 566a c63f
00000020: f1ec d63f ace7 0340 7c62 aa3f 5fe9 82bf
00000030: a8fd 84bf ae72 893f d976 92bf 642d 83bf
00000040: 6fa2 9dbf 1371 cd3f 9626 c5bf 5a23 cf3f
00000050: b4c3 89bf c308 bdbf ee84 cc3f 41d3 673f
00000060: 3406 e23f d605 97bf dbd3 dcbf a1a0 b23f
00000070: 44a0 9f3f e913 bdbf 0103 883f 565c de3f
00000080: 90cb 953f 59ba 90bf 1ec2 95bf 0c1e a83f
00000090: b0bd 81bf 93d1 b43f 5ca9 963f b0e3 b13f
000000a0: 66da bf3f 7ae6 f03f cea1 9c3f bf9e 80bf
000000b0: 7858 8fbf 928d 653f c186 85bf 54f0 9ebf
000000c0: e262 afbf 9628 d23f 9fd8 acbf e2b2 ca3f
000000d0: fc48 a8bf 3bdb a9bf eeb3 a33f b646 8d3f
000000e0: b5d3 c43f a823 9cbf c0f2 d5bf 108f b03f
000000f0: 6357 913f 1bf9 c1bf b317 903f 276e be3f
00000100: 9e8c 1d40 e947 0dc0 e30a 23c0 db80 2a40
00000110: d0a1 23c0 69aa 2840 adc1 1640 8dae f93f
00000120: f205 2840 9312 2b40 cc94 2140 1bd5 13c0
00000130: 26a1 17c0 ab1b 1a40 ab1c 11c0 d152 1bc0
00000140: e110 22c0 11b2 b4bf 9edf 19c0 fcd3 2340
00000150: 18a9 01c0 fbc4 28c0 5faf 1440 d503 1940
00000160: 6363 2a40 dead d33f a551 0bc0 0d31 1140
00000170: c115 0ac0 aaff 20c0 2af9 2440 5689 1d40
00000180: 2c8f af3b c4b7 ed3c 11a5 ff3d 4e51 b93d
00000190: b05e 033e 5ebf 913d 74e5 ffbd e242 0e3e
000001a0: 594d 943d 42dd 10bc 17c2 183d 3129 2b3e
000001b0: 8fdf 36be 2b38 e03d 74c5 6ebc fed1 1e3e
000001c0: 9540 bebd 0b26 a8bc 79ba b83c 7a5c f33d
000001d0: 2590 0abe e9d1 0b3e c18e 0535 a43f 913d
000001e0: e229 003e b7c8 6a3c 6d0f aa3c f847 d13d
000001f0: 3c65 80bd b89c 5bbd 4a9b 003e 783a e93d
00000200: de0c 953f 613f a1bf 21dd 99bf c901 813f
00000210: 32f8 8dbf 46e3 c83f a51f 973f e54a b63f
00000220: acaf bc3f 096d f13f f1ab b03f 86bb 96bf
00000230: 0c12 60bf c727 913f 0bfe 81bf 4d9d 9ebf
00000240: 108f 9cbf 0415 aa3f 864b b8bf 8885 af3f
00000250: abb9 86bf cca9 9ebf e345 b83f 2b76 8d3f
00000260: 4542 c93f 73b9 89bf d258 c4bf fcba ae3f
00000270: e5a7 903f f99d c6bf 0dde 973f 8eb8 cc3f
00000280: 9b08 32bd 37f3 01be afea 303e c09b 013e
00000290: 9a71 473e 7772 7dbe 5b79 63be 9b7e 74be
000002a0: 7b8f 143e b7cd 26be 990d 09be 18ce 863d
000002b0: 162a e43d 3de0 933c e691 603d 5695 313d
000002c0: f28e f6bc 0867 b0bd 39ef 493d efa7 81be
000002d0: 8b04 643e e6b4 8d3e 9061 15be 2e4f 5dbe
000002e0: e990 083d 2203 22be 6f2d 2c3e 5db4 6dbe
000002f0: 9a0a 32be cf0e 403e d711 95bd 89d6 aebd
00000300: 4a7c 13be cd40 35bb 01c6 e0bd 11c6 2ebe
00000310: ed02 97bd f280 edbd 3977 2abe 400d 2fbe
00000320: 4d95 1dbe af59 3ebd a254 e23d 66c9 ed3c
00000330: 2a82 4c3e 98af 1a3d c353 19be 0354 3f3d
00000340: 0ce7 8ebd 4fa0 b1bc ba22 0dbd 7ff6 423e
00000350: 7958 3d3d 9367 69bd 8c15 d0bd bf44 9fbd
00000360: 2d87 943d 85aa 1e3e d7f0 f5bd 0a20 acbd
00000370: 4833 123e 7ead a4bd 76f5 e3bc e3f1 8c3d
00000380: e4a1 f03c 1e06 fd3d dd8f febb 991e 2c3e
00000390: 54a8 b63d 75e0 d9bd bffd 903d 5e5b 2a3e
000003a0: 0ade dd3d 4594 7a3d 2d31 c1bb a3d7 5e36
000003b0: ab07 fb3d a76c 303e fbb1 1ebe 4bd5 ee3d
000003c0: 2782 1dbe 44e5 c63a f037 8cbc e6d4 3ebd
000003d0: 51df 98bd 48f4 3bbe d060 db3d 6563 8c3d
000003e0: 394f 81bd 5a4e aabd 8985 7cbe c445 81bd
000003f0: 83a3 4b3d 67f0 04be bedf abbd fefc 913d

decoder.shift_attention_embedding.weight f4 [32, 32]
-2.4121814 2.4083562 2.3896637 -2.4811432 2.451716 -2.4387631 -2.356328 -2.263264
-2.2893934 -2.277882 -2.2089972 2.4375074 2.3744628 -2.2835066 2.2378469 2.166572
2.4338067 2.3338 2.1424913 -2.245224 2.0450184 2.3470862 -2.2439017 -2.403765
-2.188594 -2.1519651 2.3848696 -2.2353966 2.171707 2.2973495 -2.4692206 -2.3099174
-2.2773821 2.432396 2.3341007 -2.4508224 2.5266569 -2.5369248 -2.2578833 -2.2151773
-2.3423638 -2.4158173 -2.3506567 2.4284909 2.2278786 -2.4954224 2.5782287 2.3423853
2.284373 2.380564 2.224364 -2.4011638 2.3462071 2.5844095 -2.278464 -2.269915
-2.3404026 -2.1709461 2.5167408 -2.4650154 2.5018425 2.1792386 -2.5825539 -2.238488
2.1958866 -2.3816853 -2.5082705 2.4710846 -2.4921927 2.2277412 2.3989172 2.305155
2.2131786 2.4533162 2.263828 -2.406393 -2.326683 2.3288224 -2.4354718 -2.3207452
-2.3924649 -2.3831906 -2.2867656 2.392883 -2.283802 -2.495061 2.1852343 2.32483
2.4969401 2.301639 -2.1068723 2.36881 -2.3612175 -2.2495792 2.2924254 2.1517692
2.1266978 -2.4292455 -2.318294 2.2863116 -2.3635986 2.3708775 2.394961 2.11353
2.4572463 2.2390604 2.2734962 -2.4580874 -2.3250215 2.5490372 -2.4198458 -2.197897
-2.5221822 -2.4659033 -2.3732226 2.3630233 -2.2528543 -2.5861797 2.3101323 2.301555
2.2289824 2.408671 -2.2069395 2.2806237 -2.4306643 -2.2861137 2.5527594 2.2289553
2.57238 -2.4957404 -2.5388088 2.521727 -2.6299381 2.5403795 2.47451 2.2365134
2.6026366 2.467168 2.5028632 -2.420044 -2.2832396 2.4675403 -2.650427 -2.3099337
-2.465575 -2.3985748 -2.5644548 2.4715812 -2.3879793 -2.4709246 2.4739754 2.6477537
2.384113 2.45518 -2.459257 2.5429077 -2.3971634 -2.4451084 2.4465392 2.376039
2.421827 -2.4637082 -2.5662317 2.552869 -2.2791178 2.3529131 2.3203058 2.1410012
2.3827062 2.492156 2.3269103 -2.3141563 -2.484676 2.5733426 -2.2808883 -2.4997015
-2.504162 -2.4758916 -2.2287161 2.380112 -1.9851311 -2.6109655 2.1777947 2.353656
2.5396855 2.2347827 -2.133543 2.4308522 -2.3401399 -2.3876188 2.6274605 2.4603956
-2.3325174 2.2995658 2.570604 -2.585036 2.6144485 -2.68906 -2.6988602 -2.1081557
-2.6086998 -2.613553 -2.4305232 2.5772598 2.589655 -2.4745185 2.511039 2.4471383
2.6290503 2.417471 2.3658688 -2.637492 2.252901 2.7503 -2.5367665 -2.6653426
-2.4770427 -2.5721552 2.4083169 -2.4033113 2.6378732 2.5056655 -2.5755298 -2.4783309
-2.1270664 2.1516888 2.4117634 -2.3609335 2.2431889 -2.2534266 -2.3752036 -2.2485948
-2.171216 -2.0650382 -2.3639503 2.1673827 2.187183 -2.353685 2.10969 2.3512084
2.3762813 2.045928 2.2941022 -2.2008054 2.2840254 2.4489813 -2.2054725 -2.0896952
-2.3900738 -2.1551652 2.1057644 -2.3742046 2.1525314 2.1179821 -2.2956293 -2.2821085
00000000: 2e61 1ac0 8222 1a40 40f0 1840 0dcb 1ec0
00000010: eae8 1c40 b214 1cc0 14ce 16c0 51d9 10c0
00000020: 6c85 12c0 d2c8 11c0 3660 0dc0 1f00 1c40
00000030: 33f7 1740 f924 12c0 e238 0f40 1ea9 0a40
00000040: 7dc3 1b40 fb5c 1540 941e 0940 c0b1 0fc0
00000050: 95e1 0240 a936 1640 169c 0fc0 49d7 19c0
00000060: ed11 0cc0 ccb9 09c0 b4a1 1840 bd10 0fc0
00000070: 3ffd 0a40 c607 1340 b607 1ec0 b0d5 13c0
00000080: a1c0 11c0 60ac 1b40 e861 1540 46da 1cc0
00000090: bfb4 2140 fa5c 22c0 2981 10c0 77c5 0dc0
000000a0: 4ae9 15c0 c09c 1ac0 2971 16c0 656c 1b40
000000b0: 9095 0e40 00b5 1fc0 b301 2540 a4e9 1540
000000c0: 2b33 1240 295b 1840 fb5b 0e40 abac 19c0
000000d0: 4228 1640 f766 2540 5bd2 11c0 4a46 11c0
000000e0: 28c9 15c0 c8f0 0ac0 4812 2140 d0c2 1dc0
000000f0: 301e 2040 a578 0b40 9048 25c0 6343 0fc0
00000100: 6889 0c40 886d 18c0 8187 20c0 4026 1e40
00000110: 1680 1fc0 5093 0e40 dc87 1940 a987 1340
00000120: b8a4 0d40 2203 1d40 8fe2 1040 5802 1ac0
00000130: 60e8 14c0 6d0b 1540 c5de 1bc0 1787 14c0
00000140: 251e 19c0 3286 18c0 5e5a 12c0 ff24 1940
00000150: d029 12c0 14af 1fc0 e1da 0b40 04ca 1440
00000160: decd 1f40 0e4e 1340 ffd6 06c0 959a 1740
00000170: 301e 17c0 1bf9 0fc0 19b7 1240 96b6 0940
00000180: d11b 0840 c278 1bc0 ee5e 14c0 ee52 1240
00000190: 3345 17c0 75bc 1740 0b47 1940 1344 0740
000001a0: 8643 1d40 c44c 0f40 f680 1140 4e51 1dc0
000001b0: 27cd 14c0 6d23 2340 c1de 1ac0 58aa 0cc0
000001c0: 6f6b 21c0 5cd1 1dc0 e1e2 17c0 c63b 1740
000001d0: c42e 10c0 f883 25c0 35d9 1340 ad4c 1340
000001e0: a6a7 0e40 aa27 1a40 7f3e 0dc0 bdf5 1140
000001f0: 0190 1bc0 b04f 12c0 6960 2340 34a7 0e40
00000200: e0a1 2440 36ba 1fc0 d87b 22c0 fa63 2140
00000210: e850 28c0 9495 2240 5f5e 1e40 0923 0f40
00000220: 9991 2640 15e6 1d40 e92e 2040 00e2 1ac0
00000230: 9920 12c0 2eec 1d40 99a0 29c0 f4d5 13c0
00000240: fbcb 1dc0 4082 19c0 0720 24c0 632e 1e40
00000250: a7d4 18c0 a123 1ec0 9d55 1e40 cc74 2940
00000260: 4f95 1840 ab21 1d40 7764 1dc0 00bf 2240
00000270: 206b 19c0 a87c 1cc0 1994 1c40 0611 1840
00000280: 37ff 1a40 65ad 1dc0 243d 24c0 3562 2340
00000290: 11dd 11c0 2196 1640 e47f 1440 2a06 0940
000002a0: 427e 1840 7c7f 1f40 19ec 1440 231b 14c0
000002b0: ee04 1fc0 a5b1 2440 13fa 11c0 1cfb 1fc0
000002c0: 3144 20c0 0275 1ec0 49a3 0ec0 c153 1840
000002d0: c718 febf 0f1a 27c0 fd60 0b40 4da2 1640
000002e0: 358a 2240 ae06 0f40 f88b 08c0 1593 1b40
000002f0: dac4 15c0 bfce 18c0 5028 2840 1f77 1d40
00000300: f747 15c0 162c 1340 c784 2440 3b71 25c0
00000310: 2053 2740 8f19 2cc0 20ba 2cc0 06ec 06c0
00000320: f0f4 26c0 7444 27c0 b18d 1bc0 d3f1 2440
00000330: e8bc 2540 835e 1ec0 ddb4 2040 ea9d 1c40
00000340: 5c42 2840 d8b7 1a40 656a 1740 abcc 28c0
00000350: 882f 1040 ea04 3040 625a 22c0 f994 2ac0
00000360: de87 1ec0 319e 24c0 dd21 1a40 dacf 19c0
00000370: ead2 2840 d35c 2040 7bd5 24c0 f99c 1ec0
00000380: db21 08c0 45b5 0940 555a 1a40 8919 17c0
00000390: 6890 0f40 2438 10c0 5603 18c0 fae8 0fc0
000003a0: 34f5 0ac0 9629 04c0 f64a 17c0 66b6 0a40
000003b0: cefa 0b40 c6a2 16c0 2905 0740 337a 1640
000003c0: fe14 1840 7cf0 0240 92d2 1240 ffd9 0cc0
000003d0: 792d 1240 1cbc 1c40 7626 0dc0 91bd 05c0
000003e0: f8f6 18c0 3aee 09c0 d8c4 0640 f8f2 17c0
000003f0: 13c3 0940 058d 0740 97eb 12c0 110e 12c0

decoder.shift_attention_embedding.bias f4 [32]
-0.25778428 -0.3566853 -0.0047737863 0.2376079 0.25920558 0.33578688 -0.10999296 -0.045638103
-0.054357175 0.34777796 0.059770003 0.29506576 -0.021061014 0.094224945 0.0014536607 -0.14837173
0.16880122 0.07251013 0.046888303 -0.11448135 -0.097598284 -0.11297832 -0.15818916 0.03502951
0.20855163 -0.27332953 -0.23618753 -0.15366031 0.12638777 0.12835565 -0.4621231 -0.14542903
00000000: 4dfc 83be 759f b6be 6c6d 9cbb 7c4f 733e
00000010: 98b6 843e 42ec ab3e fd43 e1bd 05ef 3abd
00000020: a1a5 5ebd f40f b23e 64d1 743d dc12 973e
00000030: 2688 acbc 02f9 c03d c288 be3a c2ee 17be
00000040: 3ada 2c3e 3180 943d f30d 403d 3375 eabd
00000050: 9ce1 c7bd 2d61 e7bd 57fc 21be 1a7b 0f3d
00000060: 8f8e 553e d9f1 8bbe 25db 71be 2159 1dbe
00000070: cc6b 013e aa6f 033e 669b ecbe 59eb 14be

decoder.worker_attention_embedding.weight f4 [32, 32]
2.1846108 -2.012442 -2.2966006 2.4119954 -2.2854238 2.6055193 2.1057103 2.483958
2.1004403 2.2240925 2.1893847 -2.096151 -2.1938436 2.4110205 -2.3461587 -2.3548155
-2.2308843 2.1250787 -2.411784 2.248617 -2.3723495 -2.222887 2.4032905 2.2486055
2.4215271 -2.1367826 -2.3288643 2.1056502 2.3240242 -2.2322845 2.0770056 2.285308
1.8509952 -2.1061807 -1.919298 1.9524199 -2.0067856 1.9407326 1.8972061 2.0085468
1.7148126 1.7986389 1.8675568 -1.7638676 -2.0379305 1.9790772 -2.2234304 -1.9950068
-1.9184726 1.9588523 -1.8751695 1.9640766 -2.2472763 -1.8763732 1.9349954 1.980342
1.931079 -1.7882751 -2.2076066 2.0566795 1.887129 -1.8813069 1.9438207 2.0225134
-1.9677981 2.1635377 1.9249784 -2.2084162 2.2246845 -2.2062356 -2.0603971 -2.2332003
-2.011086 -2.357371 -2.1883037 1.7583522 2.2630906 -2.2628427 2.1236472 2.2791035
1.9057679 -2.1194534 2.192727 -2.2187707 2.3557358 2.0255148 -2.5614605 -1.9715468
-2.270274 1.9393997 2.0695047 -2.1902478 -1.9696947 2.2577791 -2.2291238 -2.0778666
-1.8725334 2.1952868 2.2088406 -1.9945579 2.270351 -2.2602415 -2.019418 -2.0410118
-2.0971432 -1.9882472 -2.160755 1.797063 2.1080987 -2.3292277 2.1715498 2.0267227
2.1643517 -2.1352506 1.9147148 -1.9443934 2.1671836 2.079671 -2.076921 -2.02796
-2.296373 2.0093644 2.1822002 -2.2737284 -2.138233 2.1731536 -2.4064064 -2.1247518
-2.2043931 2.0897272 2.3004293 -2.0216644 2.1610608 -2.3792818 -2.495577 -2.4802916
-2.5677738 -2.3188696 -2.3581014 1.9950392 2.222068 -2.227311 2.3697603 2.435775
2.160175 -1.9841534 2.100531 -2.3068388 2.194555 2.4130006 -1.9623756 -2.2150285
-2.4846306 2.2846391 2.3197546 -2.522713 -2.3605292 2.3588254 -2.1736805 -2.2962744
-2.218172 2.3061173 2.3499696 -2.297986 2.3013825 -2.2685664 -2.3137891 -2.2617068
-2.033627 -2.3604407 -2.023906 1.9619015 2.0585198 -2.257944 2.6416686 1.8594288
2.1150022 -1.9733193 2.4266684 -1.9753225 2.4370492 2.201066 -2.2332788 -1.7905071
-2.3212886 2.285522 2.1776803 -2.1803508 -1.831293 2.1208642 -1.9943688 -2.1252775
2.0788553 -2.4247808 -2.312486 2.1675544 -1.9580325 2.2011344 2.4727628 2.2189918
2.123416 2.2533517 2.2943645 -2.0475621 -2.2872036 2.1282218 -2.289611 -2.0921617
-2.1690693 2.2078125 -2.5216868 2.3070414 -2.0420024 -2.3803875 2.319943 2.2639236
2.375652 -2.0131397 -2.1412222 2.1065342 2.1786494 -2.3060524 2.1931028 2.4694107
1.9125233 -2.1829624 -2.227101 1.7782875 -1.9397684 2.4544675 1.9897219 2.2410696
1.9210372 2.10235 1.9418434 -1.9398772 -2.338823 2.0944455 -2.144845 -2.1183648
-2.213851 2.0958338 -2.086201 2.1717622 -1.9623593 -1.8786983 2.071833 1.96881
2.3027785 -1.8639808 -2.2621233 2.1438258 1.9155766 -2.1835046 2.005177 2.193271
00000000: aad0 0b40 dacb 00c0 81fb 12c0 225e 1a40
00000010: 6244 12c0 d4c0 2640 f5c3 0640 2bf9 1e40
00000020: 9d6d 0640 8857 0e40 e11e 0c40 5727 06c0
00000030: ef67 0cc0 294e 1a40 7727 16c0 4cb5 16c0
00000040: cfc6 0ec0 4a01 0840 ab5a 1ac0 57e9 0f40
00000050: 93d4 17c0 c843 0ec0 83cf 1940 27e9 0f40
00000060: 4dfa 1a40 0cc1 08c0 1d0c 15c0 f9c2 0640
00000070: d0bc 1440 c0dd 0ec0 a9ed 0440 7c42 1240
00000080: 69ed ec3f aacb 06c0 8fab f5bf e5e8 f93f
00000090: 2d6f 00c0 ed69 f83f a6d7 f23f 088c 0040
000000a0: fb7e db3f cd39 e63f 1a0c ef3f 6ac6 e1bf
000000b0: 746d 02c0 6752 fd3f af4c 0ec0 625c ffbf
000000c0: 8390 f5bf acbb fa3f 8e05 f0bf dd66 fb3f
000000d0: 60d3 0fc0 ff2c f0bf eead f73f d97b fd3f
000000e0: 992d f73f 33e6 e4bf 6d49 0dc0 a3a0 0340
000000f0: 718d f13f aace f0bf 1ecf f83f dc70 0140
00000100: cfe0 fbbf 6777 0a40 b165 f63f b156 0dc0
00000110: 3b61 0e40 f732 0dc0 8cdd 03c0 c1ec 0ec0
00000120: a2b5 00c0 2bdf 16c0 2b0d 0cc0 af11 e13f
00000130: 7ad6 1040 6ad2 10c0 d6e9 0740 d5dc 1140
00000140: 34f0 f33f 20a5 07c0 a455 0c40 5700 0ec0
00000150: 60c4 1640 09a2 0140 f8ee 23c0 a55b fcbf
00000160: 2b4c 11c0 403e f83f c472 0440 052d 0cc0
00000170: f51e fcbf 747f 1040 f7a9 0ec0 c4fb 04c0
00000180: 2daf efbf 947f 0c40 a55d 0d40 ac4d ffbf
00000190: 6e4d 1140 cca7 10c0 253e 01c0 f09f 02c0
000001a0: 9837 06c0 e27e febf cf49 0ac0 2906 e63f
000001b0: 17eb 0640 1112 15c0 acfa 0a40 d3b5 0140
000001c0: bd84 0a40 f2a7 08c0 6015 f53f e2e1 f8bf
000001d0: 23b3 0a40 5419 0540 46ec 04c0 19ca 01c0
000001e0: c6f7 12c0 6d99 0040 2ba9 0b40 c484 11c0
000001f0: cfd8 08c0 f314 0b40 9002 1ac0 effb 07c0
00000200: c714 0dc0 17be 0540 3c3a 1340 f362 01c0
00000210: d24e 0a40 2746 18c0 89b7 1fc0 19bd 1ec0
00000220: 6856 24c0 5c68 14c0 22eb 16c0 725d ff3f
00000230: 5d36 0e40 438c 0ec0 27aa 1740 bde3 1b40
00000240: 4f40 0a40 bdf8 fdbf 1a6f 0640 3fa3 13c0
00000250: 9773 0c40 9a6e 1a40 202f fbbf 07c3 0dc0
00000260: 3004 1fc0 8737 1240 dc76 1440 2174 21c0
00000270: e912 17c0 fff6 1640 951d 0bc0 29f6 12c0
00000280: 88f6 0dc0 6d97 1340 e765 1640 3412 13c0
00000290: da49 1340 3130 11c0 1f15 14c0 cebf 10c0
000002a0: f226 02c0 7611 17c0 ad87 01c0 971f fb3f
000002b0: cabe 0340 2882 10c0 1911 2940 c301 ee3f
000002c0: 325c 0740 ba95 fcbf 894e 1b40 5ed7 fcbf
000002d0: 9df8 1b40 44de 0c40 0aee 0ec0 562f e5bf
000002e0: fe8f 14c0 fe45 1240 1d5f 0b40 de8a 0bc0
000002f0: cf67 eabf 3dbc 0740 7a47 ffbf 8c04 08c0
00000300: f70b 0540 9c2f 1bc0 c5ff 13c0 36b9 0a40
00000310: cfa0 fabf 63df 0c40 bf41 1e40 f603 0e40
00000320: 0ce6 0740 ea36 1040 ded6 1240 420b 03c0
00000330: 8b61 12c0 c934 0840 fd88 12c0 fae5 05c0
00000340: 08d2 0ac0 cd4c 0d40 5163 21c0 91a6 1340
00000350: 2bb0 02c0 4558 18c0 f279 1440 20e4 1040
00000360: af0a 1840 48d7 00c0 c909 09c0 75d1 0640
00000370: fe6e 0b40 5d96 13c0 cc5b 0c40 d30a 1e40
00000380: 90cd f43f a8b5 0bc0 d388 0ec0 ed9e e33f
00000390: 554a f8bf ff15 1d40 35af fe3f af6d 0f40
000003a0: 8ce4 f53f e78c 0640 538e f83f e54d f8bf
000003b0: 47af 15c0 650b 0640 2445 09c0 4a93 07c0
000003c0: bcaf 0dc0 2422 0640 5184 05c0 27fe 0a40
000003d0: 972e fbbf 3079 f0bf e998 0440 f701 fc3f
000003e0: b960 1340 ec96 eebf a1c6 10c0 7134 0940
000003f0: 9d31 f53f 8abe 0bc0 d254 0040 8d5e 0c40

decoder.worker_attention_embedding.bias f4 [32]
0.6730157 0.6717194 -1.0711756 -0.87806207 -0.5568178 -1.0328888 1.3129058 0.94938844
-1.0389106 -0.38557568 -0.8633191 -0.47151566 -0.8455087 -1.2376388 0.7557515 0.98524535
-1.2553074 -0.761331 -0.3873553 1.0920573 -1.4230118 0.40986842 0.686045 -1.3456538
-1.144316 1.0224297 0.611682 0.9350026 -0.8071717 -0.9064544 1.2354833 0.6885396
00000000: c24a 2c3f cdf5 2b3f 481c 89bf adc8 60bf
00000010: 9d8b 0ebf b335 84bf 4c0d a83f 1f0b 733f
00000020: 06fb 84bf 2d6a c5be 7b02 5dbf 806a f1be
00000030: 4273 58bf f36a 9ebf ee78 413f 0a39 7c3f
00000040: eaad a0bf 97e6 42bf 6f53 c6be 89c8 8b3f
00000050: 4025 b6bf 46da d13e a5a0 2f3f 623e acbf
00000060: f278 92bf fade 823f 3197 1c3f 555c 6f3f
00000070: cea2 4ebf 650d 68bf 5124 9e3f 2244 303f
