dev/test_models/stepbonus_8.pth (torch, 37761 bytes, 12 tensors)

encoder.shift_embedding.weight f4 [32, 5]
0	0xbd87c06e	-0.066285
1	0xbcdb480f	-0.026767759
2	0xbe48ea3d	-0.19620605
3	0x3d8757c4	0.06608537
4	0xbe9c6858	-0.30548358
5	0xbd31d203	-0.043413173
6	0x3e28066e	0.16408703
7	0x3ee35fa6	0.4440891
8	0x3e0596c3	0.13045792
9	0xbe0877ad	-0.13326903
10	0x3d8cc3c2	0.06873275
11	0xbd805bd4	-0.06267515
12	0x3e37e541	0.17958547
13	0x3d93143f	0.07181596
14	0x3e4737a6	0.19454822
15	0x3ee5b042	0.44861037
16	0xbe28ce55	-0.1648496
17	0x3cf5c7d9	0.030002521
18	0x3e12d073	0.1433733
19	0x3d7db840	0.061943293
20	0xbd9caff7	-0.0765075
21	0xbecc2b2e	-0.39876693
22	0xbeddd045	-0.4332296
23	0xbee50b3a	-0.44735128
24	0xbefbec20	-0.49203587
25	0xbede98d8	-0.43475986
26	0xbeadde7d	-0.33958808
27	0xbedb7b1d	-0.42867365
28	0xbee4cd85	-0.4468805
29	0x3e219911	0.15781046
30	0x3e96a102	0.29419714
31	0x3e97d467	0.29654238
32	0x3e889335	0.2667481
33	0x3e306baa	0.1722857
34	0x3e5d461a	0.21608773
35	0xbe533ebc	-0.206294
36	0x3ec9db52	0.3942514
37	0x3c6c5736	0.01442509
38	0x3ed2f445	0.41201988
39	0x3e515951	0.20444228
40	0x3e9c4337	0.3052003
41	0x3eae8394	0.3408476
42	0xbe12336d	-0.1427743
43	0xbe32399b	-0.17404787
44	0x399c5e4c	0.00029824895
45	0xbc211053	-0.009830552
46	0x3d2a0d73	0.041516732
47	0x3e6a8169	0.22900929
48	0xbe9f8576	-0.3115651
49	0x3c0b5296	0.008503577
50	0xbebceaf1	-0.36897996
51	0x3ed4f0fb	0.41590104
52	0xbe9b2d91	-0.30308202
53	0x3d9ecab8	0.07753509
54	0xbe16abe2	-0.14714006
55	0x3e8a81c1	0.2705212
56	0x3ad1924b	0.0015989033
57	0xbc1921c6	-0.009346431
58	0x3ead533b	0.33852562
59	0x3ee76ab0	0.45198584
60	0xbea52699	-0.3225601
61	0xbed21bda	-0.41036874
62	0x3d7c49dd	0.06159388
63	0x3e214e89	0.15752615
64	0x3de9a89b	0.11409112
65	0x3ed2de21	0.41185096
66	0x3e58f55c	0.21187347
67	0xbe38445d	-0.17994829
68	0xbe8e1c69	-0.2775605
69	0x3eb7e39f	0.3591585
70	0x3ec92157	0.3928325
71	0xbe1f03c2	-0.15528777
72	0xbe861d8d	-0.2619442
73	0x3e427b7a	0.18992415
74	0xbe8de5b7	-0.2771432
75	0xbe0d3b0a	-0.13792053
76	0xbee867cb	-0.45391688
77	0x3da6c86d	0.08143697
78	0xbe3c579d	-0.18392797
79	0xbe9b3abf	-0.30318257
80	0xbe8cf4bd	-0.2753047
81	0xbe243cb5	-0.16038783
82	0x3e38ddd8	0.18053377
83	0x3cf3a417	0.02974133
84	0x3eb3d8da	0.35126382
85	0xbe3b1471	-0.18269517
86	0xbe1562c1	-0.14588453
87	0x3ece27aa	0.40264636
88	0xbedc0756	-0.42974347
89	0xbe5c67d8	-0.21523988
90	0xbe78be46	-0.24291334
91	0x3ed4b439	0.4154375
92	0x3e851c80	0.25998306
93	0xbe070585	-0.131857
94	0xbe00b74b	-0.1256992
95	0x3e23c7ac	0.15994138
96	0xbe038e07	-0.12847148
97	0x3e36706f	0.17816328
98	0xbe3a3545	-0.18184383
99	0xbe58aeb9	-0.21160401
100	0xbbd41ecd	-0.0064733983
101	0x3e8009d0	0.25007486
102	0x3eb159a4	0.34638703
103	0x3d75eb79	0.060039017
104	0xbe8f5cbf	-0.28000447
105	0x3e172d1e	0.14763305
106	0x3e261a64	0.16221005
107	0x3e045058	0.12921274
108	0xbe433397	-0.19062649
109	0xbdf95f35	-0.121763624
110	0x3e494335	0.19654544
111	0x3e330f91	0.17486407
112	0x3eaa39b0	0.33247137
113	0xbe64dc80	-0.22349739
114	0x3ea0ddd4	0.3141924
115	0xbe027a5a	-0.12741986
116	0xbc2ae861	-0.01043138
117	0xbe2780a9	-0.16357674
118	0xbdc25a5d	-0.09489892
119	0x3eb3f51a	0.35147935
120	0x3eb4dca9	0.353246
121	0x3e29556b	0.1653649
122	0xbeb1669d	-0.346486
123	0xbe43bdbe	-0.1911535
124	0x3e961581	0.2931328
125	0xbdff5d9b	-0.12469026
126	0xbeb59128	-0.35462308
127	0x3e04d817	0.12973057
128	0xbeb48c03	-0.3526307
129	0x3cce6ddb	0.025198868
130	0xbdcdf2e0	-0.1005609
131	0x3adb2036	0.0016717974
132	0xbe1aa7b8	-0.15103042
133	0xbdd9a2a5	-0.10626725
134	0xbe9abeb0	-0.30223608
135	0xbe8d0301	-0.27541354
136	0x3e0f8200	0.14014435
137	0x3edc888e	0.43072933
138	0xbea16b72	-0.31527287
139	0xbebfb121	-0.37439826
140	0xbe5c88b9	-0.2153653
141	0x3ec01bb0	0.37521124
142	0x3ed968ff	0.42462918
143	0xbed154ff	-0.4088516
144	0x3dde29ac	0.10847792
145	0x3d95b53d	0.07309959
146	0x3ecab995	0.39594713
147	0xbdbd1640	-0.092327595
148	0x3e33a083	0.17541699
149	0xbe367d50	-0.1782124
150	0xbedc31dc	-0.4300679
151	0x3d353dd5	0.04424842
152	0xbe817561	-0.25284865
153	0xbd845f1a	-0.06463452
154	0xbe121b91	-0.14268328
155	0xbe9e2441	-0.30887035
156	0x3e86c7e3	0.26324376
157	0x3eb66271	0.3562198
158	0x3ec71395	0.38882127
159	0x3df80bc0	0.12111616

encoder.shift_embedding.bias f4 [32]
0	0xbef51c37	-0.4787309
1	0xbeb36eba	-0.35045415
2	0xbcfb96d2	-0.030711565
3	0x3cdf1399	0.027231025
4	0xbef14e20	-0.47129917
5	0x3e6e4794	0.23269492
6	0xbe960ec7	-0.2930815
7	0x3d7d5ef1	0.06185812
8	0xbef74d41	-0.48301128
9	0x3de422f1	0.11139477
10	0xbbcd01a4	-0.006256299
11	0x3ebdf630	0.3710189
12	0x3dd126d4	0.10212484
13	0xbead2b31	-0.33822015
14	0x3ef45fbf	0.47729298
15	0xbef5b5f5	-0.47990385
16	0x3e52f004	0.20599371
17	0xbeaf7f5f	-0.34276864
18	0x3e877b81	0.26461414
19	0x3e35a4b1	0.17738606
20	0x3dc3a3e4	0.09552744
21	0xbe3e56af	-0.18587755
22	0x3ee11309	0.43959835
23	0x3eff4aea	0.49861842
24	0xbd3e14e0	-0.046406627
25	0xbe0a1975	-0.13486274
26	0x3c3ff48c	0.011716019
27	0x3e9c31bc	0.30506694
28	0x3ec8fad5	0.3925387
29	0x3ee16d1f	0.44028565
30	0x3e1b8dd7	0.15190826
31	0x3e0519f7	0.12998186

encoder.conv1.h_bias f4 [32]
0	0x3d000aa6	0.031260155
1	0x3da4234a	0.08014543
2	0xbb362a6f	-0.0027796288
3	0x3d6bd730	0.057578266
4	0xbd8776bd	-0.066144444
5	0x3d0792ce	0.03309899
6	0xbc2e5e8c	-0.010642659
7	0x3d03da76	0.032190762
8	0x3d62aeba	0.055342413
9	0x3d8c12ea	0.06839545
10	0x3daca61e	0.08430122
11	0x3d9076c2	0.07053901
12	0xbc88d1d5	-0.016701618
13	0x3d703b74	0.05865045
14	0xbb1e900c	-0.0024194745
15	0x3cb47385	0.02202774
16	0x3cc7851b	0.024355462
17	0xbc747c90	-0.014922276
18	0x3d3c545c	0.04597889
19	0x3cb40789	0.02197625
20	0x3d69fc8f	0.057125624
21	0x3da2a911	0.07942403
22	0x3d4a8f96	0.04945334
23	0x3d74ad47	0.059735563
24	0xbd07fb5a	-0.033198692
25	0x3d78e697	0.060766783
26	0x3b99cc3b	0.0046935356
27	0xbcafc7cb	-0.021457573
28	0xbd170cb6	-0.036877356
29	0x3cfa4951	0.030552538
30	0xbb686194	-0.0035458552
31	0xbc74168b	-0.014897953

encoder.conv1.loop_weight f4 [32, 32]
0	0xbe971ccc	-0.29514158
1	0xbf00aaf6	-0.50260866
2	0xbe37f1a3	-0.17963271
3	0xbecbd7df	-0.39813134
4	0xbe763adb	-0.24045889
5	0xbebf0ac2	-0.37312895
6	0x3ed28824	0.41119492
7	0x3ec5d609	0.38639858
8	0xbe5d855a	-0.21632901
9	0x3c18b840	0.009321272
10	0xbe29ff05	-0.16601188
11	0x3dd41452	0.10355438
12	0x3d8f934c	0.070105165
13	0x3dfc8574	0.12330142
14	0x3e2fc4de	0.17164943
15	0xbe1a0fa3	-0.15045027
16	0x3e1f5289	0.15558828
17	0x3e7b3e02	0.24535373
18	0x3ecd401b	0.4008797
19	0xbed146b9	-0.4087427
20	0x3e73c68d	0.2380621
21	0xbebd4043	-0.3696309
22	0x3d7f8fc8	0.06239298
23	0x3e264b08	0.1623956
24	0xbe5bbdd8	-0.21459138
25	0xbd800d21	-0.06252504
26	0xbec56976	-0.38557023
27	0x3dd10a2c	0.10207018
28	0xbecc3a6d	-0.39888325
29	0x3e9653a6	0.29360694
30	0x3e594342	0.21217063
31	0xbe35c09d	-0.17749257
32	0x3d314232	0.04327602
33	0xbe183ac8	-0.14866173
34	0x3da0aba9	0.078452416
35	0xbeb449b0	-0.3521247
36	0xbcd82827	-0.026386334
37	0x3df30d20	0.11867738
38	0xbe929a5a	-0.28633386
39	0x3e94ec59	0.2908657
40	0xbe624a13	-0.2209857
41	0x3e363bee	0.17796299
42	0x3cd406f2	0.025882218
43	0xbe4d8002	-0.20068362
44	0xbd7b2bd8	-0.06132111
45	0x3c46688b	0.012109886
46	0x3e73ef39	0.23821725
47	0xbd26f8c8	-0.0407646
48	0x3de28b0a	0.11061676
49	0x3eab2195	0.3342406
50	0xbc95fa90	-0.018307954
51	0x3e85e77f	0.2615318
52	0xbe97c35d	-0.29641238
53	0x3e187976	0.14890084
54	0xbec47abe	-0.38374895
55	0xbda89c0a	-0.08232887
56	0x3eb07b3e	0.34469026
57	0x3ea7cd3c	0.3277377
58	0x3eb5e1c9	0.35523823
59	0x3e6ad502	0.22932819
60	0xbe76a6cd	-0.24087067
61	0x3e9652ec	0.2936014
62	0xbe6d3de4	-0.2316814
63	0x3e89b830	0.26898336
64	0x3e1e85fc	0.15480798
65	0xbe8321da	-0.25611764
66	0x3d9eb8bf	0.07750081
67	0xbe967698	-0.29387355
68	0x3e168304	0.14698416
69	0x3eba2b53	0.3636118
70	0x3e9cce98	0.3062637
71	0x3eea8915	0.4580771
72	0x3e94f699	0.2909439
73	0xbecefa7a	-0.40425473
74	0x3dfee983	0.124468826
75	0x3ddf4ee9	0.10903723
76	0xbecf074e	-0.4043526
77	0x3d9e321b	0.077244006
78	0xbeba58c0	-0.36395836
79	0xbddb5b06	-0.10710721
80	0x3eb61d2c	0.3556913
81	0x3d9a8774	0.07545367
82	0xbea48880	-0.3213539
83	0x3d7643a3	0.060123097
84	0x3ec67bc3	0.38766298
85	0x3ee4a4a8	0.44656873
86	0xbebcdcbc	-0.36887157
87	0xbe149e74	-0.1451357
88	0xbe1a0431	-0.15040661
89	0x3d46bb6d	0.048518587
90	0x3e0a7a74	0.13523275
91	0x3e445d40	0.19176197
92	0xbe69b1a8	-0.22821677
93	0xbd8f38e9	-0.069932766
94	0x3e93b9bf	0.2885265
95	0xbe16c660	-0.14724112
96	0xbeb11e68	-0.3459351
97	0x3e00e7ac	0.12588376
98	0xbd798ee3	-0.060927283
99	0x3ebe3f5a	0.37157708
100	0xbe7f765a	-0.24947491
101	0x3e0ea636	0.13930592
102	0xbe91bb26	-0.28463095
103	0x3e85b671	0.26115754
104	0x3e06a5b1	0.13149144
105	0xbea4398a	-0.3207515
106	0xbd0760c9	-0.033051286
107	0xbca73303	-0.020410066
108	0xbe81d149	-0.25354984
109	0x3ea49223	0.32142743
110	0x3e832d6f	0.256206
111	0x3eb9504a	0.36194068
112	0x3ea19ced	0.31565037
113	0xbd9106f8	-0.07081407
114	0xbedc2110	-0.42993975
115	0x3e6e681f	0.23281907
116	0xbecd4aae	-0.4009604
117	0x3ee21e98	0.44163966
118	0xbec14999	-0.37751463
119	0xbea4cbe5	-0.3218681
120	0x3e3a3bba	0.18186846
121	0x3e6a9abf	0.22910593
122	0x3e83438c	0.25637472
123	0xbe60af25	-0.21941812
124	0x3e90399e	0.28168958
125	0xbe6474b0	-0.22310138
126	0x3e150bd4	0.14555293
127	0x3ea2e7d0	0.31817484
128	0xbda2a5a5	-0.079417504
129	0xbc0f1f8c	-0.008735549
130	0xbe907d4c	-0.28220594
131	0xbe62bb83	-0.22141843
132	0xbe1b2598	-0.1515106
133	0x3e890884	0.2676431
134	0x3c489e1a	0.012244726
135	0x3cbc0f89	0.022956626
136	0x3e22296a	0.1583611
137	0x3e69f772	0.22848299
138	0xbeec915a	-0.46204644
139	0xbe038714	-0.12844497
140	0x3e634f12	0.22198132
141	0xbec47c58	-0.38376117
142	0xbe9a9888	-0.30194497
143	0x3eb047f3	0.34429893
144	0xbec0ad65	-0.3763229
145	0x3e56acba	0.20964327
146	0xbdac4264	-0.084111005
147	0x3e0764d8	0.13222063
148	0x3e38694b	0.18008916
149	0x3d2d6a68	0.042337805
150	0x3d786bf8	0.060649842
151	0xbea021ac	-0.3127569
152	0xbdc52085	-0.09625343
153	0xbec3dc89	-0.38254192
154	0xbdfd8de2	-0.123805776
155	0xbd6ba9ae	-0.057534866
156	0xbea090b3	-0.31360397
157	0x3e067e27	0.13134061
158	0xbeb065a2	-0.3445254
159	0xbe43606d	-0.19079752
160	0xbe45a086	-0.19299516
161	0xbe85e2d8	-0.2614963
162	0x3ec53fe5	0.3852531
163	0xbe474c7b	-0.19462769
164	0x3e7d3966	0.24728927
165	0xbdf8a71c	-0.121412486
166	0x3e123b41	0.14280416
167	0xbe1ae873	-0.15127735
168	0xbeb29cbb	-0.348852
169	0x3c8a34d0	0.016870886
170	0xbec6d90f	-0.38837478
171	0x3eda5e05	0.42649856
172	0x3ebe1501	0.371254
173	0xbe97bc0f	-0.29635665
174	0xbeb4bb3a	-0.35299093
175	0x3e0f061f	0.13967179
176	0x3e959a5a	0.29219323
177	0xbdf602cc	-0.12012252
178	0x3eb65019	0.35607985
179	0xbdb1be51	-0.08678878
180	0xbe23949a	-0.15974656
181	0x3e59cd24	0.21269661
182	0x3e35950a	0.17732635
183	0x3e2203b2	0.15821722
184	0x3bf0ac35	0.0073447474
185	0xbeac39fb	-0.33637986
186	0xbec6bb50	-0.38814783
187	0x3dd51ee2	0.10406281
188	0x3eb01a93	0.34395275
189	0x3e8500be	0.2597713
190	0xbeb3522a	-0.35023624
191	0x3d1f84e1	0.038945083
192	0x3e03f85e	0.12887713
193	0x3ee675c8	0.45011735
194	0x3ddd9bde	0.10820745
195	0x3e89b7a8	0.2689793
196	0x3eb3ff7a	0.3515585
197	0x3e9370ce	0.28797
198	0xbe1c24e2	-0.15248445
199	0xbeaaccf5	-0.33359495
200	0xbc1105a5	-0.008851443
201	0x3e77b322	0.24189427
202	0x3e3dfab8	0.18552673
203	0xbd0c4eb7	-0.034254756
204	0x3e588912	0.21146038
205	0x3e9bb950	0.3041482
206	0xbde6caff	-0.11269187
207	0x3db35e5b	0.08758231
208	0x3e628818	0.22122228
209	0xbe5da8e8	-0.21646464
210	0xbdc22424	-0.094795495
211	0xbed90f5c	-0.4239453
212	0x3cf5a8c3	0.029987698
213	0xbeaca801	-0.33721927
214	0xbdbb9e10	-0.091610074
215	0x3e0374c1	0.12837507
216	0x3ed6d294	0.41957533
217	0xbe517b5e	-0.20457217
218	0x3ec620b0	0.38696814
219	0xbe37e636	-0.17958912
220	0xbe904a28	-0.28181577
221	0x3eb51bb0	0.35372686
222	0x3ec26cf6	0.37973756
223	0x3d10eb6b	0.035380762
224	0x3e0b6963	0.1361442
225	0xbd07c219	-0.03314409
226	0xbec572f4	-0.38564265
227	0x3e7fda34	0.24985582
228	0x3eaedbf5	0.3415219
229	0xbe86896b	-0.26276717
230	0x3db96ec5	0.09054331
231	0xbdc92abc	-0.09822604
232	0x3e718aed	0.23588152
233	0x3d8d337c	0.068945855
234	0x3ebc2f46	0.36754817
235	0x3eaf1715	0.34197298
236	0xbe8fe11c	-0.28101432
237	0x3ed002ab	0.40627035
238	0x3ed1b430	0.40957785
239	0x3e4fa948	0.2027942
240	0xbd6d6fea	-0.057968058
241	0x3e146bea	0.14494291
242	0x3eb74417	0.35794136
243	0x3e4ef01c	0.20208782
244	0x3d070347	0.03296211
245	0x3ebdfdc9	0.37107685
246	0x3e5d8f5e	0.21636721
247	0xbe4aa0f2	-0.19787958
248	0x3ea4f11a	0.32215196
249	0xbe37f0d9	-0.1796297
250	0xbea3c935	-0.31989446
251	0x3e713a59	0.23557414
252	0x3ec56514	0.3855368
253	0xbeb9748c	-0.3622173
254	0x3e68989c	0.22714466
255	0xbed2b46b	-0.41153273

encoder.conv1.linear_r.W f4 [2, 32, 32]
0	0xbe466cea	-0.19377485
1	0xbe5cc105	-0.21558006
2	0x3dc9e4ef	0.09858119
3	0xbe42df65	-0.19030531
4	0xbc006070	-0.0078354925
5	0x3d8a8fc7	0.067657046
6	0xbe1669ba	-0.14688769
7	0xbe30fbb1	-0.17283513
8	0xbe8ab22d	-0.27089062
9	0x3c9e4dbf	0.019324182
10	0x3d1b023c	0.037843928
11	0x3dda7476	0.106667444
12	0xbc0d92c8	-0.008640952
13	0xbd18554f	-0.03719073
14	0x3e1803db	0.1484522
15	0xbdb4068b	-0.087903105
16	0xbe02af4c	-0.12762183
17	0x3e0a9eb9	0.1353711
18	0x3ddd5dec	0.1080893
19	0xbe1ee9a5	-0.15518816
20	0xbe83136c	-0.25600755
21	0x3c0d9050	0.008640364
22	0xbd569528	-0.05238834
23	0x3da1d306	0.07901578
24	0x3df7bed6	0.12096946
25	0x3ca0b618	0.019618079
26	0xbdd00aed	-0.10158334
27	0x3a2d32b0	0.00066069793
28	0x3da726ba	0.081616834
29	0xbd7cf4ad	-0.06175678
30	0xbde9ff8e	-0.11425696
31	0xbd8a2079	-0.06744475
32	0xbd98b6d9	-0.074567504
33	0xbddcc4cd	-0.10779724
34	0x3d8fdbeb	0.07024368
35	0x3d457200	0.048204422
36	0x3e18e223	0.14930014
37	0x3dbee67c	0.09321305
38	0xbbcfd6d2	-0.0063427472
39	0xbe36da1b	-0.17856638
40	0x3c5c4011	0.013443009
41	0x3d1e5af6	0.038660966
42	0x3dd895c2	0.10575439
43	0x3ddb6f76	0.10714619
44	0x3de88e78	0.11355299
45	0x3d62173d	0.055197943
46	0x3c41a8f0	0.011820063
47	0x3de8c7d0	0.11366236
48	0xbe46b7ec	-0.19406098
49	0x3dd035bd	0.101665
50	0x3c8ffd63	0.017576879
51	0x3bcd5c08	0.0062670745
52	0xbdc36dee	-0.09542452
53	0x3d4ff9e8	0.05077544
54	0x3ca5b9ea	0.020230252
55	0xbe14146c	-0.14460915
56	0xbdc7c850	-0.097550035
57	0x3db4a7f2	0.088210955
58	0xbde67ce1	-0.112542875
59	0xbd3ecf79	-0.04658458
60	0x3dd289ce	0.102801904
61	0x3d501f67	0.050811198
62	0xbe10ec18	-0.14152563
63	0x3bd22df6	0.0064141704
64	0xbd3a3b76	-0.045466863
65	0x3e5c71ed	0.21527834
66	0xbc8820cc	-0.016617201
67	0x3da99ecd	0.08282242
68	0x3d51b1dc	0.05119501
69	0xbd96ed43	-0.07369473
70	0x3de82f41	0.11337138
71	0xbd832296	-0.06403081
72	0xbd966d52	-0.0734507
73	0x3df0320b	0.11728295
74	0x3d4cb3a4	0.049976006
75	0x3e028033	0.12744217
76	0xbe08a090	-0.133425
77	0xbd625415	-0.055255968
78	0x3e0db001	0.13836671
79	0x3d84dad1	0.064870484
80	0xbe11f6c7	-0.14254294
81	0xbcb9f9ed	-0.022702182
82	0x3dbea563	0.09308889
83	0xbd801d8d	-0.06255636
84	0x3e4e2a82	0.20133403
85	0x3c664b00	0.014055967
86	0xbd297a21	-0.041376237
87	0x3d82efc3	0.06393387
88	0x3d6cb117	0.057786074
89	0x3e0a50fd	0.13507457
90	0x3d37bc82	0.04485751
91	0xbe1e5d8b	-0.15465371
92	0x3dbb4f06	0.09145932
93	0x3e23135a	0.15925351
94	0x3c21cca7	0.009875453
95	0xbd07ebb3	-0.033183765
96	0x3db01dc1	0.08599425
97	0x3e46047b	0.19337647
98	0x3c15461d	0.009110955
99	0xbdb09eb4	-0.0862402
100	0xbe2c2049	-0.16809191
101	0x3cef6b0b	0.029225847
102	0x3d700863	0.05860175
103	0x3d053aba	0.03252671
104	0x3da51a2b	0.08061632
105	0x3dd29e19	0.10284061
106	0x3dcca9e2	0.0999334
107	0x3e1c7cb3	0.15281944
108	0xbc266dc0	-0.010158002
109	0xbe1313d6	-0.14363036
110	0x3c8a4b98	0.016881749
111	0xbdaf1df5	-0.08550636
112	0x3de5049e	0.11182521
113	0x3d6a3841	0.057182554
114	0x3deea8a0	0.116532564
115	0x3dc53efb	0.09631153
116	0xbdd1f581	-0.10251904
117	0xbd7b454e	-0.06134539
118	0x3df5ed17	0.12008112
119	0xbda1759b	-0.078837596
120	0x3d5e2c04	0.054241195
121	0x3dfed28a	0.12442501
122	0x3ded0a46	0.11574225
123	0xbe13ab48	-0.14420807
124	0x3d9ac912	0.07557882
125	0x3ce6da4e	0.028180268
126	0x3d01c683	0.031683456
127	0x3e68ca1e	0.22733352
128	0x3cd4c522	0.025972907
129	0xbe84a326	-0.25905722
130	0x3cd28e4a	0.025702614
131	0xbe40285c	-0.18765396
132	0x3e00a397	0.12562405
133	0xbe642b42	-0.22282127
134	0x3e399f43	0.1812716
135	0xbe32fe90	-0.1747992
136	0xbd00f1fc	-0.031480774
137	0x3bb0bd3a	0.0053936513
138	0x3d72bee4	0.05926408
139	0x3e2a79a7	0.16647969
140	0x3d40da7e	0.04708337
141	0xbe1adec5	-0.15124042
142	0xbe2b602d	-0.16735907
143	0x3e50ab47	0.20377837
144	0x3cbf0a06	0.02332021
145	0xbcc7919a	-0.02436142
146	0xbdce97f6	-0.10087578
147	0xbc12d049	-0.008960792
148	0xbe027352	-0.12739304
149	0x3d5ed838	0.05440542
150	0xbe14e22e	-0.14539406
151	0x3de61938	0.11235279
152	0xba812592	-0.0009853116
153	0x3e0af4cd	0.13569947
154	0x3e2f3ed0	0.17113805
155	0x3d818de9	0.06325895
156	0x3d3a4a8c	0.04548125
157	0xbe7e7827	-0.24850522
158	0xbccdc916	-0.0251203
159	0xbe282bff	-0.16423033
160	0xbe105ffd	-0.14099117
161	0x3dd1f2fb	0.10251423
162	0xbe240174	-0.1601618
163	0xbd7ba857	-0.06143984
164	0xbd2e4d50	-0.0425542
165	0xbd5d2db1	-0.053998653
166	0xbd23fed4	-0.040037945
167	0xbd534fdb	-0.051589828
168	0x3e0fdd6f	0.14049314
169	0x3e176abc	0.1478681
170	0xbdf42fac	-0.11923155
171	0xbe2af579	-0.16695203
172	0x3dcf5e0b	0.10125359
173	0xbdecac9f	-0.11556362
174	0x3db2814e	0.08716069
175	0x3cf88aed	0.030339682
176	0xbd4e802f	-0.050415214
177	0x3c70e20f	0.014702334
178	0xbe12d6b8	-0.14339721
179	0x3c7d7f14	0.015472192
180	0x3e1aaf1f	0.15105866
181	0x3e14ffe9	0.14550747
182	0x3dc6a4f2	0.096994296
183	0xbdd8053b	-0.10547873
184	0x3e0f9de4	0.14025074
185	0x3e275a2f	0.16342996
186	0x3d7350ec	0.059403345
187	0xbdd71346	-0.10501723
188	0xbdc188df	-0.09449934
189	0xbe0a2d16	-0.13493761
190	0xbd8fd4d8	-0.070230186
191	0x3bd9e9bb	0.0066501773
192	0x3dcb42d6	0.09924857
193	0x3ddba2f2	0.10724439
194	0x3ded20ae	0.11578499
195	0xbcfd17b5	-0.030895093
196	0x3e0c017d	0.13672443
197	0xbc7805f3	-0.015138137
198	0xbdd870fb	-0.10568424
199	0xbe06968d	-0.13143368
200	0x3e309b9b	0.17246859
201	0x3d3e40e9	0.046448622
202	0x3d9a965a	0.075482085
203	0xbdab8dfe	-0.08376692
204	0x3e22f2a6	0.15912876
205	0xbdd11ea0	-0.102109194
206	0x3e1852ad	0.14875288
207	0x3dacb523	0.084329866
208	0xbdec7c4c	-0.11547145
209	0xbd1f24bd	-0.038853396
210	0x3e3b119f	0.1826844
211	0x3dd9141c	0.10599539
212	0x3dcfa353	0.101385735
213	0xbd987530	-0.07444227
214	0xbd9bea00	-0.07612991
215	0x3cd60919	0.026127385
216	0xbdc2a486	-0.095040366
217	0x3d9e508e	0.07730208
218	0x3e040d95	0.12895806
219	0x3d8b1e4e	0.067928895
220	0xbd7aafb4	-0.06120272
221	0xbdaab171	-0.083346255
222	0xbcb96873	-0.022632813
223	0x3d16924e	0.03676062
224	0x3e409674	0.18807393
225	0xbdcdbce0	-0.10045791
226	0x3e394f45	0.18096645
227	0xb9c6dd65	-0.00037930455
228	0x3cdb6d68	0.026785567
229	0x3e5fe900	0.21866226
230	0xbd996f46	-0.07491927
231	0xbcc41851	-0.023937376
232	0xbd2336f2	-0.03984732
233	0x3ae91be1	0.0017784798
234	0xbdfbb085	-0.12289528
235	0xbe1a2e38	-0.15056694
236	0x3c6d88d4	0.014497954
237	0xbe34c53b	-0.17653362
238	0xbcc32028	-0.023819044
239	0xbdc4c9aa	-0.09608777
240	0xbb326bf0	-0.002722498
241	0xbdf8473b	-0.12122961
242	0x3d5a056a	0.05322782
243	0xbdbcd98c	-0.09221181
244	0xbd6eb23e	-0.058275454
245	0x3e0a09d7	0.13480316
246	0x3db6589e	0.08903621
247	0x3cbef078	0.023308024
248	0x3e16a099	0.147097
249	0xbd3c13f4	-0.045917466
250	0x3e00eff5	0.12591536
251	0x3c077199	0.00826683
252	0xbdd25c8e	-0.1027156
253	0xbce25cd5	-0.027632156
254	0xbd102b03	-0.03519727
255	0x3e3ed139	0.186345

encoder.conv2.h_bias f4 [32]
0	0xbc9de4de	-0.019274171
1	0xbcbf02e9	-0.023316817
2	0xbcd0569f	-0.02543193
3	0xbc368a45	-0.011141364
4	0xbd5d2d9c	-0.053998575
5	0x3d80cc8d	0.06289015
6	0xbdcd7bdf	-0.10033392
7	0xbd2322cd	-0.03982811
8	0xbd181887	-0.037132766
9	0xbc8d50c6	-0.01725043
10	0xbd8102be	-0.06299351
11	0xbd341c13	-0.043972086
12	0x3d6cc520	0.05780518
13	0xbd5f7bea	-0.054561533
14	0xbd90b4c7	-0.070657305
15	0x3c5c9495	0.013463159
16	0xbc5f230c	-0.013619196
17	0x3d540627	0.05176368
18	0xbd13be31	-0.036070053
19	0xbd83346d	-0.06406484
20	0x3d85b210	0.06528103
21	0xbd92d62c	-0.07169756
22	0x3cbbb035	0.02291117
23	0xbd8f7004	-0.07003787
24	0xbcc54028	-0.024078444
25	0x3d2f8554	0.04285176
26	0x3d8aa0b5	0.06768934
27	0x3d8b0a0d	0.067890264
28	0x3d91b1c8	0.07113987
29	0x3c34e69b	0.011041309
30	0xbcf30011	-0.029663118
31	0x3d5b6e61	0.053572062

encoder.conv2.loop_weight f4 [32, 32]
0	0xbcd8c1d2	-0.026459608
1	0xbda5f249	-0.08102853
2	0xbe958f08	-0.29210687
3	0x3e3a1c86	0.18174943
4	0xbde6d603	-0.11271288
5	0x3df2593d	0.11833427
6	0xbed5b7ad	-0.41741696
7	0xbebe27c3	-0.3713971
8	0x3e58708a	0.2113668
9	0xbdd231b3	-0.102633856
10	0x3e9e0301	0.30861667
11	0x3ee02e11	0.43785146
12	0x3df5cd7a	0.12002082
13	0xbe70af2c	-0.23504323
14	0xbead7f05	-0.3388597
15	0xbe3940b0	-0.18091083
16	0x3ebf790a	0.37397033
17	0x3ded272a	0.115797356
18	0x3e7c2d01	0.24626543
19	0x3d96c2d7	0.073613815
20	0x3d556478	0.052097768
21	0xbeef4a97	-0.46736595
22	0x3e0b2b92	0.1359084
23	0xbe374b5c	-0.17899841
24	0x3e5ecaa6	0.21756992
25	0xba696ec3	-0.00089047494
26	0xbe92af05	-0.28649154
27	0x3ed2ad5f	0.41147897
28	0xbe9ef873	-0.31048927
29	0x3e145b10	0.14487863
30	0xbe8bce6d	-0.27305928
31	0x3df599cf	0.11992227
32	0x3eb1697a	0.34650785
33	0xbea2b4fd	-0.31778708
34	0xbdd5fd9c	-0.10448763
35	0x3c985bfb	0.018598547
36	0xbeaaee9e	-0.33385175
37	0xbdaf8892	-0.085709706
38	0xbef362f2	-0.47536427
39	0xbd597243	-0.053087484
40	0x3e2539fd	0.16135402
41	0x3eb5b047	0.3548605
42	0xbe5d51d7	-0.2161325
43	0x3eca5cac	0.39523828
44	0xbe6d92a2	-0.23200467
45	0xbe08428c	-0.13306636
46	0x3eabf33e	0.33584017
47	0x3ef0622d	0.46949902
48	0x3d64e441	0.055881742
49	0xbe3126cb	-0.17299955
50	0xbe9bfe87	-0.30467626
51	0xbd168eec	-0.036757395
52	0x3c82c249	0.015961783
53	0xbdf70f00	-0.12063408
54	0x3e1e5aff	0.154644
55	0xbe640f6b	-0.22271506
56	0x3e3a2692	0.18178776
57	0xbeceb54a	-0.40372688
58	0x3eb08c8f	0.34482238
59	0x3e836c65	0.25668636
60	0x3dc06489	0.093941756
61	0xbd6f3c50	-0.058407128
62	0x3c229bca	0.009924838
63	0x3ebadeab	0.36498007
64	0xbe92df1e	-0.2868585
65	0x3dd503bc	0.10401103
66	0x3e88a6bb	0.26689705
67	0xbdc8be6c	-0.09801945
68	0x3e2d2403	0.16908269
69	0xbdef1163	-0.11673238
70	0x3e961c0f	0.29318282
71	0xbd49d483	-0.049274933
72	0x3da888d2	0.082292214
73	0x3ce5e182	0.028061632
74	0xbe2c529b	-0.16828386
75	0xbd87fd91	-0.06640161
76	0x3e54aa56	0.20768103
77	0x3decf472	0.11570062
78	0x3e125e06	0.1429368
79	0xbd6eea50	-0.058328927
80	0x3eab8782	0.33501822
81	0x3ddfc1a3	0.10925605
82	0xbe4aacf7	-0.19792543
83	0x3ea1149b	0.31461033
84	0x3e6babe3	0.23014788
85	0x3eb3f7b1	0.3514991
86	0x3e5c56cb	0.21517484
87	0x3e8cfea1	0.27538016
88	0xbeb41f61	-0.3518019
89	0xbe17a1d7	-0.14807831
90	0x3e157194	0.14594108
91	0x3e359508	0.17732632
92	0xbe9e28af	-0.30890414
93	0xbdd63b1c	-0.10460493
94	0x3e7de39c	0.24793857
95	0xbe90cf52	-0.28283173
96	0xbeabd88c	-0.3356365
97	0xbda8cd82	-0.082423225
98	0x3d844e85	0.06460289
99	0x3e9a9999	0.3019531
100	0x3dd04894	0.10170093
101	0x3bc9f97e	0.006163775
102	0xba1ba677	-0.0005937586
103	0xbebf39d4	-0.37348807
104	0xbdf10034	-0.11767617
105	0x3e7fd076	0.24981865
106	0x3e49f80f	0.19723533
107	0x3e1489ba	0.14505664
108	0x3ec178ca	0.37787467
109	0xbed0690c	-0.40705144
110	0x3df19879	0.1179666
111	0xbd267af9	-0.04064462
112	0xbec34d25	-0.38144794
113	0xbedcb2c6	-0.43105143
114	0x3e44ff1f	0.19237946
115	0x3d9f8eb1	0.07790888
116	0xbe8c97a9	-0.27459458
117	0xbd4aa427	-0.049472954
118	0xbecf5864	-0.40497124
119	0x3db91148	0.09036499
120	0x3ee1bc61	0.44089034
121	0x3b048453	0.0020220473
122	0xbe136e02	-0.14397433
123	0x3e8e2e87	0.27769873
124	0x3ea99122	0.3311854
125	0x3e402760	0.1876502
126	0xbd3e2d9c	-0.046430215
127	0xbda9715c	-0.08273575
128	0x3de36763	0.11103704
129	0x3d480cd9	0.048840377
130	0x3e8d6d4d	0.27622452
131	0x3d807cd9	0.06273813
132	0x3e98cd6b	0.2984422
133	0xbe8a06cd	-0.26958314
134	0x3e01d7c1	0.1267996
135	0xbec256e1	-0.37956908
136	0x3ebb4fd5	0.36584345
137	0x3d8844eb	0.0665377
138	0xbed63783	-0.41839227
139	0x3e18cc87	0.14921771
140	0x3e9dc230	0.30812216
141	0xbe6de1d4	-0.23230678
142	0x3e7157b5	0.23568614
143	0xbdd56171	-0.10418976
144	0x3ee6f35c	0.45107543
145	0x3cecbfbe	0.028900024
146	0x3e2625f6	0.16225418
147	0x3ea99cdc	0.33127487
148	0xbecd8afb	-0.40145096
149	0x3e72c50e	0.23707983
150	0xbe987fef	-0.29785106
151	0x3e5aca0c	0.21366137
152	0xbd83bf52	-0.06432976
153	0xbe7e29ad	-0.24820586
154	0x3c7a1479	0.01526367
155	0xbe444f69	-0.19170918
156	0xbe8b87da	-0.27252084
157	0xbe95efdc	-0.2928456
158	0x3e627e6c	0.22118539
159	0x3dc1656c	0.09443173
160	0x3ed765cc	0.42069852
161	0xbdc4808b	-0.0959483
162	0x3e0fa1ec	0.14026612
163	0x3eb9fc83	0.36325464
164	0xbea522c4	-0.32253087
165	0x3d9df4a0	0.07712674
166	0xbeedab7f	-0.46419904
167	0xbce61f86	-0.028091203
168	0xbeb82a81	-0.35969928
169	0x3eb97f61	0.36229995
170	0x3e3ba3c3	0.18324189
171	0xbe9bc977	-0.30427143
172	0xbdbd166a	-0.09232791
173	0x3e8007b7	0.25005886
174	0x3db89f02	0.09014703
175	0x3ec7e6a8	0.39043164
176	0xbec2e5b6	-0.3806588
177	0x3d1367c5	0.035987634
178	0xbe4e4103	-0.20141988
179	0x3e63fed7	0.22265182
180	0xbe988fde	-0.29797262
181	0x3d6c4f68	0.057692915
182	0x3c117cc2	0.008879842
183	0xbea235a3	-0.31681547
184	0xbe9c54b7	-0.30533382
185	0xbb86f338	-0.0041183494
186	0xbce08970	-0.027409285
187	0xbe86e9fa	-0.26350385
188	0xbee01682	-0.43767172
189	0xbe9745b5	-0.2954537
190	0xbea53807	-0.32269308
191	0x3e870cda	0.26376992
192	0x3eabbb1d	0.33541194
193	0xbdce2a45	-0.10066656
194	0x3e537265	0.20649107
195	0xbed59975	-0.4171864
196	0x3e950c90	0.29111147
197	0xbe9b0f35	-0.3028504
198	0x3ec1eb3e	0.37874788
199	0x3e91ae72	0.28453404
200	0x3e2e215b	0.17004912
201	0x3e5db7cd	0.21652146
202	0xbd873e94	-0.06603733
203	0x3ec8655e	0.39139837
204	0xbe3ce617	-0.18447147
205	0xbe0dbabf	-0.13840769
206	0x3e5009bf	0.20316218
207	0x3e88e55f	0.26737496
208	0x3dd9741a	0.10617848
209	0xbe36c4bb	-0.17848484
210	0xbe6d1037	-0.23150717
211	0xbedc6180	-0.43043137
212	0x3ecc3a59	0.39888266
213	0xbe7f0072	-0.24902514
214	0x3e8ed0bf	0.27893636
215	0xbecc8fca	-0.39953452
216	0x3e6609e3	0.22464709
217	0x3d2d5c85	0.04232456
218	0x3e77101f	0.24127243
219	0x3e2bcf9a	0.16778412
220	0xbe958902	-0.2920609
221	0x3e34d4c3	0.17659287
222	0x3d48821a	0.0489522
223	0x3ccef115	0.025261441
224	0xbcb56cf3	-0.022146678
225	0x3ea21858	0.31659198
226	0x3e3c79af	0.18405794
227	0x3d15e9e4	0.03660001
228	0x3d1fe020	0.0390321
229	0xbe93cdd8	-0.28867984
230	0xbed7261c	-0.42021263
231	0x3e19f22d	0.15033789
232	0xbea0ca53	-0.3140436
233	0xbe72b990	-0.23703599
234	0x3e8fe4ac	0.2810415
235	0x3eb016fe	0.34392542
236	0xbd7025b7	-0.058629718
237	0xbea4caea	-0.3218606
238	0xbdbb038e	-0.091315374
239	0xbeacdcfa	-0.33762342
240	0xbe845ffd	-0.25854483
241	0x3ecbcb40	0.39803505
242	0x3e9c1c46	0.3049032
243	0x3ea1f0ea	0.31629115
244	0x3ea1be5c	0.31590545
245	0xbdb6a86e	-0.08918844
246	0x3e59ba26	0.21262416
247	0xbe19d38d	-0.15022106
248	0xbea6d490	-0.32584047
249	0xbebef207	-0.37294027
250	0x3eb9a6df	0.36260125
251	0x3e60fc58	0.21971262
252	0x3e42e4c8	0.19032586
253	0x3ecbb27f	0.3978462
254	0xbe830f8b	-0.25597796
255	0xbe6bf62a	-0.23043123

encoder.conv2.linear_r.W f4 [2, 32, 32]
0	0x3db8c097	0.090211086
1	0xbd899e44	-0.0671964
2	0x3d4cd9a3	0.050012242
3	0xbdf7ecaa	-0.12105687
4	0x3d8af9c6	0.06785922
5	0xbdc4ae56	-0.096035644
6	0xbe2b94aa	-0.1675593
7	0x3c2cca12	0.010546224
8	0xbd71977a	-0.05898235
9	0xbc4dc133	-0.012558269
10	0xbe20e870	-0.15713668
11	0x3e2e2703	0.1700707
12	0x3e612af9	0.21989049
13	0xbe3c1e43	-0.18370919
14	0x3dfa6e32	0.12228049
15	0x3e3643e0	0.1779933
16	0xbd65d1ed	-0.056108404
17	0x3de6cee5	0.11269931
18	0xbe433bdc	-0.19065803
19	0xbdc83343	-0.097754024
20	0xbdf5e45f	-0.12006449
21	0xbe7bcc83	-0.24589734
22	0x3d4b426e	0.0496239
23	0xbe26cad2	-0.16288307
24	0xbd9d05d0	-0.07667124
25	0x3d28fd5d	0.04125725
26	0xbdff6bde	-0.12471746
27	0x3e04f128	0.12982619
28	0x3df6346e	0.12021719
29	0xbae12c2d	-0.0017179303
30	0x3e1f5b88	0.1556226
31	0x3c87b2f4	0.016564824
32	0xbca25312	-0.019815002
33	0xbe04703e	-0.12933442
34	0xbc4c4f27	-0.012470043
35	0x3e16d1c6	0.1472846
36	0xbd43b8bc	-0.0477836
37	0x3e4d6752	0.20058945
38	0x3cb4d922	0.022076193
39	0x3e0fc561	0.14040138
40	0x3d1103a4	0.035403863
41	0xbd663628	-0.05620399
42	0xbdb69f57	-0.089171104
43	0xbdc1f4d2	-0.09470524
44	0xbde7825a	-0.113041595
45	0xbdce0aee	-0.100606784
46	0x3d5ec760	0.054389358
47	0xbd356d33	-0.044293594
48	0x3b9d36eb	0.0047978065
49	0x3d8ba4eb	0.06818565
50	0xbe3b9aee	-0.1832082
51	0xbe49345c	-0.1964888
52	0x3e5390a8	0.2066065
53	0xbe44af56	-0.1920751
54	0x3e26e0fe	0.16296765
55	0xbe600ac9	-0.21879114
56	0x3d5c0785	0.05371811
57	0xbcc0d1aa	-0.023537476
58	0x3e291a60	0.16513968
59	0xbdcf8301	-0.10132409
60	0x3c252b8d	0.010081184
61	0x3c069d64	0.008216236
62	0x3d6d6bbd	0.057964075
63	0x3e53af4e	0.20672342
64	0x3d545197	0.051835623
65	0xbdc99297	-0.09842413
66	0xbe214423	-0.15748648
67	0xbc3eb3c9	-0.011639544
68	0xbe006828	-0.12539732
69	0xbcb5befc	-0.022185795
70	0xbd91b2ee	-0.07114206
71	0xbe1c5e93	-0.15270452
72	0xbc80ef8e	-0.015739229
73	0xbe1d554d	-0.15364571
74	0x3db428ea	0.08796866
75	0x3e186693	0.14882879
76	0xbdb9d2cb	-0.09073409
77	0xbdbc560d	-0.091961004
78	0xbd9e881d	-0.07740805
79	0x3d1e5507	0.038655307
80	0xbddb7cb7	-0.10717147
81	0x3d5dbb5e	0.054133765
82	0x3b7bbf97	0.0038413757
83	0x3d2946e1	0.04132736
84	0x3d0255bf	0.031820055
85	0xbbdd4b17	-0.006753336
86	0x3dc13663	0.094342016
87	0xbbce64b3	-0.0062986254
88	0x3d463095	0.048386175
89	0xbe1cae00	-0.1530075
90	0x3db3bbf4	0.087760836
91	0x3db2e8a8	0.08735782
92	0x3c929ffa	0.017898548
93	0x3dd1365a	0.10215445
94	0x3e2b2871	0.16714646
95	0x3e2ce5bb	0.1688451
96	0x3d600928	0.054696232
97	0x3db379bd	0.08763454
98	0xbd8f620b	-0.07001122
99	0xbdc60d40	-0.09670496
100	0xbe000073	-0.12500171
101	0xbd7c3045	-0.06156947
102	0xbe2d1c37	-0.16905294
103	0xbd9c5bbd	-0.07634685
104	0x3dde5072	0.108551875
105	0xbd4a4172	-0.04937882
106	0xbe12558a	-0.14290443
107	0xbca021fd	-0.019547457
108	0x3dd9074d	0.10597096
109	0x3df94d0a	0.12172897
110	0xbe05ab83	-0.13053708
111	0x3e2ef77c	0.17086595
112	0xbd438f5c	-0.04774414
113	0xbc9425d1	-0.018084439
114	0x3d015b2e	0.031581096
115	0xbe2ca97e	-0.16861531
116	0xbde3df45	-0.1112657
117	0xbdc0c780	-0.094130516
118	0xbcde70d2	-0.027153406
119	0xbae08d0c	-0.0017131879
120	0x3d9d1b71	0.0767125
121	0x3df98541	0.12183619
122	0xbcdb76b9	-0.02679001
123	0x3e0170d7	0.12640701
124	0x3e25edca	0.1620399
125	0xbd22ea45	-0.039774198
126	0xbd6e7a8c	-0.05822234
127	0x3d6a53d2	0.057208844
128	0x3d93ca8c	0.07216367
129	0x3e0e5f38	0.1390351
130	0xbdf260a7	-0.11834841
131	0x3d6ea86b	0.058266085
132	0xbcf172ff	-0.02947378
133	0x3d0b123a	0.03395293
134	0xbd080d33	-0.033215713
135	0x3dd59bdb	0.10430118
136	0xbdef86a0	-0.116955996
137	0x3d9ec93a	0.07753225
138	0xbd679c1c	-0.056545362
139	0xbd9876b8	-0.07444519
140	0x3b1b907d	0.0023737245
141	0x3d922719	0.071363635
142	0xbdfed70e	-0.12443362
143	0xbd636eda	-0.05552564
144	0xbcac9473	-0.02106688
145	0x3e0e0e26	0.13872585
146	0xbdf49f10	-0.11944401
147	0xbe3e607b	-0.18591492
148	0x3e2a7958	0.16647851
149	0x3d40a965	0.047036547
150	0xbd8f14a2	-0.06986357
151	0x3e0d1fd9	0.1378168
152	0x3e4d4bfb	0.20048515
153	0x3dcd3eab	0.100217186
154	0xbdd38bd3	-0.10329404
155	0x3db6955b	0.08915206
156	0xbd8f2448	-0.06989342
157	0x3e2223c0	0.1583395
158	0x3c899bca	0.016797919
159	0xbdd06ec2	-0.101773754
160	0xbc34ee12	-0.0110430885
161	0x3db34368	0.08753091
162	0x3dee2281	0.11627675
163	0xbe16d22d	-0.14728613
164	0xbe0d83c6	-0.13819799
165	0x3e08f4f8	0.13374698
166	0xbe6b443d	-0.2297525
167	0xbe657491	-0.22407748
168	0x3bb44557	0.00550143
169	0xbe263f96	-0.16235194
170	0xbe2eb5cd	-0.17061539
171	0xbe152f80	-0.14568901
172	0x3dbc63da	0.09198733
173	0xbe7028e7	-0.23453103
174	0xbe044c81	-0.12919809
175	0x3d7ea911	0.062172953
176	0xbe1aed17	-0.15129505
177	0x3e6b4eef	0.2297933
178	0xbe3203eb	-0.17384307
179	0x3db828ed	0.08992181
180	0xbdb42c6a	-0.08797534
181	0xbe1fd246	-0.15607557
182	0xbd5393f6	-0.05165478
183	0x3da49292	0.080357686
184	0x3de79c89	0.113091536
185	0x3dfffe86	0.12499718
186	0x3e593e5f	0.21215199
187	0x3e572a9f	0.21012352
188	0xbda1a0f4	-0.078920275
189	0x3dc00b1c	0.09377119
190	0x3c582054	0.013191301
191	0x3df89d87	0.12139421
192	0xbe00eac6	-0.12589559
193	0x3df8f47e	0.12156008
194	0xbdd85aac	-0.10564169
195	0xbcce3fbe	-0.025176879
196	0xbcaa0150	-0.020752579
197	0x3d9d53e6	0.07682018
198	0xbdc8030c	-0.09766206
199	0x3da28ee0	0.079374075
200	0xbd11ea70	-0.035623968
201	0x3cbec2cd	0.023286248
202	0xbd314e33	-0.043287467
203	0x3e077705	0.13228996
204	0xbde568e4	-0.11201647
205	0x3de17ef1	0.1101054
206	0x3db7fab7	0.08983367
207	0x3dfd682b	0.12373384
208	0x3dc48b5a	0.09596892
209	0xbc66909e	-0.014072565
210	0xbda0dd7f	-0.07854747
211	0x3db1a7b7	0.08674567
212	0x3e148984	0.14505583
213	0xbdcaac56	-0.09896152
214	0xbe239f42	-0.15978721
215	0x3dedd313	0.11612525
216	0xbe143e81	-0.14476968
217	0x3c764ab6	0.015032461
218	0x3d8e12b0	0.06937158
219	0xbd195da4	-0.03744282
220	0x3e0b5820	0.13607836
221	0x3df866ee	0.12129007
222	0x3d81379d	0.063094355
223	0xbd81042e	-0.06299625
224	0xbdedbd7f	-0.11608409
225	0x3dd231a5	0.10263375
226	0x3e14b983	0.14523892
227	0x3e181a45	0.14853771
228	0x3de71f26	0.11285238
229	0x3e4bcff5	0.19903548
230	0x3d9d61fd	0.076847054
231	0x3df922f5	0.12164871
232	0x3c25eb4e	0.010126902
233	0x3c0bc06d	0.008529765
234	0xbe5857f3	-0.211273
235	0xbc4b3513	-0.012402791
236	0x3d2c3504	0.042042747
237	0x3d39b3b9	0.045337413
238	0xbe6c3029	-0.23065247
239	0x3d3683c1	0.044559244
240	0xbdaaf91f	-0.08348297
241	0x3e2c11ee	0.16803715
242	0xbe4994f2	-0.19685724
243	0xbdb2d2cb	-0.08731612
244	0x3e3a53b8	0.18195999
245	0xbaab236d	-0.0013056822
246	0x3d5b36bb	0.053518992
247	0xbe07bbe9	-0.13255276
248	0xbd3f5827	-0.046714928
249	0x3dbf77b9	0.09349007
250	0x3d91080a	0.070816115
251	0x3e07b6e0	0.13253355
252	0x3e0022ea	0.12513319
253	0x3e049e19	0.12950934
254	0x3d9f0f06	0.07766537
255	0x3c1b6ecd	0.009486866

decoder.shift_attention_embedding.weight f4 [32, 32]
0	0xbe04817a	-0.12940016
1	0xbc895e97	-0.016768737
2	0x3e0f18bb	0.13974278
3	0xbe2b2fff	-0.16717528
4	0xbe25e322	-0.16199926
5	0xbde94e40	-0.11391878
6	0x3ac88260	0.0015297644
7	0xbe45c9ff	-0.19315337
8	0x3cb3577e	0.021892305
9	0xbe248ca8	-0.16069281
10	0xbddf0a3d	-0.10890625
11	0xbe56cfdf	-0.20977734
12	0xbd8cbe97	-0.0687229
13	0xbd9c9470	-0.076455
14	0xbe10a5bf	-0.14125727
15	0x3d859685	0.0652285
16	0xbde9bca8	-0.114129364
17	0x3d9e689d	0.07734797
18	0xbda5740b	-0.08078774
19	0xbd88edfc	-0.06686017
20	0x3e15ed4c	0.14641303
21	0xbe3d70d9	-0.18500079
22	0x3c6fe323	0.014641556
23	0xbe1b29a3	-0.15152602
24	0x3c4f02f9	0.012634986
25	0x3d8e401a	0.0694582
26	0xbd448171	-0.047975007
27	0x3e2c1176	0.16803536
28	0x3df33e27	0.11877089
29	0x3e243491	0.16035677
30	0xbe11d166	-0.14240035
31	0xbdc7e08c	-0.09759626
32	0xbd4669fc	-0.04844092
33	0xbe62ebba	-0.22160235
34	0xbe1ca274	-0.15296346
35	0xbddd6897	-0.108109646
36	0xbd1712a9	-0.03688303
37	0x3d2fdf57	0.042937603
38	0x3de42f5c	0.111418456
39	0xbe2f0c5f	-0.17094563
40	0xbd8dd6d2	-0.06925739
41	0x3e08ba45	0.13352306
42	0xbe246e65	-0.16057737
43	0xbe375391	-0.17902972
44	0x3d99930b	0.07498749
45	0xbdbe1721	-0.09281755
46	0x3d622dae	0.055219345
47	0x3e00b67b	0.12569611
48	0xbd43d362	-0.047809012
49	0xbdfcbc53	-0.123406075
50	0xbc83af0e	-0.016074684
51	0xbd3eb34a	-0.046557702
52	0x3bca9f39	0.0061835316
53	0xbd45dfb0	-0.04830903
54	0x3e11d10c	0.14239901
55	0x3e1722b5	0.14759333
56	0x3e0726b4	0.13198358
57	0x3d94d138	0.07266468
58	0x3dfad423	0.12247493
59	0xbdb97f5f	-0.09057497
60	0xbc194a0e	-0.009356035
61	0x3db4e8e0	0.0883348
62	0x3d8747be	0.066054806
63	0x3e24a9ce	0.160804
64	0x3deb54b5	0.11490766
65	0x3e1809ae	0.14847443
66	0x3d843f8a	0.064574316
67	0xbdaf0463	-0.085457586
68	0xbcb6310c	-0.022240184
69	0xbd084ab9	-0.033274386
70	0xbdb8e9cc	-0.09028968
71	0xbe2b8565	-0.16750105
72	0x3d628254	0.05530007
73	0x3deeae5a	0.11654349
74	0x3d1f5f8a	0.038909473
75	0xbe1c6e66	-0.15276489
76	0x3dacda1e	0.0844004
77	0xbe468ad2	-0.19388893
78	0x3d8b0afe	0.06789206
79	0x3d83cf04	0.064359695
80	0xbe07ee04	-0.1327439
81	0xbdab32a9	-0.08359272
82	0xbe3cb078	-0.18426692
83	0xbd761fa9	-0.060088787
84	0xbdcc332b	-0.09970697
85	0x3da72432	0.081612006
86	0x3e46cad8	0.19413316
87	0xbd0eef2e	-0.03489607
88	0xbdd0321e	-0.10165809
89	0xbdf4fa35	-0.11961786
90	0x3dcc67e6	0.099807546
91	0x3e3375be	0.17525384
92	0xbdab2735	-0.083570875
93	0x3dfeb602	0.12437059
94	0xbd9d02cf	-0.07666551
95	0xbdd74566	-0.105112836
96	0x3d2f5324	0.0428039
97	0x3dc573cb	0.096412264
98	0x3ddc9210	0.10770047
99	0x3d7555b3	0.059896182
100	0xbe22f595	-0.15913995
101	0xbdb1122a	-0.08646043
102	0xbdf6688a	-0.12031658
103	0xbe461344	-0.19343287
104	0x3c0d774b	0.008634399
105	0x3dfdaca2	0.12386443
106	0xbe2f720b	-0.17133348
107	0x3e0f4c5a	0.1399397
108	0x3dabdd24	0.083917886
109	0xbc20d8ab	-0.009817283
110	0xbd8cbf10	-0.0687238
111	0xbd687640	-0.056753397
112	0xbdb6e9fe	-0.08931349
113	0xbd5d336b	-0.054004114
114	0x3e123b10	0.14280343
115	0xbd3bfacd	-0.04589348
116	0xbd15ef4d	-0.036605168
117	0xbdb2194a	-0.0869623
118	0x3d8fdc7b	0.07024475
119	0x3e0971ab	0.13422267
120	0x3cd95d3e	0.02653372
121	0xbe211bad	-0.15733214
122	0x3d501dfd	0.05080985
123	0x3e4470ed	0.19183703
124	0xbc02709a	-0.007961417
125	0xbdd02bf7	-0.10164636
126	0x3c19405c	0.009353723
127	0x3e05264b	0.13002889
128	0x3e323342	0.17402366
129	0xbe137001	-0.14398195
130	0xbe214a8c	-0.15751094
131	0x3d3b7995	0.045770247
132	0x3e184d08	0.14873135
133	0xbdc8f57b	-0.09812447
134	0xbdb5e46c	-0.08881459
135	0xbd5abb8f	-0.053401526
136	0x3d83671d	0.06416152
137	0x3deb93ac	0.115027755
138	0x3dbb1219	0.09134311
139	0x3d24055b	0.04004417
140	0xbcb8624c	-0.02250781
141	0xbbcac6a7	-0.006188232
142	0xbd4493ef	-0.047992643
143	0xbcd9dfd2	-0.026595984
144	0xbd9b5a02	-0.07585527
145	0xbce07a0f	-0.027401952
146	0x3e07b019	0.1325077
147	0xbd5e23e0	-0.05423343
148	0x3cb28f1b	0.021796754
149	0x3e21107c	0.15728945
150	0xbe42d69d	-0.19027181
151	0x3b137b6a	0.002250398
152	0x3e1f1e95	0.1553901
153	0xbe0aa473	-0.13539295
154	0x3d1ef93e	0.038811915
155	0xbd1e7251	-0.03868324
156	0xbd52ae3a	-0.051435687
157	0x3d186c67	0.037212756
158	0x3e1fdc34	0.15611345
159	0xbe29fb99	-0.16599883
160	0xbe03621b	-0.12830393
161	0x3a8c1057	0.0010686022
162	0x3d295bbe	0.041347258
163	0x3d8cc01c	0.068725795
164	0x3b971904	0.0046111364
165	0xbd3fa932	-0.046792217
166	0x3e0dcd07	0.13847743
167	0xbe13eecb	-0.14446561
168	0x3e333946	0.17502317
169	0x3e1deddf	0.15422772
170	0xbca0fef9	-0.01965283
171	0x3d49b4c8	0.049244672
172	0x3d831ead	0.06402335
173	0x3ca3cd40	0.019995332
174	0x3b8873f0	0.0041642115
175	0x3dcd6f68	0.10031015
176	0xbd8920ba	-0.06695695
177	0x3e1f5abe	0.15561959
178	0x3df498e5	0.11943225
179	0x3e2558b8	0.16147125
180	0x3e06d956	0.13168845
181	0x3ddfa1db	0.10919543
182	0xbced0ba8	-0.028936222
183	0x3d83a3ae	0.06427704
184	0x3dbb4364	0.09143713
185	0xbe1f4fef	-0.15557836
186	0x3d8efdd4	0.069820076
187	0xbd89e29c	-0.067326754
188	0xbd4fa711	-0.050696436
189	0xbe42e4f5	-0.19032653
190	0xbd88fb2d	-0.06688533
191	0x3ca6728e	0.020318296
192	0x3e58e2fb	0.21180336
193	0xbdcbd21f	-0.09952187
194	0x3d48d23c	0.04902862
195	0x3b83a48c	0.0040174183
196	0x3d78d550	0.060750306
197	0xbc670d5c	-0.014102306
198	0x3e5e8898	0.21731794
199	0x3dc302e3	0.09522035
200	0xbe0b0c56	-0.13578925
201	0xbd80d7c9	-0.06291158
202	0x3e0af3a1	0.135695
203	0x3d730231	0.05932826
204	0xbdf5e9ed	-0.120075084
205	0x3e3ffb02	0.18748096
206	0x3d52910f	0.05140787
207	0xbdaacc30	-0.08339727
208	0x3e0a2c28	0.13493407
209	0xbe2edd9a	-0.17076722
210	0x3e4405ab	0.19142787
211	0x3dc87c9f	0.097893946
212	0xbde0f045	-0.10983328
213	0x3e3dbe99	0.18529738
214	0xbd53ef65	-0.051741976
215	0x3e554519	0.2082714
216	0x3cd42dd8	0.025900766
217	0xbd4dcc7c	-0.05024384
218	0xbc63059a	-0.013856316
219	0xbe66a50c	-0.22523898
220	0xbdf01962	-0.117235914
221	0xbe08ebff	-0.13371275
222	0x3e02c42e	0.12770149
223	0xbcd3fc09	-0.025877016
224	0xbd48524d	-0.048906613
225	0xbd9e168a	-0.07719143
226	0xb9a0b00b	-0.0003064874
227	0x3c95ab48	0.01827015
228	0x3c595f65	0.013267373
229	0x3bd675ec	0.006544819
230	0x3e137445	0.14399822
231	0xbe376bbb	-0.1791219
232	0xbe0cef7a	-0.13763228
233	0x3dffb642	0.12485935
234	0xbd0c5130	-0.034257114
235	0x3e010b48	0.1260196
236	0xbe00b68a	-0.12569633
237	0x3dc6a87b	0.09700104
238	0x3da18661	0.07886959
239	0xbdf9423b	-0.121708356
240	0xbdcad63f	-0.099041454
241	0x3d2e8193	0.04260404
242	0x3bbb3e84	0.0057142396
243	0xbdc8f4d9	-0.09812326
244	0xbcf1eb94	-0.029531278
245	0xbe234814	-0.15945464
246	0xbdb078b6	-0.08616774
247	0x3c84308d	0.016136432
248	0xbde3f076	-0.11129849
249	0x3d1bc872	0.038032956
250	0x3c772dc1	0.015086592
251	0x3d5b089b	0.053475004
252	0x3db18b6e	0.08669172
253	0xbdec8c59	-0.11550207
254	0x3ddc0887	0.10743814
255	0x3e1d6110	0.15369058

decoder.shift_attention_embedding.bias f4 [32]
0	0x3e0a7875	0.13522513
1	0xbd2e6c3f	-0.0425837
2	0xbd7113c2	-0.058856733
3	0x3c8fe81b	0.017566731
4	0x3d8f4002	0.069946304
5	0x3d84478e	0.064589605
6	0x3e05e651	0.1307614
7	0x3e2cd043	0.1687632
8	0x3e257c69	0.1616074
9	0x3d82b4a9	0.063821144
10	0x3e35e9d6	0.17764983
11	0x3de52f40	0.11190653
12	0xbde19499	-0.11014671
13	0x3dcd8a96	0.10036199
14	0xbe02aabc	-0.12760442
15	0x3b82fbde	0.00399731
16	0x3b498b18	0.0030753072
17	0xbdaa7776	-0.083235666
18	0xbd22685f	-0.039650317
19	0x3cd1bd52	0.02560297
20	0x3c090eba	0.0083653275
21	0xbdc26d29	-0.09493477
22	0xbd824284	-0.06360343
23	0xbdeb331b	-0.11484357
24	0x3c4d618d	0.012535465
25	0xbdf2adf6	-0.11849587
26	0x3dc90580	0.09815502
27	0xbd9e69ef	-0.07735049
28	0x3d95e4ff	0.07319068
29	0xbd1b1b06	-0.03786757
30	0x3db50d7b	0.08840462
31	0xbdeec8c8	-0.1165939

decoder.worker_attention_embedding.weight f4 [32, 32]
0	0x3d13fd2e	0.036130123
1	0xbe84f803	-0.25970468
2	0x3d73ed53	0.059552502
3	0xbdb84998	-0.08998412
4	0x3c5f3378	0.013623111
5	0x3e0fcdde	0.14043376
6	0xbdeaeb1d	-0.114706255
7	0xbc9e95f8	-0.01935862
8	0x3dd71d41	0.105036266
9	0x3e1c7ea8	0.1528269
10	0x3d7e96fb	0.062155705
11	0x3e55a5a3	0.20863967
12	0xbda9086c	-0.082535595
13	0xbe3c8f9f	-0.18414162
14	0xbe19020b	-0.14942186
15	0xbe0dcde8	-0.13848078
16	0xbd88ec22	-0.06685664
17	0xbe5808df	-0.21097134
18	0x3ddf4e69	0.109036274
19	0xbe2c4a8c	-0.16825312
20	0xbe401f81	-0.18762018
21	0x3e0f970b	0.14022462
22	0x3e22d09a	0.15899888
23	0xbe10ec37	-0.14152609
24	0x3dde875c	0.108656615
25	0x3be30ce4	0.006929027
26	0xbdadd301	-0.084875114
27	0x3c65d9af	0.014028951
28	0x3b33210a	0.0027332925
29	0xbddaaa95	-0.10677067
30	0x3d6cde35	0.0578291
31	0x3debcf6e	0.115141734
32	0x3e0a3869	0.13498081
33	0x3d492182	0.04910422
34	0xbdfa363f	-0.12217378
35	0x3c50c67e	0.012742637
36	0xbd441270	-0.047869146
37	0x3ba9412e	0.0051652407
38	0x3daf8709	0.08570678
39	0xbcc25916	-0.02372412
40	0x3dbcb4c5	0.092141666
41	0xbd39b381	-0.045337204
42	0x3da7a011	0.08184827
43	0x3dd3c5ac	0.10340437
44	0xbe48fa9e	-0.19626853
45	0xbe17dab8	-0.14829528
46	0xbe0cb9c8	-0.13742745
47	0x3d87383f	0.06602525
48	0xbda7abca	-0.08187063
49	0xbe54f162	-0.20795205
50	0x3d212e81	0.03935099
51	0xbdc249c7	-0.09486728
52	0x3de1a5e7	0.110179715
53	0x3db1c46d	0.08680043
54	0xbd31ad9c	-0.043378457
55	0x3df9a0dc	0.121888846
56	0xbdb07786	-0.08616547
57	0xbd8591ef	-0.06521975
58	0xb9813591	-0.00024644707
59	0xbc159699	-0.009130144
60	0x3dd651fe	0.104648575
61	0x3d5e7802	0.054313667
62	0xbd9030c6	-0.07040553
63	0x3e4d0b69	0.20023884
64	0xbd06401d	-0.032775987
65	0xbe343811	-0.17599513
66	0x3dc15585	0.0944014
67	0x3dd2ad16	0.1028692
68	0x3d0e1885	0.034691352
69	0x3e1995e3	0.14998583
70	0xbd018d2f	-0.031628784
71	0x3b811547	0.003939304
72	0xbd57d09f	-0.05268919
73	0xbe35689b	-0.17715685
74	0xbe1ecc38	-0.15507591
75	0xbd9b42a6	-0.075810716
76	0xbe21e4c6	-0.15809926
77	0xbe07dfdb	-0.13268988
78	0x3dda189d	0.10649226
79	0x3d59083f	0.05298638
80	0x3dac26f3	0.084058665
81	0xbdd2874a	-0.102797106
82	0x3deff7d3	0.117171906
83	0xbdbbcc6e	-0.09169851
84	0xbe39fb76	-0.18162331
85	0xbbf04a97	-0.0073331106
86	0x3d54054d	0.051762868
87	0xbd9596eb	-0.07304176
88	0x3e4e1752	0.20126083
89	0xbd8d4197	-0.06897276
90	0xbd875f8f	-0.06610023
91	0x3da9e464	0.08295515
92	0xbe156c5d	-0.14592119
93	0x3d9a1dc4	0.075252086
94	0xbdeb6f08	-0.11495787
95	0x3d1500fa	0.036377884
96	0x3d1a89e9	0.037729178
97	0xbd12bd8e	-0.035825305
98	0xbe2c8d07	-0.16850673
99	0xbe270e8a	-0.1631414
100	0x3e05b111	0.13055827
101	0x3d9316d4	0.071820885
102	0xbdf0f273	-0.117649935
103	0x3cf82454	0.03029076
104	0x3daee485	0.085396804
105	0xbd6e910b	-0.058243793
106	0x3df4464b	0.1192747
107	0x3e301896	0.17196879
108	0xbd678705	-0.05652525
109	0x3c3541b8	0.011063032
110	0xbd6ebcc2	-0.058285482
111	0xbe0709c9	-0.13187326
112	0xbe04d9f0	-0.12973762
113	0xbd913f2a	-0.07092126
114	0xbd2b19a7	-0.04177251
115	0xbd7d671a	-0.061865903
116	0xbe084b7c	-0.13310045
117	0x3b928fa1	0.0044726883
118	0xbde58385	-0.11206726
119	0xbdb5ae68	-0.08871156
120	0xbd36605d	-0.044525493
121	0x3e101264	0.14069515
122	0xbe20cbac	-0.15702695
123	0xbcae5e13	-0.021285092
124	0x3cc30757	0.02380721
125	0xbdb63c45	-0.08898214
126	0x3d70244b	0.05862836
127	0xbe23ecb5	-0.16008265
128	0xbe5d8d74	-0.21635991
129	0xbdd248a5	-0.10267762
130	0x3e3145f6	0.17311844
131	0xbdbebe06	-0.09313588
132	0xb9d4b570	-0.00040570972
133	0x3d80d0fb	0.0628986
134	0xbd34e0d5	-0.04415973
135	0xbe2ae011	-0.16687037
136	0x3dabbc1e	0.0838549
137	0x3e1a774d	0.15084572
138	0xbcf6a3a1	-0.030107321
139	0x3ce5a477	0.028032525
140	0x3d1f6c68	0.038921744
141	0x3c37926e	0.011204345
142	0xbd04d80b	-0.032432597
143	0x3d624f93	0.05525167
144	0x3e0b9622	0.1363149
145	0xbd98138b	-0.074256025
146	0x3c3c7ba9	0.011504092
147	0xbdcdf57e	-0.100565895
148	0x3e28b12d	0.16473837
149	0xbd5bf80a	-0.053703345
150	0x3e0e2832	0.13882521
151	0x3e0edddf	0.13951825
152	0x3d38e6ac	0.04514186
153	0x3c7e15ed	0.015508157
154	0x3d9f0cd9	0.07766122
155	0xbdaf6503	-0.08564188
156	0xbbd93e5a	-0.0066297473
157	0xbd80ed37	-0.06295245
158	0xbe3fd0a1	-0.1873193
159	0x3e23b973	0.15988712
160	0x3dc5eea0	0.09664655
161	0xbd04fb16	-0.032466017
162	0xbc0c97b0	-0.008581087
163	0xbe376e8b	-0.17913263
164	0xbdad6dec	-0.084682316
165	0xbdc3f4c9	-0.095681734
166	0x3bea147c	0.007143555
167	0x3d9158e2	0.07097031
168	0xbde012ce	-0.10941087
169	0x3dfd6905	0.123735465
170	0xbd23d48c	-0.039997622
171	0xbe0e9d19	-0.13927115
172	0xbdb84c7b	-0.089989625
173	0xbda6ad3d	-0.08138511
174	0xbccdaaa7	-0.025105787
175	0xbe2ce280	-0.16883278
176	0x3e39ceb7	0.18145262
177	0x3e41499c	0.18875736
178	0xbe15e1d2	-0.14636925
179	0xbdc31895	-0.09526173
180	0x3e3431e8	0.17597163
181	0x3d7aa1bd	0.061189402
182	0xbc5f1671	-0.01361619
183	0x3d4c1170	0.049821317
184	0xbc7728c0	-0.015085399
185	0xbe0d445d	-0.1379561
186	0x3c03f86d	0.008054835
187	0x3d9f56a0	0.07780194
188	0x3e11387b	0.14181702
189	0x3dd11955	0.1020991
190	0xbd6f1fa8	-0.0583798
191	0x3b5494ed	0.00324374
192	0xbd82ad4d	-0.06380711
193	0x3e182058	0.14856088
194	0x3e2aae49	0.16668047
195	0xbded587f	-0.11589145
196	0x3da540b1	0.080689795
197	0xbd3ac7e3	-0.045600783
198	0xbd8b80a9	-0.06811649
199	0xbdefcfd3	-0.11709561
200	0x3e2ea126	0.17053661
201	0x3d742736	0.059607707
202	0x3e2d4734	0.16921693
203	0xbe6aaddc	-0.22917885
204	0xbdc05767	-0.09391671
205	0xbd1c57b3	-0.038169574
206	0x3e30b316	0.17255816
207	0xbe2ad4fc	-0.1668281
208	0x3d3ea24c	0.046541497
209	0x3e424c2d	0.18974371
210	0x3e2aba40	0.16672611
211	0x3e322223	0.17395835
212	0xbd9382c2	-0.072026744
213	0x3e0e1081	0.13873483
214	0xbd818f98	-0.063262165
215	0x3d169a76	0.0367684
216	0xbd55e3bd	-0.05221914
217	0x3e0a0a04	0.13480383
218	0xbd955b79	-0.07292838
219	0x3e1bb40c	0.15205401
220	0x3dda0f91	0.106475
221	0xbd107507	-0.035267856
222	0x3d19d562	0.037557013
223	0xbd8b1e10	-0.06792843
224	0x3d7d80d9	0.061890457
225	0x3bc47fea	0.005996694
226	0x3ddebed9	0.10876245
227	0xbd0a1367	-0.03370991
228	0x3e2daab5	0.16959651
229	0x3dbf2adf	0.09334349
230	0xbdc399d8	-0.09550828
231	0xbda61962	-0.0811031
232	0x3dd90a87	0.10597711
233	0xbc2fa05d	-0.010719386
234	0x3dc369e3	0.09541681
235	0xbdaad143	-0.08340695
236	0x3c678dde	0.014132945
237	0x3d8b620b	0.068058096
238	0xbe02cef6	-0.12774262
239	0x3df72cdc	0.12069103
240	0x3c8747d0	0.016513735
241	0x3cd2dba7	0.025739504
242	0xbdbb3a7e	-0.09142016
243	0x3e1d445a	0.15358105
244	0xbe420590	-0.18947434
245	0xbd4e0c93	-0.05030496
246	0xbe2de46d	-0.16981669
247	0xbe423db1	-0.18968846
248	0xbd13f7e1	-0.036125068
249	0x3df6e934	0.12056199
250	0x3e2c5684	0.16829878
251	0xbe0ac7ac	-0.13552731
252	0xbd0cb220	-0.03434956
253	0xbdcf8100	-0.10132027
254	0x3e1e7074	0.15472585
255	0xbdce6947	-0.10078674

decoder.worker_attention_embedding.bias f4 [32]
0	0x40a63162	5.193528
1	0x40948cf3	4.6422057
2	0x408f9366	4.486743
3	0x40829b16	4.0814314
4	0xc09e08c7	-4.9385715
5	0xc088aad8	-4.270855
6	0xc0a2fb25	-5.0931573
7	0x3e16129c	0.14655536
8	0xbf402104	-0.7505038
9	0x4092f986	4.5929594
10	0x40a4fb4c	5.155676
11	0x409fb3dd	4.990706
12	0xc0a40f3a	-5.1268587
13	0x40397bbe	2.8981776
14	0xc0a114d1	-5.033791
15	0x40a5abc3	5.177217
16	0x409e608e	4.9492865
17	0x40a7337c	5.2250347
18	0x40a7928c	5.236639
19	0xc0a57b82	-5.1713266
20	0xc09ea742	-4.957917
21	0xc0a6e814	-5.21583
22	0x40a5fcd2	5.187112
23	0x401159cd	2.271106
24	0x40a09e2d	5.0193086
25	0x4062a0d7	3.541067
26	0xc09edc2b	-4.964376
27	0xc0a763df	-5.2309413
28	0xc0890825	-4.282244
29	0x40a13ae3	5.0384383
30	0x409bbc6a	4.86675
31	0xc0a25729	-5.0731397
