dev/test_models/terminal_8.pth (torch, 37761 bytes, 12 tensors)

encoder.shift_embedding.weight f4 [32, 5]
-0.05864878 0.064814985 -0.20034073 -0.016134985 -0.29227048 0.07709277 0.2850408 0.37104586
0.16118538 -0.14704522 0.009736268 -0.018008696 0.094695084 0.007449823 0.10867532 0.46298134
-0.16254862 0.027484985 0.23568134 0.04251966 -0.09721597 -0.40218556 -0.42420104 -0.52453357
-0.48367223 -0.4855885 -0.3821252 -0.41775462 -0.5380302 0.1414362 0.32310838 0.33734617
0.20192681 0.2570363 0.17073847 -0.19344842 0.38244686 -0.013106511 0.48491433 0.16088289
0.35285562 0.41761822 -0.12338532 -0.16370323 0.014617068 0.0039495355 0.08341617 0.15802169
-0.48752406 0.00826283 -0.24585974 0.5066291 -0.32513523 0.045176823 -0.1323703 0.29310635
0.021082096 -0.03158337 0.47455877 0.43911788 -0.37294218 -0.4663462 0.08156908 0.117570624
0.12303464 0.35930908 0.28225654 -0.23151396 -0.4277546 0.3044347 0.43263578 -0.24061993
-0.20279947 0.25241768 -0.22114094 -0.16108602 -0.46211606 0.093030706 -0.28976625 -0.28257176
-0.33073965 -0.18018202 0.14886284 -0.124751166 0.30800837 -0.16423795 -0.11315949 0.3419271
-0.5512698 -0.19161117 -0.26836315 0.3254973 0.24752197 -0.10887439 -0.1822361 0.14560659
-0.15213728 0.1454505 -0.16421503 -0.2174415 0.0073364745 0.215376 0.3351035 -0.0372602
-0.20220874 0.25411153 0.16425616 0.22320974 -0.024346672 -0.0011851096 0.2387918 0.14211926
0.27718157 -0.2098696 0.33000973 -0.12573272 -0.083070524 -0.17688161 0.007554279 0.31935352
0.33563825 0.18221226 -0.33436507 -0.07387925 0.21388623 -0.11951043 -0.28689077 0.0718826
-0.5436577 0.02350269 -0.069742225 -0.005874235 -0.05684453 -0.17548646 -0.24433284 -0.21964692
0.12316965 0.39940226 -0.35862717 -0.34289914 -0.20453246 0.3931027 0.3060761 -0.5368939
0.08491818 0.10184222 0.36276916 -0.071841404 0.27225456 -0.17846113 -0.45462173 0.014371378
-0.23886652 -0.124555014 -0.13142194 -0.26018387 0.24833357 0.3081197 0.42667687 0.0888783
00000000: b439 70bd b8bd 843d 1f26 4dbe 842d 84bc
00000010: 7aa4 95be d0e2 9d3d def0 913e b9f9 bd3e
00000020: c80d 253e 0693 16be de84 1f3c f986 93bc
00000030: 7fef c13d a51d f43b 2b91 de3d e40b ed3e
00000040: 2573 26be 3128 e13c 7356 713e 1829 2e3d
00000050: 2b19 c7bd 44eb cdbe e130 d9be d547 06bf
00000060: e3a3 f7be 0e9f f8be eaa5 c3be efe3 d5be
00000070: 59bc 09bf a7d4 103e 766e a53e a3b8 ac3e
00000080: e7c5 4e3e 439a 833e 11d6 2e3e 5817 46be
00000090: 13d0 c33e b1bc 56bc b146 f83e 7cbe 243e
000000a0: 7ea9 b43e 0ed2 d53e 71b1 fcbd d2a1 27be
000000b0: 6d7c 6f3c 1b6b 813b 19d6 aa3d 70d0 213e
000000c0: c19c f9be d260 073c a8c2 7bbe 72b2 013f
000000d0: 2078 a6be 550b 393d 148c 07be 0912 963e
000000e0: 5cb4 ac3c 905d 01bd 5ef9 f23e 0fd4 e03e
000000f0: 47f2 bebe eec4 eebe b10d a73d dec8 f03d
00000100: 96f9 fb3d 5cf7 b73e ee83 903e ff11 6dbe
00000110: a702 dbbe ddde 9b3e 7082 dd3e 1265 76be
00000120: aaaa 4fbe e43c 813e c572 62be bcf3 24be
00000130: 7a9a ecbe e286 be3d 3e5c 94be 3fad 90be
00000140: b556 a9be a381 38be 806f 183e 8a7d ffbd
00000150: 46b3 9d3e fe2d 28be 2ac0 e7bd 1211 af3e
00000160: 0520 0dbf b835 44be e566 89be 95a7 a63e
00000170: 6676 7d3e 89f9 debd 1a9c 3abe e519 153e
00000180: e0c9 1bbe faf0 143e fc27 28be fca8 5ebe
00000190: cf66 f03b 878b 5c3e b092 ab3e 279e 18bd
000001a0: cf0f 4fbe e81a 823e c432 283e 1891 643e
000001b0: ac72 c7bc ae55 9bba d685 743e b687 113e
000001c0: beea 8d3e 0ee8 56be 09f7 a83e 14c0 00be
000001d0: e120 aabd 7420 35be e389 f73b 4e82 a33e
000001e0: c7d8 ab3e da95 3a3e e631 abbe 014e 97bd
000001f0: fe04 5b3e e2c1 f4bd 59e3 92be 2f37 933d
00000200: 272d 0bbf b788 c03c 03d5 8ebd a87c c0bb
00000210: cfd5 68bd b9b2 33be 6332 7abe 1feb 60be
00000220: 5f40 fc3d 747e cc3e fb9d b7be 7a90 afbe
00000230: f570 51be c244 c93e 02b6 9c3e e171 09bf
00000240: 95e9 ad3d a792 d03d e1bc b93e 9621 93bd
00000250: f364 8b3e 84be 36be 2ec4 e8be ee75 6b3c
00000260: 6d99 74be b316 ffbd 7993 06be d236 85be
00000270: 284b 7e3e dec1 9d3e 6475 da3e d305 b63d

encoder.shift_embedding.bias f4 [32]
-0.44345033 -0.2652628 -0.1038704 0.05634171 -0.49574515 0.14146784 -0.28443423 0.057214785
-0.39854336 0.013685759 -0.00019925667 0.4105659 0.05846926 -0.44617203 0.5434477 -0.47465384
0.07459259 -0.38383272 0.17812777 0.12721272 0.045752186 0.018589348 0.42125535 0.43710008
-0.056219123 -0.22213995 0.048838995 0.30450258 0.28000677 0.46556893 0.13595304 0.10190373
00000000: ec0b e3be 87d0 87be 01ba d4bd 91c6 663d
00000010: 4fd2 fdbe f2dc 103e 5da1 91be 0d5a 6a3d
00000020: e00d ccbe 3c3a 603c 8eef 50b9 b235 d23e
00000030: 767d 6f3d a970 e4be 631f 0b3f d405 f3be
00000040: 00c4 983d b985 c4be 2067 363e 0d44 023e
00000050: a566 3b3d b048 983c c8ae d73e 95cb df3e
00000060: 0646 66bd a878 63be 660b 483d c3e7 9b3e
00000070: 0c5d 8f3e 0d5f ee3e 4637 0b3e e7b2 d03d

encoder.conv1.h_bias f4 [32]
-0.1019846 0.060151804 -0.06556262 0.11986531 -0.02534684 -0.06371069 -0.018427294 -0.065983705
0.03252434 -0.012478769 0.10293795 0.059647907 -0.00986736 0.07017239 0.09896483 -0.021756593
-0.046174526 -0.013787746 -0.017541531 -0.116066694 0.023104466 0.027962703 -0.049262024 0.087723255
0.12669328 0.11533509 0.08108281 -0.0265942 -0.063668005 -0.08100227 -0.04727714 0.046459474
00000000: 4ddd d0bd bd61 763d b245 86bd f27b f53d
00000010: 2da4 cfbc c07a 82bd d6f4 96bc 7722 87bd
00000020: 3e38 053d c073 4cbc 22d1 d23d 5d51 743d
00000030: b5aa 21bc 8bb6 8f3d 13ae ca3d e23a b2bc
00000040: 8021 3dbd 00e6 61bc 42b3 8fbc 60b4 edbd
00000050: 9445 bd3c 0a12 e53c fac6 49bd 40a8 b33d
00000060: e2bb 013e ce34 ec3d bf0e a63d 14dc d9bc
00000070: 5f64 82bd 85e4 a5bd ada5 41bd 4a4c 3e3d

encoder.conv1.loop_weight f4 [32, 32]
-0.19390608 -0.44625062 -0.137269 -0.45366383 -0.24669567 -0.34852126 0.41191137 0.43940738
-0.22879854 0.009321272 -0.13515344 0.11916809 0.070105165 0.16944616 0.07008018 -0.1028642
0.17085865 0.26566592 0.4008797 -0.3308263 0.21408822 -0.3275982 0.06239298 0.14824976
-0.36844885 -0.088789254 -0.44573313 0.10181208 -0.3325145 0.2985183 0.20246048 -0.24210882
0.13736558 -0.18321714 0.117972575 -0.43234873 -0.0884276 0.088858746 -0.28504643 0.3292474
-0.27857426 0.17796299 0.0009620184 -0.22772855 -0.06132111 -0.022718351 0.12918489 0.0031943338
0.12457699 0.35106924 -0.018307954 0.28815752 -0.3193232 0.14377859 -0.38374895 -0.12709281
0.21489495 0.26050857 0.22527552 0.22905867 -0.23498046 0.2921726 -0.28418508 0.19295798
0.03692375 -0.30948558 0.112921625 -0.29319432 0.07739585 0.35848466 0.30260321 0.39692914
0.28584114 -0.40425473 0.0473301 0.122275025 -0.4043526 0.04370368 -0.34808332 -0.17562306
0.3425415 0.088853 -0.3213539 0.019627644 0.43843535 0.4613383 -0.36887157 -0.14359526
-0.18231782 0.03512185 0.105928436 0.19147214 -0.3091899 -0.062869236 0.23070863 -0.14158584
-0.41161376 0.1729247 -0.07517875 0.4037819 -0.38662466 0.16908969 -0.28515127 0.230858
0.16895044 -0.3207515 -0.030754004 -0.006483209 -0.25354984 0.3560233 0.32116255 0.33198527
0.30380332 -0.0939092 -0.42993975 0.19691055 -0.38027504 0.4888147 -0.37751463 -0.3033582
0.24025694 0.25243506 0.2675121 -0.21956699 0.34404466 -0.22657727 0.09026015 0.35714707
0.0022780255 0.023771157 -0.2485409 -0.26562315 -0.18036808 0.29270625 0.012879427 0.07879341
0.14027026 0.22848299 -0.43360046 -0.08325483 0.22198132 -0.3769355 -0.39524436 0.39908135
-0.35951042 0.22719646 -0.084111005 0.21647885 0.15802376 0.1065829 0.060649842 -0.3269411
-0.263758 -0.41816288 -0.17659186 -0.05765028 -0.23869847 0.13855712 -0.35908997 -0.2738855
-0.28141004 -0.32476467 0.36389703 -0.23074338 0.24021156 -0.094262026 0.1382837 -0.19350898
-0.3757013 0.016870886 -0.4019968 0.43440768 0.371254 -0.35831755 -0.35340568 0.077818185
0.27990508 -0.10071961 0.35607985 -0.068718195 -0.1187695 0.1898839 0.17732635 0.13075756
-0.08830485 -0.3717042 -0.39327526 0.10436056 0.3951305 0.2696225 -0.3612354 -0.0030936578
0.17376237 0.4523107 0.1510074 0.22126153 0.36756584 0.31972122 -0.1575156 -0.3561205
0.027180113 0.24189427 0.075687945 -0.097657986 0.21146038 0.2883476 -0.14710511 0.03627724
0.21034542 -0.20524968 -0.094795495 -0.42656183 0.038715776 -0.3598191 -0.091610074 0.09340127
0.35265878 -0.27858207 0.33664513 -0.17990969 -0.34077835 0.35878298 0.43702367 0.0072223884
0.17673422 -0.0057704896 -0.39009804 0.24658617 0.43451628 -0.23234412 0.09033841 -0.12273707
0.23553613 0.068945855 0.38614586 0.30383995 -0.28101432 0.43563616 0.39709452 0.20112684
-0.05344425 0.1321142 0.35794136 0.18426666 0.053724874 0.31270328 0.21636721 -0.20193331
0.37202018 -0.17561997 -0.3191508 0.2355657 0.36583728 -0.35288605 0.27183357 -0.36671883
00000000: 518f 46be f67a e4be 3f90 0cbe a046 e8be
00000010: ca9d 7cbe 6171 b2be 0ce6 d23e 01fa e03e
00000020: 2a4a 6abe 40b8 183c aa65 0abe 660e f43d
00000030: 4c93 8f3d 4b83 2d3e 3386 8f3d 77aa d2bd
00000040: 92f5 2e3e 5d05 883e 1b40 cd3e 1162 a9be
00000050: f139 5b3e f4ba a7be c88f 7f3d c9ce 173e
00000060: 54a5 bcbe 24d7 b5bd 2237 e4be da82 d03d
00000070: 573f aabe 64d7 983e cd51 4f3e 60eb 77be
00000080: 90a9 0c3e 469d 3bbe 9b9b f13d d05c ddbe
00000090: 8819 b5bd 93fb b53d 9bf1 91be 1d93 a83e
000000a0: 49a1 8ebe ee3b 363e f62f 7c3a ac31 69be
000000b0: d82b 7bbd d61b babc 0b49 043e 0758 513b
000000c0: 3922 ff3d 59bf b33e 90fa 95bc 6289 933e
000000d0: 557e a3be b23a 133e be7a c4be 9e24 02be
000000e0: 6c0d 5c3e 6161 853e a0ae 663e 5b8e 6a3e
000000f0: b89e 70be a697 953e b580 91be c796 453e
00000100: 5c3d 173d e574 9ebe 7443 e73d 911d 96be
00000110: b781 9e3d 4d8b b73e cfee 9a3e 4c3a cb3e
00000120: c559 923e 7afa cebe 35dd 413d 546b fa3d
00000130: 4e07 cfbe a102 333d fa37 b2be 88d6 33be
00000140: 9961 af3e 90f8 b53d 8088 a4be 27ca a03c
00000150: 997a e03e 8934 ec3e bcdc bcbe a30a 13be
00000160: 86b1 3abe eedb 0f3d 02f1 d83d 4611 443e
00000170: 234e 9ebe 96c1 80bd e23e 6c3e e1fb 10be
00000180: 0abf d2be 2c13 313e 51f7 99bd 80bc ce3e
00000190: abf3 c5be d925 2d3e 59ff 91be 0a66 6c3e
000001a0: 5801 2d3e 8a39 a4be d2ef fbbc 1971 d4bb
000001b0: 49d1 81be b048 b63e 6b6f a43e f9f9 a93e
000001c0: 1c8c 9b3e 7753 c0bd 1021 dcbe eba2 493e
000001d0: 69b3 c2be ec45 fa3e 9949 c1be c451 9bbe
000001e0: ea05 763e 2b3f 813e 59f7 883e 2bd6 60be
000001f0: 9f26 b03e df03 68be 50da b83d fbdb b63e
00000200: ed4a 153b bbbb c23c 8181 7ebe c2ff 87be
00000210: 69b2 38be 98dd 953e 3b04 533c 705e a13d
00000220: 02a3 0f3e 72f7 693e e100 debe 8281 aabd
00000230: 124f 633e b1fd c0be 785d cabe 6454 cc3e
00000240: c011 b8be 30a6 683e 6442 acbd a2ac 5d3e
00000250: fbd0 213e 2348 da3d f86b 783d d364 a7be
00000260: 4a0b 87be 7219 d6be 7fd4 34be b322 6cbd
00000270: 5f6d 74be ebe1 0d3e a4da b7be b83a 8cbe
00000280: fa14 90be 8e47 a6be b650 ba3e fe47 6cbe
00000290: 05fa 753e 730c c1bd 3e9a 0d3e 3827 46be
000002a0: ec5b c0be d034 8a3c 86d2 cdbe af6a de3e
000002b0: 0115 be3e 6675 b7be 97f1 b4be 245f 9f3d
000002c0: b84f 8f3e 1546 cebd 1950 b63e 20bc 8cbd
000002d0: 6c3d f3bd ed70 423e 0a95 353e 4fe5 053e
000002e0: 2cd9 b4bd 0350 bebe 605b c9be fdba d53d
000002f0: 8b4e ca3e f60b 8a3e d9f3 b8be f7be 4abb
00000300: c3ee 313e 4595 e73e afa1 1a3e 6292 623e
00000310: 9731 bc3e 80b2 a33e c54b 21be 6d55 b6be
00000320: d4a8 de3c 22b3 773e 4802 9b3d e900 c8bd
00000330: 1289 583e 4ca2 933e b9a2 16be 7197 143d
00000340: ca64 573e f92c 52be 2424 c2bd 5066 dabe
00000350: 6f94 1e3d 363a b8be 109e bbbd 2a49 bf3d
00000360: b18f b43e 4fa2 8ebe c05c ac3e 3f3a 38be
00000370: 807a aebe 67b2 b73e 91c1 df3e c9a9 ec3b
00000380: d1f9 343e 6016 bdbb eeba c7be 1681 7c3e
00000390: eb78 de3e 9eeb 6dbe 5803 b93d 935d fbbd
000003a0: 6230 713e 7c33 8d3d e9b4 c53e e990 9b3e
000003b0: 1ce1 8fbe b40b df3e f94f cb3e 32f4 4d3e
000003c0: 5ce8 5abd f248 073e 1744 b73e 66b0 3c3e
000003d0: 9d0e 5c3d a51a a03e 5e8f 5d3e 9bc7 4ebe
000003e0: 6e79 be3e b9d5 33be bc67 a3be 2338 713e
000003f0: 064f bb3e 7bad b4be c52d 8b3e 92c2 bbbe

encoder.conv1.linear_r.W f4 [2, 32, 32]
-0.1305724 -0.24722023 0.1373712 -0.23094228 -0.0060484833 0.19233842 -0.14419413 -0.1102184
-0.17483895 0.064812064 0.037843928 0.106667444 -0.0061727315 -0.03595262 0.1484522 -0.095896184
-0.058936585 0.13171425 0.21842337 -0.062491477 -0.28052375 0.008640364 0.021258824 0.101021
0.1256241 0.019618079 -0.10824405 0.010684237 0.081616834 -0.034347028 -0.08768912 0.0153680695
-0.047441293 -0.14913641 0.111202 0.008214966 0.15126339 0.18950517 0.0060317107 -0.11490756
0.055133723 0.053530138 0.10575439 0.10714619 0.07924306 0.049306087 0.011820063 0.098833084
-0.13293196 0.09755551 0.11093952 0.08045386 -0.13047221 0.05077544 0.06417052 -0.13168432
-0.058729954 0.088210955 -0.12116782 -0.03614078 0.102801904 0.026434148 -0.12398488 0.10915428
-0.048523877 0.18366283 -0.011335066 0.08377858 0.049815055 -0.103520215 0.13917041 0.01796722
-0.058890924 0.10572549 0.049976006 0.12744217 -0.091788836 -0.034628406 0.13836671 0.09306601
-0.08541713 -0.0171244 -0.040417627 -0.017421722 0.13167772 0.014055967 -0.11148469 0.056039818
0.087172315 0.13507457 0.083642475 -0.15138656 0.09145932 0.14330971 0.097422786 -0.11530183
0.04920153 0.22346373 -0.020397287 -0.037699714 -0.18616845 -0.05074447 0.07324067 -0.05578305
0.032069482 0.104556635 0.0999334 0.15281944 0.009543186 -0.16088834 0.016881749 -0.0495628
0.05555206 0.064520024 0.009431822 0.028438468 -0.0921826 -0.06134539 0.11242726 -0.07171258
0.059722412 0.12442501 0.11203613 -0.08856007 0.07557882 0.050042804 -0.049690906 0.17768632
0.094652474 -0.28323978 0.05964387 -0.20509396 0.12735687 -0.10679023 0.18288489 -0.10277355
0.07939287 0.053315524 0.05926408 0.16647969 0.0455177 -0.14853072 -0.16735907 0.19780864
0.097216755 -0.027349789 -0.005864 0.08785914 -0.14137843 0.05440542 -0.0872848 0.1376452
0.0038900173 0.13569947 0.16299021 0.07852327 0.04548125 -0.21352649 0.0012601486 -0.08769993
-0.1195644 0.05616078 -0.11126006 -0.023531567 -0.04429269 -0.019483402 -0.061011437 0.077208824
0.22421657 0.15449181 -0.11923155 -0.16695203 0.14214155 -0.08968341 0.08716069 0.03226578
0.029110063 0.019325819 -0.20365 0.10073297 0.113400236 0.14550747 0.014551487 -0.10687643
0.16348992 0.16342996 0.090138465 -0.1490293 -0.09449934 -0.14994685 0.049917415 -0.012272163
0.07874515 0.055298172 0.11033337 -0.13327144 0.1348323 0.048395623 -0.080879584 -0.17114195
0.09834337 -0.0020439539 0.075482085 -0.08376692 0.15792595 -0.07937776 0.14875288 0.07827306
-0.1540667 -0.03605695 0.20458111 0.07192994 0.04056564 -0.07444227 -0.032427035 -0.0059444914
-0.03873767 0.07730208 0.17315505 0.07570455 -0.06120272 -0.13355397 -0.0021737148 0.04790582
0.11071379 -0.09799769 0.13805923 -0.050801035 0.044883776 0.1750083 -0.08106512 -0.09351229
-0.1306695 -0.039127953 -0.12289528 -0.15056694 0.030294592 -0.17867017 -0.023819044 -0.12397849
-0.055952605 -0.122233815 0.043580763 -0.20018594 -0.073986575 0.13480316 0.08234538 0.0007316299
0.09781135 -0.045917466 0.14688654 -0.03430012 -0.1027156 -0.0685212 -0.05731192 0.1522301
00000000: c5b4 05be 4d27 7dbe 09ab 0c3e 227c 6cbe
00000010: 5b32 c6bb 5df4 443e a0a7 13be 2fba e1bd
00000020: fb08 33be 30bc 843d 3c02 1b3d 7674 da3d
00000030: a044 cabb 0e43 13bd db03 183e 3865 c4bd
00000040: 7d67 71bd 1ae0 063e 60aa 5f3e 10f7 7fbd
00000050: cfa0 8fbe 5090 0d3c fc26 ae3c 19e4 ce3d
00000060: 9ba3 003e 18b6 a03c 0eaf ddbd f00c 2f3c
00000070: ba26 a73d 78af 0cbd 5a96 b3bd 5bca 7b3c
00000080: cd51 42bd 37b7 18be e0bd e33d 1198 063c
00000090: cae4 1a3e a50d 423e a8a5 c53b a854 ebbd
000000a0: e6d3 613d 6b42 5b3d c295 d83d 766f db3d
000000b0: 2f4a a23d 2ef5 493d f0a8 413c 0069 ca3d
000000c0: 511f 08be 2fcb c73d 4234 e33d fec4 a43d
000000d0: 829a 05be e8f9 4f3d d56b 833d 41d8 06be
000000e0: d28e 70bd f2a7 b43d d626 f8bd 5b08 14bd
000000f0: ce89 d23d 6d8c d83c c9eb fdbd 478c df3d
00000100: f9c0 46bd 1c12 3c3e b6b6 39bc 1b94 ab3d
00000110: df0a 4c3d 6802 d4bd b082 0e3e fe2f 933c
00000120: 9c37 71bd 9b86 d83d a4b3 4c3d 3380 023e
00000130: c9fb bbbd 84d6 0dbd 01b0 0d3e 6499 be3d
00000140: 2def aebd 7848 8cbc f48c 25bd 00b8 8ebc
00000150: 86d6 063e 004b 663c 1652 e4bd 028a 653d
00000160: 6687 b23d fd50 0a3e bf4c ab3d 1405 1bbe
00000170: 064f bb3d c8bf 123e 9985 c73d 5e23 ecbd
00000180: 8b87 493d add3 643e 3618 a7bc 046b 1abd
00000190: f1a2 3ebe 6fd9 4fbd 34ff 953d c47c 64bd
000001a0: 4a5b 033d ca21 d63d e2a9 cc3d b37c 1c3e
000001b0: 065b 1c3c eabf 24be 984b 8a3c 5d02 4bbd
000001c0: 8f8a 633d 1323 843d ee87 1a3c caf7 e83c
000001d0: 3bca bcbd 4e45 7bbd 4340 e63d 0cde 92bd
000001e0: 7d9f 743d 8ad2 fe3d 3373 e53d fb5e b5bd
000001f0: 12c9 9a3d aff9 4c3d b188 4bbd 67f3 353e
00000200: 28d9 c13d ce04 91be 214d 743d 2704 52be
00000210: d769 023e d6b4 dabd 2d46 3b3e f07a d2bd
00000220: bb98 a23d 6161 5a3d e4be 723d a779 2a3e
00000230: c570 3a3d 7018 18be 2d60 2bbe 598e 4a3e
00000240: 9419 c73d aa0c e0bc cc26 c0bb 7eef b33d
00000250: 82c5 10be 38d8 5e3d 60c2 b2bd ddf2 0c3e
00000260: a9ef 7e3b cdf4 0a3e e8e6 263e cfd0 a03d
00000270: 8c4a 3a3d b0a6 5abe 922b a53a 059c b3bd
00000280: 2ede f4bd d908 663d 50dc e3bd 46c5 c0bc
00000290: 406c 35bd a89b 9fbc 21e7 79bd a91f 9e3d
000002a0: 0799 653e 1a33 1e3e ac2f f4bd 79f5 2abe
000002b0: 8e8d 113e f0ab b7bd 4e81 b23d 1f29 043d
000002c0: 3a78 ee3c 2e51 9e3c a089 50be 164d ce3d
000002d0: 623e e83d e9ff 143e 5c69 6e3c 08e2 dabd
000002e0: e769 273e 2f5a 273e 849a b83d 239b 18be
000002f0: df88 c1bd ab8b 19be 3476 4c3d 2f11 49bc
00000300: 2345 a13d 5680 623d 76f6 e13d 4f78 08be
00000310: 7a11 0a3e 7d3a 463d 32a4 a5bd d63f 2fbe
00000320: 4068 c93d dbf3 05bb 5a96 9a3d fe8d abbd
00000330: 57b7 213e cf90 a2bd ad52 183e a04d a03d
00000340: a9c3 1dbe 74b0 13bd b67d 513e 0150 933d
00000350: 2828 263d 3075 98bd 36d2 04bd 02ca c2bb
00000360: 64ab 1ebd 8e50 9e3d 8f4f 313e fd0a 9b3d
00000370: b4af 7abd 5fc2 08be e274 0ebb e538 443d
00000380: e9bd e23d 03b3 c8bd 665f 0d3e bf14 50bd
00000390: 0dd8 373d 6035 333e 7805 a6bd 5f83 bfbd
000003a0: 3ace 05be a244 20bd 85b0 fbbd 382e 1abe
000003b0: 5d2c f83c 50f5 36be 2820 c3bc 6fe8 fdbd
000003c0: 8f2e 65bd b955 fabd be81 323d 8bfd 4cbe
000003d0: 4686 97bd d709 0a3e b2a4 a83d daca 3f3a
000003e0: 5151 c83d f413 3cbd 6d69 163e 487e 0cbd
000003f0: 8e5c d2bd d854 8cbd e7bf 6abd 35e2 1b3e

encoder.conv2.h_bias f4 [32]
-0.031762894 -0.04655195 -0.09687521 0.085906036 -0.04742571 0.028037328 -0.07744714 -0.032135252
0.10389798 -0.038053513 0.040041182 0.030498516 -0.011181272 0.020421073 0.029522784 -0.040368345
-0.0043420363 -0.034068175 0.11270208 0.07718491 -0.01096236 0.020956203 0.035660673 0.055985
0.07554448 -0.024923233 0.035137527 -0.043641917 0.04228375 -0.031276144 -0.09825887 0.059542906
00000000: cf19 02bd 42ad 3ebd 8366 c6bd 81ef af3d
00000010: 7641 42bd 8aae e53c 9b9c 9ebd 41a0 03bd
00000020: 77c8 d43d 00de 1bbd 3902 243d 06d8 f93c
00000030: a731 37bc 184a a73c c4d9 f13c 4759 25bd
00000040: a447 8ebb 128b 0bbd 59d0 e63d 1f13 9e3d
00000050: 789b 33bc 58ac ab3c ed10 123d 8750 653d
00000060: 10b7 9a3d cf2b ccbc 5eec 0f3d dec1 32bd
00000070: ba31 2d3d 6a1b 00bd f23b c9bd 43e3 733d

encoder.conv2.loop_weight f4 [32, 32]
-0.090311326 -0.0456224 -0.2625356 0.14972664 -0.16157141 0.104938306 -0.3387433 -0.4353647
0.2708481 -0.09436539 0.3143846 0.3759863 0.20257431 -0.09384702 -0.27280325 -0.18585996
0.43848115 0.16856241 0.2685165 0.11468254 0.083182715 -0.480228 0.16475707 -0.11092549
0.20541762 0.04764923 -0.3059437 0.31363016 -0.3005303 0.12984411 -0.30964997 0.09207579
0.31056666 -0.34892198 -0.13692635 -0.01222933 -0.3910459 -0.12904142 -0.44245782 -0.0986876
0.23315096 0.36880586 -0.24668284 0.38014203 -0.2135034 -0.05828611 0.37664434 0.36625344
0.07477381 -0.20985427 -0.18253258 -0.012511788 -0.05953211 0.0040160487 0.24660622 -0.17968874
0.21228762 -0.43901977 0.2754823 0.14502558 0.038633212 -0.15095305 0.0025595396 0.36012536
-0.20229372 0.053231757 0.25558463 -0.08504098 0.26452598 -0.12936482 0.25948003 0.0421588
0.012768171 0.07634119 -0.22256681 -0.0022214432 0.1890814 0.1083345 0.07394653 -0.023683138
0.28256446 0.056646798 -0.23569742 0.24015042 0.19476937 0.3294565 0.13258834 0.19489232
-0.3521842 -0.15828052 0.13537979 0.20127188 -0.37068292 -0.12578255 0.30142212 -0.26957706
-0.3641298 -0.111601986 0.026327288 0.341463 0.06363816 -0.03651247 0.008909943 -0.4333352
-0.053913068 0.24628977 0.18021117 0.14994952 0.3063335 -0.32229608 0.14949274 -0.0860197
-0.3777923 -0.47052073 0.24947491 0.12902889 -0.3630849 0.079237305 -0.3154753 0.13249764
0.51134944 -0.039616153 -0.21052814 0.12871774 0.26371413 0.13150807 -0.084664285 -0.086426966
0.121868126 -0.012376099 0.2379638 0.11988695 0.34368938 -0.28347173 0.10410811 -0.34436676
0.39122662 0.094752505 -0.3528762 0.2077365 0.2733181 -0.21139094 0.30948433 -0.14716531
0.46017554 -0.01704192 0.26387534 0.35048753 -0.4226168 0.2925529 -0.34431726 0.26648787
-0.041409362 -0.26714545 0.057666134 -0.22963282 -0.27820417 -0.28929183 0.21894807 0.14228374
0.4166348 -0.077818036 0.1359251 0.33103934 -0.35742933 0.067797214 -0.4534974 -0.04034366
-0.36045504 0.2724454 0.1492087 -0.31657675 -0.06577883 0.27228382 0.10612825 0.29737
-0.36940897 0.044304695 -0.19185609 0.28505248 -0.30897215 0.10264641 0.095566295 -0.3066633
-0.32954794 0.012114553 -0.04469658 -0.26873544 -0.4506428 -0.30527416 -0.3194641 0.18548702
0.32150933 -0.105323344 0.23567198 -0.4135582 0.28714097 -0.30711126 0.38147092 0.28845367
0.17047031 0.22200479 -0.045414306 0.39040264 -0.21605523 -0.13222252 0.20421337 0.28190196
0.102696545 -0.16334252 -0.23346779 -0.43585965 0.39668164 -0.2474017 0.2835826 -0.39276448
0.22394897 0.040339522 0.24676919 0.15666053 -0.28760788 0.18310055 0.037283335 0.030454135
0.008231341 0.2987348 0.17157653 0.036687855 0.057577018 -0.33500525 -0.4748507 0.17957538
-0.32500064 -0.25359833 0.31363907 0.38772455 -0.10268991 -0.38338238 -0.13906631 -0.32758042
-0.30129743 0.35396805 0.40325627 0.30560297 0.26092657 0.00081515935 0.20572947 -0.16709125
-0.29940614 -0.42747217 0.36145705 0.2494039 0.19572428 0.4074653 -0.21924348 -0.24227056
00000000: 25f5 b8bd 8ede 3abd 116b 86be f151 193e
00000010: fa72 25be e5e9 d63d c36f adbe 1fe8 debe
00000020: 9aac 8a3e a442 c1bd 05f7 a03e 4781 c03e
00000030: a46f 4f3e de32 c0bd deac 8bbe 1352 3ebe
00000040: 9a80 e03e a09b 2c3e ff7a 893e aede ea3d
00000050: b35b aa3d 72e0 f5be 14b6 283e e72c e3bd
00000060: ff58 523e d72b 433d a7a4 9cbe 2294 a03e
00000070: 1cdf 99be dbf5 043e 718a 9ebe 3b92 bc3d
00000080: 9802 9f3e e7a5 b2be 6c36 0cbe 875d 48bc
00000090: 2b37 c8be 6f23 04be d589 e2be b91c cabd
000000a0: 20bf 6e3e 1fd4 bc3e 6d9a 7cbe faa1 c23e
000000b0: a3a0 5abe 6bbd 6ebd 87d7 c03e 9285 bb3e
000000c0: 0323 993d 0ae4 56be d2e9 3abe 3efe 4cbc
000000d0: f1d7 73bd 0f99 833b 5786 7c3e 5300 38be
000000e0: ed61 593e 33c7 e0be 040c 8d3e 9681 143e
000000f0: dc3d 1e3d 7093 1abe f3bd 273b 5a62 b83e
00000100: 1626 4fbe 8b09 5a3d fddb 823e f729 aebd
00000110: f36f 873e 3678 04be 91da 843e b5ae 2c3d
00000120: 9731 513c c558 9c3d 8ee8 63be a295 11bb
00000130: 8e9e 413e 7ade dd3d 4771 973d 2403 c2bc
00000140: 4aac 903e 7906 683d aa5a 71be fee9 753e
00000150: 9f71 473e 86ae a83e 3dc5 073e da91 473e
00000160: 7d51 b4be 4a14 22be 00a1 0a3e 371a 4e3e
00000170: 27ca bdbe 24cd 00be 0054 9a3e 0106 8abe
00000180: 396f babe 958f e4bd 53ac d73c 3dd4 ae3e
00000190: b954 823d 1a8e 15bd 02fb 113c 1dde ddbe
000001a0: f3d3 5cbd 6333 7c3e 4789 383e 5e8c 193e
000001b0: bfd7 9c3e fe03 a5be a014 193e 192b b0bd
000001c0: fe6d c1be 18e8 f0be 5a76 7f3e 2620 043e
000001d0: 44e6 b9be 2b47 a23d fb85 a1be 76ad 073e
000001e0: cce7 023f 8c44 22bd b094 57be 95ce 033e
000001f0: 8a05 873e 0daa 063e 7864 adbd 9f00 b1bd
00000200: ff95 f93d 1fc5 4abc c8ac 733e 4a87 f53d
00000210: 0ef8 af3e 3523 91be a236 d53d d750 b0be
00000220: db4e c83e 9a0d c23d 30ac b4be e1b8 543e
00000230: 5af0 8b3e de76 58be bb74 9e3e 81b2 16be
00000240: 219c eb3e 7f9b 8bbc ab1a 873e 1a73 b33e
00000250: 3b61 d8be 7ec9 953e 5a4a b0be 1971 883e
00000260: dd9c 29bd 4ac7 88be 5333 6c3d de24 6bbe
00000270: c770 8ebe 0f1e 94be ec33 603e d4b2 113e
00000280: 2851 d53e 105f 9fbd f32f 0b3e fd7d a93e
00000290: fa00 b7be 44d9 8a3d d030 e8be 653f 25bd
000002a0: 908d b8be f77d 8b3e 2aca 183e 5916 a2be
000002b0: 0db7 86bd c968 8b3e c559 d93d e140 983e
000002c0: 2c23 bdbe d778 353d ec75 44be 66f2 913e
000002d0: 9931 9ebe 4838 d23d 43b8 c33d f902 9dbe
000002e0: 82ba a8be 1e7c 463c c313 37bd b197 89be
000002f0: a7ba e6be e54c 9cbe cc90 a3be 4ff0 3d3e
00000300: df9c a43e c4b3 d7bd ff53 713e e6bd d3be
00000310: 2404 933e b03d 9dbe 2850 c33e 33b0 933e
00000320: c58f 2e3e 3955 633e 5a04 3abd dbe2 c73e
00000330: 953d 5dbe 5765 07be 4f1d 513e 7455 903e
00000340: 9152 d23d 4343 27be 2e12 6fbe ff28 dfbe
00000350: db19 cb3e df56 7dbe bd31 913e 6d18 c9be
00000360: e152 653e 0e3b 253d 10b1 7c3e 9e6b 203e
00000370: 5741 93be b67e 3b3e 69b6 183d f37a f93c
00000380: bfdc 063c c5f3 983e c2b1 2f3e 0146 163d
00000390: e1d5 6b3d cf85 abbe a21f f3be 9ce2 373e
000003a0: 7c66 a6be a4d7 81be 4d95 a03e d583 c63e
000003b0: 164f d2bd b24a c4be 6667 0ebe 9fb8 a7be
000003c0: a843 9abe 4d3b b53e 9b77 ce3e fe77 9c3e
000003d0: 2b98 853e 6bb0 553a bfaa 523e f819 2bbe
000003e0: c34b 99be a2dd dabe e610 b93e bc63 7f3e
000003f0: f26b 483e 4b9f d03e 5d81 60be c615 78be

encoder.conv2.linear_r.W f4 [2, 32, 32]
-0.0043350947 -0.068795465 0.014896709 -0.058145158 0.054841146 -0.11102948 -0.13891245 -0.06518948
0.043036293 0.011984549 -0.056962095 0.18310829 0.15191539 -0.07975956 0.2366269 0.10946343
-0.018831141 0.10349556 -0.0931766 0.025665324 -0.11505145 -0.13309294 0.07366496 -0.04570741
-0.030818723 0.02131491 -0.079470925 0.0011053829 0.12414456 -0.09299148 0.064075254 0.029092155
-0.113156475 -0.13551939 -0.031879988 0.16493696 -0.0692268 0.2163837 0.06775262 0.061111268
0.12449697 0.0008517814 -0.0027918157 -0.049836557 -0.1772801 0.027568331 0.1897629 -0.16879357
0.040964693 0.029994743 -0.067578554 -0.06514736 0.15611772 -0.08510149 0.1896456 -0.11115156
0.09066772 -0.042882837 0.13302581 -0.21264343 -0.032805067 -0.10636978 0.006056646 0.19946039
0.02543671 -0.07097256 -0.11118022 -0.024282968 -0.122694135 -0.04821638 -0.03810194 -0.16645955
0.0087537635 -0.16557355 0.13539407 0.13349688 -0.09510299 -0.044998873 -0.04558516 0.034997556
-0.08557464 0.06939998 0.04795645 0.07446333 0.025706613 0.029597782 0.0648283 0.04164595
0.034175504 -0.14729875 0.09991358 0.060156755 0.03209194 0.0815419 0.14841802 0.14019276
0.05563729 -0.0077644023 -0.17516358 -0.036938243 -0.17151164 -0.011899207 -0.2510413 -0.11081381
0.16858591 -0.00020993261 -0.18672499 0.05475415 0.10128831 0.14383985 -0.13635156 0.065598466
-0.1098697 -0.109684095 0.12967962 -0.12646115 -0.18507516 -0.019340007 0.05824167 -0.027959095
0.15704732 0.038983587 -0.045484662 0.03853807 0.0979016 -0.15733364 -0.0648294 0.13944294
0.061712235 0.13713802 -0.09872912 0.024643943 -0.0537607 0.06899831 -0.012777902 0.073206775
-0.0892615 0.07841208 -0.07531659 -0.0839421 0.037762858 0.113223106 -0.10382394 -0.09153947
-0.004321841 0.14383036 -0.08660428 -0.18862918 0.1467905 0.0712198 -0.03950941 0.13545465
0.2005408 0.107749656 -0.111782916 0.037054885 -0.074440375 0.13280064 0.008885897 -0.09744551
0.029566545 0.09052872 0.14107661 -0.15105443 -0.048631303 0.06700419 -0.1524222 -0.13493836
0.02391179 -0.10806134 -0.1076301 -0.09924627 0.03560612 -0.17263012 -0.06870653 0.04502974
-0.10993841 0.17159802 -0.12132132 0.12902959 -0.16081116 -0.09614714 -0.110699445 0.13300575
0.11352904 0.12031874 0.16767684 0.18144354 -0.14701487 0.055750057 0.04169632 0.05080283
-0.11225333 0.13670841 -0.1036705 -0.034841165 -0.025481662 0.05784041 -0.11643256 0.070300266
-0.05262742 0.029698823 -0.022666274 0.12889099 -0.11502648 0.1347216 0.08522481 0.08990966
0.097187005 -0.0212829 -0.07197748 0.09762688 0.118796885 -0.10374044 -0.14964956 0.111469105
-0.14340629 0.021347383 0.052106686 -0.025772704 0.14249624 0.123814546 0.05410408 -0.09044542
-0.12708515 0.08274992 0.0940326 0.1868103 0.11541881 0.15025426 0.06718978 0.078778975
0.09545802 0.037544776 -0.114106975 0.04879624 -0.023430899 0.12916715 -0.16803049 -0.0109784
-0.09965429 0.1069074 -0.060376085 0.0062784743 0.13323103 0.100005515 0.063427955 -0.05241166
0.024597242 0.0338175 0.06491279 0.036930576 0.11541982 0.077865325 0.022003984 0.010405046
00000000: 690d 8ebb a3e4 8cbd 5311 743c 9e29 6ebd
00000010: 1ca1 603d 6d63 e3bd 113f 0ebe 1082 85bd
00000020: d346 303d d85a 443c 1651 69bd bd80 3b3e
00000030: b58f 1b3e fb58 a3bd 524e 723e 5d2e e03d
00000040: c443 9abc 7bf5 d33d 60d3 bebd 1640 d23c
00000050: 18a0 ebbd 8449 08be a8dd 963d b137 3bbd
00000060: 8c77 fcbc 9b9c ae3c a7c1 a2bd 7fe2 903a
00000070: 813f fe3d 5172 bebd e339 833d ac52 ee3c
00000080: 95be e7bd 98c5 0abe 9794 02bd 3ce5 283e
00000090: c8c6 8dbd b093 5d3e e3c1 8a3d cf4f 7a3d
000000a0: 44f8 fe3d 154a 5f3a e5f6 36bb 6b21 4cbd
000000b0: ea88 35be fbd6 e13c 3551 423e 39d8 2cbe
000000c0: 98ca 273d 89b7 f53c a066 8abd fb6b 85bd
000000d0: 53dd 1f3e b149 aebd 7532 423e 6ea3 e3bd
000000e0: ffaf b93d eaa5 2fbd eb37 083e 33bf 59be
000000f0: 9b5e 06bd 66d8 d9bd d476 c63b 583f 4c3e
00000100: a660 d03c 105a 91bd 75b2 e3bd 13ed c6bc
00000110: 1047 fbbd 8a7e 45bd c810 1cbd 5f74 2abe
00000120: f26b 0f3c 1d8c 29be bea4 0a3e 68b3 083e
00000130: 5bc5 c2bd bd50 38bd 81b7 3abd 9959 0f3d
00000140: c241 afbd 9421 8e3d fc6d 443d 3b80 983d
00000150: ad96 d23c 0c77 f23c b3c4 843d f294 2a3d
00000160: 9dfb 0b3d 7cd5 16be 7e9f cc3d ee66 763d
00000170: d772 033d 71ff a63d e5fa 173e b18e 0f3e
00000180: ede3 633d 876c febb 155e 33be 8e4c 17bd
00000190: bfa0 2fbe e4f4 42bc 7c88 80be 5af2 e2bd
000001a0: c9a1 2c3e 5b21 5cb9 d634 3fbe e345 603d
000001b0: 3f70 cf3d c14a 133e be9f 0bbe 7d58 863d
000001c0: 5e03 e1bd 0ea2 e0bd bcca 043e 087f 01be
000001d0: 5884 3dbe ef6e 9ebc d18e 6e3d 790a e5bc
000001e0: 03d1 203e 41ad 1f3d 204e 3abd 18da 1d3d
000001f0: a280 c83d 121c 21be 47c5 84bd 21ca 0e3e
00000200: f8c5 7c3d e96d 0c3e 7e32 cabd 18e2 c93c
00000210: 2e34 5cbd fc4e 8d3d 685a 51bc 6fed 953d
00000220: bcce b6bd 8396 a03d 963f 9abd d6e9 abbd
00000230: 3aad 1a3d 84e1 e73d a5a1 d4bd 0c79 bbbd
00000240: 3b9e 8dbb 4448 133e 965d b1bd 0228 41be
00000250: 4050 163e b0db 913d 9ed4 21bd a0b4 0a3e
00000260: 915a 4d3e daab dc3d 71ee e4bd ddc6 173d
00000270: 3274 98bd e4fc 073e 2796 113c 8391 c7bd
00000280: 8a35 f23c 1f67 b93d 6376 103e 03ae 1abe
00000290: 9e31 47bd 7e39 893d 9114 1cbe 482d 0abe
000002a0: a9e2 c33c 444f ddbd 2b6d dcbd a141 cbbd
000002b0: b9d7 113d f3c5 30be 02b6 8cbd 1b71 383d
000002c0: 6427 e1bd 64b7 2f3e 5077 f8bd 5520 043e
000002d0: aeab 24be cbe8 c4bd 64b6 e2bd a932 083e
000002e0: ea81 e83d ac69 f63d 7ab3 2b3e 56cc 393e
000002f0: 118b 16be 2c5a 643d c3c9 2a3d a116 503d
00000300: 13e5 e5bd 4afd 0b3e 3351 d4bd 9cb5 0ebd
00000310: ebbe d0bc 11ea 6c3d 3274 eebd 96f9 8f3d
00000320: d98f 57bd f24a f33c 9fae b9bc 00fc 033e
00000330: 0193 ebbd 76f4 093e 588a ae3d 8e22 b83d
00000340: fb09 c73d 7a59 aebc ee68 93bd 9af0 c73d
00000350: c84b f33d de75 d4bd bc3d 19be ea49 e43d
00000360: 19d9 12be b5e0 ae3c d26d 553d 4721 d3bc
00000370: 89ea 113e 7b92 fd3d 3d9c 5d3d 733b b9bd
00000380: 9c22 02be ca78 a93d 2a94 c03d 334b 3f3e
00000390: b260 ec3d 41dc 193e cc9a 893d df56 a13d
000003a0: 7f7f c33d 8dc8 193d ebb0 e9bd 91de 473d
000003b0: 28f2 bfbc 6544 043e 2f10 2cbe bfde 33bc
000003c0: 8c17 ccbd 44f2 da3d ea4c 77bd a9bb cd3b
000003d0: b76d 083e b1cf cc3d 84e6 813d 9cad 56bd
000003e0: 2880 c93c 3884 0a3d fff0 843d 8444 173d
000003f0: 3a61 ec3d db77 9f3d b341 b43c ed79 2a3c

decoder.shift_attention_embedding.weight f4 [32, 32]
-0.06146194 0.04577655 0.16298415 -0.103421874 -0.04304085 -0.20183529 0.16009644 -0.073375605
-0.043304376 -0.103071615 -0.005179903 -0.12449298 -0.14063796 0.008327029 -0.06100856 0.08467262
-0.041306484 -0.012887174 -0.085493036 0.067166366 0.019112965 -0.0824101 -0.08729948 -0.071190394
-0.046374302 0.111268006 -0.1590058 0.14819376 -0.00026416403 0.13700943 -0.08305411 -0.2230218
-0.08636237 -0.24576244 -0.20390676 -0.14946894 -0.100330696 0.08375584 0.05676525 -0.22559722
0.0054694763 0.101271726 -0.18431464 -0.2336824 0.110576294 -0.11786222 0.056783605 0.04663722
-0.09977003 -0.0842856 0.053825513 -0.09395171 0.028540349 -0.09672254 0.17406172 0.10464814
0.18411727 0.05328161 0.14829244 -0.11015901 0.0785617 0.028337609 -0.04688933 0.16811658
0.15315768 0.19337122 0.04982008 0.0020782745 0.08709989 -0.1203052 0.024404414 -0.056090508
0.03744167 0.19839817 0.14144394 -0.066739574 -0.0059296284 -0.118793786 0.14646804 0.11269321
-0.12149372 -0.1701625 -0.16935661 0.059901454 -0.20523648 0.18418507 0.11471976 0.06410653
-0.088470966 -0.093580425 0.03615555 0.14188641 -0.18667136 0.09152835 -0.026720472 -0.19057807
0.09135378 0.12654793 0.13585989 0.10797931 -0.070811234 -0.14981955 -0.038640827 -0.11197856
-0.0412542 0.15361527 -0.101970606 0.19511655 0.030301834 0.045793347 -0.02845021 -0.034534846
-0.054372735 -0.11889567 0.12425642 0.029476002 -0.11289633 -0.015785448 0.0007258438 0.19173029
-0.022087565 -0.11353104 -0.031730507 0.19653107 -0.07543155 -0.05602594 0.053946476 0.057771776
0.10431336 -0.13597576 -0.15510987 0.0014015696 0.09593445 -0.045789286 -0.12061931 -0.086611524
0.10070092 0.09834835 0.029051065 -0.004140874 0.024631811 -0.044389658 -0.0674778 -0.07987988
-0.07117221 0.027187066 0.13259569 -0.09915187 0.11180733 0.11341497 -0.13749413 -0.046119697
0.17426556 -0.16709104 0.109250374 -0.029946253 0.00464431 -0.0066141025 0.15658215 -0.1208283
-0.17103966 -0.05375228 -0.001958691 0.009152902 -0.07975875 0.019136885 0.049108222 -0.23315884
0.22211184 0.1070259 -0.06739827 -0.011246499 0.120998144 -0.026575407 -0.04443883 0.051557515
-0.1487677 0.21236362 0.15276477 0.09514559 0.18463947 0.034342714 0.026336098 0.0008436993
0.15655549 -0.1928977 0.12604493 -0.052935526 0.07165718 -0.21160147 -0.12794897 0.056067128
0.10372106 -0.18963213 0.049334683 -0.086406656 -0.06689392 0.09635533 0.08125015 -0.047747716
-0.08777196 -0.12042755 0.04227207 -0.043623522 -0.024392087 0.07427837 -0.040629964 -0.12802176
0.054306965 -0.05634036 0.18585303 -0.043601997 -0.003553615 0.0551873 0.071250305 0.100503884
0.11368641 -0.1213934 0.1234224 -0.15306717 0.041014478 -0.19945216 0.062882245 0.084753424
-0.07845887 -0.13554354 -0.028766425 -0.0238584 -0.06169394 0.05513683 0.0967521 -0.20468983
-0.06896476 0.07264514 -0.11374605 0.06654948 -0.07663121 0.034537267 0.0631384 -0.15190816
-0.05192605 0.093085 0.011776954 -0.16642132 0.040298495 -0.21992964 -0.015215744 -0.034161165
-0.06219093 0.011930729 0.044948265 0.004929796 0.09756382 -0.17677484 0.09949235 0.2229659
00000000: 84bf 7bbd 3180 3b3d 51e5 263e d9ce d3bd
00000010: 9a4b 30bd e9ad 4ebe 52f0 233e f345 96bd
00000020: ee5f 31bd 3617 d3bd 2dbc a9bb 2df6 febd
00000030: 6603 10be 176e 083c 1de4 79bd d768 ad3d
00000040: fd30 29bd ba24 53bc f916 afbd 858e 893d
00000050: cb92 9c3c a0c6 a8bd 12ca b2bd 45cc 91bd
00000060: fbf2 3dbd 7be0 e33d 6bd2 22be 1bc0 173e
00000070: 7f7f 8ab9 334c 0c3e 4618 aabd d45f 64be
00000080: c1de b0bd 26a9 7bbe efcc 50be 630e 19be
00000090: 2e7a cdbd 2f88 ab3d ae82 683d f502 67be
000000a0: 4b39 b33b 8d67 cf3d fabc 3cbe 704a 6fbe
000000b0: d375 e23d bf61 f1bd ed95 683d ab06 3f3d
000000c0: 3b54 ccbd ee9d acbd 2478 5c3d c169 c0bd
000000d0: 73cd e93c 7816 c6bd 3c3d 323e c451 d63d
000000e0: 3d89 3c3e d13d 5a3d f9d9 173e 0c9b e1bd
000000f0: f5e4 a03d 4624 e83c 070f 40bd c126 2c3e
00000100: 5ed5 1c3e 1b03 463e 2410 4c3d a933 083b
00000110: 6d61 b23d 9362 f6bd c4eb c73c 29bf 65bd
00000120: 705c 193d e428 4b3e aed6 103e c2ae 88bd
00000130: 544d c2bb 284a f3bd b8fb 153e b3cb e63d
00000140: b3d1 f8bd 143f 2ebe d26b 2dbe 3a5b 753d
00000150: 8329 52be 039b 3c3e 32f2 ea3d 494a 833d
00000160: 4430 b5bd 18a7 bfbd d817 143d ac4a 113e
00000170: c726 3fbe 3773 bb3d e4e4 dabc e626 43be
00000180: b117 bb3d c895 013e db1e 0b3e 4224 dd3d
00000190: 7b05 91bd 4c6a 19be d845 1ebd 0455 e5bd
000001a0: 2afa 28bd 524d 1d3e f7d5 d0bd a2cc 473e
000001b0: 8d3b f83c ce91 3b3d 6a10 e9bc 6974 0dbd
000001c0: f2b5 5ebd 937f f3bd 267a fe3d a877 f13c
000001d0: 3136 e7bd 7c50 81bc 8e46 3e3a f254 443e
000001e0: fbf0 b4bc f682 e8bd d9f7 01bd 713f 493e
000001f0: db7b 9abd 757b 65bd fbf6 5c3d 19a2 6c3d
00000200: 3ea2 d53d 3b3d 0bbe 1fd5 1ebe dfb4 b73a
00000210: 4879 c43d 8c8d 3bbd 4207 f7bd 6261 b1bd
00000220: 493c ce3d dc6a c93d 80fc ed3c 2bb0 87bb
00000230: a7c8 c93c eed1 35bd cd31 8abd 1098 a3bd
00000240: bcc2 91bd 69b7 de3c 2ac7 073e 2310 cbbd
00000250: 3efb e43d 1c46 e83d 43cb 0cbe 02e8 3cbd
00000260: ac72 323e ea19 2bbe a9be df3d d851 f5bc
00000270: 4c2f 983b 1dbb d8bb 1257 203e d474 f7bd
00000280: 0525 2fbe 5a2b 5cbd 625d 00bb 0ef6 153c
00000290: 8e58 a3bd f5c4 9c3c b425 493d 31c1 6ebe
000002a0: 4971 633e 6530 db3d 1b08 8abd 3c43 38bc
000002b0: e0cd f73d abb4 d9bc 7e05 36bd f92d 533d
000002c0: 8f56 18be d975 593e 5e6e 1c3e b1db c23d
000002d0: 2112 3d3e f2aa 0c3d cdbe d73c b42b 5d3a
000002e0: 1550 203e fa86 45be ec11 013e ecd2 58bd
000002f0: 00c1 923d 0eae 58be 0e05 03be a5a6 653d
00000300: b56b d43d ed2e 42be 2a13 4a3d f9f5 b0bd
00000310: aeff 88bd f155 c53d 7b66 a63d 1c93 43bd
00000320: c9c1 b3bd b8a2 f6bd 7a25 2d3d 94ae 32bd
00000330: ead1 c7bc 421f 983d 9b6b 26bd 2318 03be
00000340: fb70 5e3d 26c5 66bd 4250 3e3e 0298 32bd
00000350: c4e3 68bb 140c 623d aeeb 913d fbd4 cd3d
00000360: 6cd4 e83d 1a9d f8bd e2c4 fc3d a4bd 1cbe
00000370: ccfe 273d 303d 4cbe 68c8 803d 3493 ad3d
00000380: 0baf a0bd edcb 0abe 91a7 ebbc b172 c3bc
00000390: c9b2 7cbd 28d7 613d f725 c63d 369a 51be
000003a0: 653d 8dbd fac6 943d b0f3 e8bd 184b 883d
000003b0: d3f0 9cbd f376 0d3d b54e 813d d08d 1bbe
000003c0: 69b0 54bd 59a3 be3d 20f4 403c 5a6a 2abe
000003d0: 0910 253d 3c35 61be 754b 79bc 94ec 0bbd
000003e0: ebbb 7ebd 1b79 433c ac1b 383d 208a a13b
000003f0: 8acf c73d 7704 35be a5c2 cb3d 2c51 643e

decoder.shift_attention_embedding.bias f4 [32]
0.066500686 -0.005327027 -0.11911278 -0.038010955 0.09154352 0.13387778 0.24865803 0.18706919
0.16605005 0.12803923 0.12287058 0.094784796 -0.1773148 0.17181127 -0.055171475 -0.067997836
-0.061783582 -0.20222718 -0.12998077 0.0073405653 -0.069652714 -0.04740288 -0.10992277 -0.07547453
-0.0437626 -0.029201861 0.17694889 0.05088842 0.1424501 -0.16738921 0.016003124 -0.053701334
00000000: 8331 883d 578e aebb 67f1 f3bd 60b1 1bbd
00000010: 2b7b bb3d 4217 093e 36a0 7e3e 118f 3f3e
00000020: 0609 2a3e b71c 033e 92a3 fb3d 881e c23d
00000030: 0392 35be 4bef 2f3e 7cfb 61bd 7342 8bbd
00000040: c810 7dbd a414 4fbe ae19 05be 2089 f03b
00000050: 15a6 8ebd 8629 42bd 301f e1bd 6492 9abd
00000060: 6940 33bd be38 efbc 1732 353e 6070 503d
00000070: 70de 113e 1468 2bbe fc18 833c eef5 5bbd

decoder.worker_attention_embedding.weight f4 [32, 32]
-0.014037441 -0.18055241 0.11137249 -0.12893327 -0.029566586 0.09461887 -0.08986064 -0.049994554
0.10061686 0.091995396 0.11542855 0.19867715 -0.05177957 -0.17336087 -0.17718562 -0.13280739
-0.09060447 -0.18244971 0.16773449 -0.12851523 -0.19253841 0.19963689 0.17463478 -0.10296608
0.06628378 -0.009487372 -0.049099002 0.05119284 0.03403853 -0.08441035 0.019301804 0.05124636
0.0424016 0.20696774 0.02435125 -0.09378664 -0.15649085 0.0069049243 0.25692198 -0.1384317
0.08201186 -0.08321874 0.11135405 -0.009521894 -0.12433294 -0.056679342 -0.072097264 0.10898916
0.0763318 -0.044541184 -0.03196636 -0.042732812 0.17766723 0.051163375 0.03308415 0.26782137
-0.20982268 0.0214432 0.007595706 -0.029194264 0.1839016 0.09621161 -0.17018676 0.112658955
-0.019199088 -0.179085 0.061631374 0.079859875 0.07711976 0.14584403 -0.01780564 0.06500767
-0.022214033 -0.16424266 -0.22011301 -0.074008666 -0.12832235 -0.11821073 0.058777876 -0.006269228
0.043079596 -0.12561941 0.20031878 -0.10794013 -0.21788305 0.037688162 0.04829555 -0.08164743
0.19230193 -0.1551303 -0.11911067 0.044599336 -0.19731818 0.022147272 -0.047169767 0.06418449
-0.0031112693 0.037209656 -0.11011308 -0.15820353 0.11591769 0.039708935 -0.08694211 0.014506529
0.08747053 -0.09951564 0.21064061 0.14150591 -0.068291426 0.034674082 0.0026103954 -0.12645079
-0.15427648 -0.023301667 0.053067286 -0.04621791 -0.117280245 0.01775433 -0.116541 -0.040473007
-0.0573139 0.11885545 -0.07771766 -0.006791765 0.05918453 -0.073755726 0.028797649 -0.18549857
-0.15037982 -0.17943928 0.099841334 -0.04871613 0.042586904 0.08686591 -0.09112676 -0.08629533
0.064327955 0.19466117 -0.074296646 0.079759836 -0.021841003 -0.039850514 -0.047716413 0.02304604
0.11648422 -0.117815994 0.009650315 -0.14587697 0.12474043 -0.05533479 0.11404925 0.092315674
0.1072564 -0.001549369 0.040194526 -0.079521544 -0.02792509 -0.075796254 -0.12185289 0.21057272
0.052081034 -0.014687972 0.031460576 -0.1860082 -0.11630397 -0.07589173 0.026427038 0.040135752
-0.12593429 0.10269021 0.030537799 -0.16009092 -0.11528509 -0.04494751 0.035829682 -0.0986161
0.23167466 0.22996421 -0.1739616 -0.07864964 0.21008776 0.013475351 0.010567899 0.08499432
-0.02280526 -0.08629389 0.048612047 0.09454744 0.20076378 0.13991861 -0.108962335 -0.023134097
-0.010735248 0.06141703 0.100821726 -0.08075949 0.13604699 -0.008261219 -0.0931198 -0.07133043
0.17074604 0.116616786 0.11099546 -0.2147253 -0.13049617 -0.06032209 0.18695949 -0.18240725
0.051644832 0.14322187 0.12593266 0.13010618 -0.08691971 0.084191844 -0.09236478 -0.012775812
0.0025867089 0.13955133 -0.11646807 0.11718368 0.076913565 -0.06079559 0.08164443 -0.004238012
-0.011624315 0.088595755 0.19646922 -0.10117346 0.121286996 0.057866618 -0.037277367 -0.17006743
0.1320916 -0.040444437 0.18501961 -0.14134091 0.048544742 0.0533186 -0.06965891 0.17541507
0.07741509 0.113623254 -0.13407978 0.18719126 -0.09823919 -0.07997041 -0.0924741 -0.12658456
-0.08117302 0.15193282 0.21680595 -0.097837694 0.008869527 -0.021569226 0.07008718 -0.15805076
00000000: 4cfd 65bc bbe2 38be 4317 e43d 1507 04be
00000010: a035 f2bc 8ac7 c13d db08 b8bd 17c7 4cbd
00000020: 3610 ce3d 1568 bc3d ce65 ec3d 0672 4b3e
00000030: d016 54bd 8385 31be 2670 35be a9fe 07be
00000040: d68e b9bd 19d4 3abe 97c2 2b3e 7f99 03be
00000050: ca28 45be 9d6d 4c3e 76d3 323e e1df d2bd
00000060: cabf 873d ec70 1bbc 091c 49bd 95af 513d
00000070: fc6b 0b3d 55df acbd d11e 9e3c b4e7 513d
00000080: 4dad 2d3d 5aef 533e 467c c73c 3613 c0bd
00000090: 233f 20be b442 e23b 478b 833e 0ac1 0dbe
000000a0: d6f5 a73d 966e aabd 980d e43d b801 1cbc
000000b0: 45a2 febd 9928 68bd bba7 93bd b535 df3d
000000c0: d953 9c3d d170 36bd 28ef 02bd 9a08 2fbd
000000d0: 66ee 353e b090 513d 3f83 073d e21f 893e
000000e0: c2db 56be a6a9 af3c 66e5 f83b cf28 efbc
000000f0: b350 3c3e 980a c53d 7045 2ebe bdb9 e63d
00000100: 6847 9dbc 0f62 37be 2e71 7c3d 938d a33d
00000110: f7f0 9d3d 2358 153e 22dd 91bc be22 853d
00000120: 34fa b5bc 3a2f 28be 4e65 61be db91 97bd
00000130: ef66 03be 7818 f2bd 12c1 703d 196e cdbb
00000140: 3b74 303d 60a2 00be 5e20 4d3e b70f ddbd
00000150: bc1c 5fbe e75e 1a3d 8ed1 453d c536 a7bd
00000160: ccea 443e 7ada 1ebe 4cf0 f3bd cbad 363d
00000170: c70d 4abe 326e b53c 1635 41bd 2873 833d
00000180: 70e6 4bbb 2769 183d f782 e1bd 1b00 22be
00000190: 4166 ed3d d6a5 223d b40e b2bd cbac 6d3c
000001a0: c023 b33d dbce cbbd 2cb2 573e ede6 103e
000001b0: 60dc 8bbd 6906 0e3d 2b13 2b3b 517c 01be
000001c0: a7fa 1dbe 23e3 bebc 155d 593d fe4e 3dbd
000001d0: a030 f0bd 8771 913c 0cad eebd 06c7 25bd
000001e0: fbc1 6abd 7c6a f33d 702a 9fbd 748d debb
000001f0: 7a6b 723d 3e0d 97bd 0ce9 eb3c 56f3 3dbe
00000200: 2bfd 19be eebe 37be 9d79 cc3d 918a 47bd
00000210: 9b6f 2e3d c1e6 b13d aba0 babd 9bbb b0bd
00000220: 60be 833d 4255 473e d728 98bd 2059 a33d
00000230: e7eb b2bc 4b3a 23bd 4972 43bd 0dcb bc3c
00000240: 478f ee3d 8349 f1bd 5b1c 1e3c c660 15be
00000250: e977 ff3d bca6 62bd a792 e93d 0010 bd3d
00000260: 3ea9 db3d 3214 cbba 04a3 243d 31dc a2bd
00000270: 29c3 e4bc 113b 9bbd 028e f9bd 60a0 573e
00000280: ec52 553d d2a5 70bc cedc 003d ef78 3ebe
00000290: c730 eebd 206d 9bbd 847d d83c 6365 243d
000002a0: ebf4 00be 3f4f d23d 682a fa3c e0ee 23be
000002b0: 971a ecbd e11a 38bd 25c2 123d 3df7 c9bd
000002c0: 1f3c 6d3e bd7b 6b3e fd22 32be 1013 a1bd
000002d0: 3f21 573e b8c7 5c3c fb24 2d3c 8111 ae3d
000002e0: 19d2 babc daba b0bd 6d1d 473d 17a2 c13d
000002f0: 0595 4d3e d346 0f3e a527 dfbd b883 bdbc
00000300: e5e2 2fbc 6c90 7b3d 9f7b ce3d 3b65 a5bd
00000310: e74f 0b3e 105a 07bc 98b5 bebd b015 92bd
00000320: 0dd8 2e3e c8d4 ee3d 9651 e33d f3e0 5bbe
00000330: caa0 05be 4c14 77bd 4f72 3f3e f7c8 3abe
00000340: 8889 533d c1a8 123e 7ef4 003e 8e3a 053e
00000350: f602 b2bd c66c ac3d bf29 bdbd a451 51bc
00000360: c685 293b 8be6 0e3e d086 eebd fffd ef3d
00000370: dc84 9d3d cc04 79bd 3235 a73d 05df 8abb
00000380: e973 3ebc b171 b53d 3a2f 493e 0834 cfbd
00000390: 5165 f83d 8c05 6d3d 27b0 18bd 2826 2ebe
000003a0: 0543 073e 11a9 25bd c875 3d3e acbb 10be
000003b0: dad6 463d 9b64 5a3d 55a9 8ebd 02a0 333e
000003c0: cd8b 9e3d 4fb3 e83d 364c 09be 11af 3f3e
000003d0: a131 c9bd 87c7 a3bd 1063 bdbd 629f 01be
000003e0: 0a3e a6bd 4794 1b3e 6102 5e3e 215f c8bd
000003f0: 7e51 113c f2b1 b0bc de89 8f3d 0fd8 21be

decoder.worker_attention_embedding.bias f4 [32]
1.8033502 -1.1454208 -0.7810628 1.1255872 -1.3573587 -1.1519173 -1.5929736 0.605897
-1.2806082 -1.0229456 1.5689329 1.5704372 0.036987096 -0.4412358 -1.6486884 1.7468449
-1.2710826 -0.33964914 1.6630929 -1.2435914 -0.3056869 -1.7288069 1.7814145 -1.1358325
1.6378156 0.32349062 -1.5001644 -1.6898983 -1.5566204 1.3378707 1.534652 -1.4954323
00000000: 2ed4 e63f 269d 92bf bbf3 47bf 3e13 903f
00000010: eebd adbf 0772 93bf 8fe6 cbbf 111c 1b3f
00000020: f8ea a3bf e2ef 82bf cbd2 c83f 1604 c93f
00000030: c87f 173d a9e9 e1be 3908 d3bf 9d98 df3f
00000040: d6b2 a2bf 7ee6 adbe 3ae0 d43f 012e 9fbf
00000050: fe82 9cbe 8b49 ddbf 6405 e43f f662 91bf
00000060: f1a3 d13f 90a0 a53e 6305 c0bf 964e d8bf
00000070: 563f c7bf 593f ab3f 7a6f c43f 536a bfbf
