dev/test_models/terminal_8.pth (torch, 37761 bytes, 12 tensors)

encoder.shift_embedding.weight f4 [32, 5]
0	0x4199b6ab	19.214193
1	0x4199aab2	19.208347
2	0x41881630	17.010834
3	0x4180013d	16.000605
4	0x41ae6466	21.799023
5	0x419cbf64	19.593452
6	0x41973476	18.900616
7	0x41898fe2	17.195255
8	0x417c3b55	15.764485
9	0x41adbd46	21.717419
10	0x4199f1df	19.243101
11	0x419a924b	19.321432
12	0x418be3ef	17.486296
13	0x4178f7a0	15.560455
14	0x41a98b25	21.192942
15	0x419a85ee	19.315395
16	0x4197fbe1	18.997988
17	0x41860e14	16.756874
18	0x417cf453	15.809649
19	0x41afe6d5	21.98771
20	0xc19bfa95	-19.497355
21	0xc1939fd0	-18.453033
22	0xc18b28aa	-17.394855
23	0xc17a6011	-15.648454
24	0xc1aea541	-21.83069
25	0x4198c708	19.097183
26	0x419ab5dd	19.3388
27	0x418c1228	17.508865
28	0x417cfb2c	15.811321
29	0x41a8d6f6	21.104961
30	0x4198a711	19.081575
31	0x419c2a9b	19.520803
32	0x418c8806	17.566418
33	0x4172f3d7	15.184531
34	0x41adbc0e	21.716824
35	0x419dab79	19.708727
36	0x4194a689	18.581316
37	0x418a09e2	17.254826
38	0x417ae2a6	15.680334
39	0x41b062f6	22.04832
40	0x419bafb2	19.460789
41	0x419a7541	19.307253
42	0x418a4738	17.284775
43	0x4179e772	15.619005
44	0x41afe2ab	21.985678
45	0x41991efe	19.140133
46	0x4195256e	18.643276
47	0x418badd7	17.459883
48	0x417e614b	15.898753
49	0x41af65d6	21.924725
50	0xc19d4587	-19.658949
51	0xc19acffe	-19.351559
52	0xc18a8d14	-17.318886
53	0xc17fb33d	-15.981259
54	0xc1b27b89	-22.31032
55	0x419c5f20	19.546448
56	0x4196bcf4	18.842262
57	0x418d82fa	17.688953
58	0x4176afd0	15.417923
59	0x41afd9c9	21.98134
60	0x41963ee0	18.7807
61	0x419b130d	19.384302
62	0x4189e57c	17.237053
63	0x417b8805	15.720708
64	0x41ad7193	21.680456
65	0xc19bf86c	-19.4963
66	0xc19a6e45	-19.303843
67	0xc18ab990	-17.340607
68	0xc17bf6bd	-15.747739
69	0xc1addc2b	-21.732504
70	0x419d32bb	19.64977
71	0x41957d9a	18.686329
72	0x418d4d4c	17.662743
73	0x4180c251	16.094881
74	0x41ae6775	21.800516
75	0x4199361a	19.151417
76	0x41996d58	19.17839
77	0x418b895d	17.442072
78	0x4172fd7d	15.186887
79	0x41afeb53	21.989904
80	0x419d68f5	19.676249
81	0x4197352f	18.900969
82	0x41892672	17.143772
83	0x41801ecc	16.015038
84	0x41aebd44	21.842415
85	0xc19a88bc	-19.316765
86	0xc1995356	-19.165691
87	0xc18becbd	-17.490595
88	0xc16f72a3	-14.9654875
89	0xc1ac887f	-21.566648
90	0xc19dd134	-19.72715
91	0xc197aef2	-18.960423
92	0xc18e8ed5	-17.819742
93	0xc17f18e2	-15.943575
94	0xc1ab6ea0	-21.429016
95	0xc19de628	-19.737381
96	0xc195e4e7	-18.736769
97	0xc18cc286	-17.594982
98	0xc17d455e	-15.829435
99	0xc1acfa50	-21.622223
100	0x4197dd71	18.983126
101	0x41994f13	19.16361
102	0x418c0f47	17.50746
103	0x41801ae7	16.013136
104	0x41aff55d	21.994806
105	0x419a2c8f	19.271757
106	0x41945f43	18.546515
107	0x4189e7b0	17.238129
108	0x41724734	15.142384
109	0x41ae9697	21.82353
110	0xc19c65df	-19.549742
111	0xc193dce8	-18.482864
112	0xc188b0bf	-17.086302
113	0xc17f31a5	-15.94962
114	0xc1af48d2	-21.910557
115	0xc19aeb8c	-19.365013
116	0xc197338d	-18.900171
117	0xc1884d53	-17.037756
118	0xc16f8950	-14.971024
119	0xc1ae83e9	-21.81441
120	0x41980b6c	19.005577
121	0x41961657	18.760908
122	0x41886a8d	17.052027
123	0x41816861	16.175966
124	0x41adb680	21.714111
125	0xc1979f81	-18.952883
126	0xc1979fbe	-18.953
127	0xc1869f65	-16.82783
128	0xc179e3b5	-15.618093
129	0xc1b05c87	-22.04518
130	0xc1992d47	-19.147108
131	0xc19bebdd	-19.490168
132	0xc18d26b0	-17.64389
133	0xc17c106f	-15.754012
134	0xc1aff81b	-21.996145
135	0xc198ed2e	-19.11581
136	0xc19c6811	-19.550814
137	0xc189185f	-17.1369
138	0xc1803321	-16.024965
139	0xc1afd37f	-21.97827
140	0x419aa127	19.328688
141	0x41972f64	18.89814
142	0x41896e6c	17.178917
143	0x41807a3a	16.05968
144	0x41acdbab	21.60726
145	0x4198a42f	19.080168
146	0x41973c75	18.90452
147	0x418df5a3	17.74494
148	0x417145dd	15.079556
149	0x41aef766	21.8708
150	0x419ad481	19.353762
151	0x419a285c	19.269707
152	0x418b860b	17.44045
153	0x417db34b	15.856273
154	0x41afe21b	21.985403
155	0x419a6ff4	19.304665
156	0x419647e9	18.785112
157	0x418c9beb	17.576132
158	0x417ffa85	15.998662
159	0x41abe816	21.488323

encoder.shift_embedding.bias f4 [32]
0	0x41b8e2bf	23.110716
1	0x41b6fa7c	22.872307
2	0x41b51495	22.63505
3	0x41b67a6b	22.809774
4	0xc1b8285a	-23.019703
5	0x41b74e27	22.91316
6	0x41b9d69f	23.229795
7	0x41b87e47	23.061659
8	0x41b62c9c	22.771782
9	0x41b9363c	23.151482
10	0xc1bb54a6	-23.416332
11	0x41b644d2	22.783604
12	0x41b96874	23.176003
13	0xc1b9cb79	-23.224352
14	0x41b7d329	22.978106
15	0x41b72098	22.890915
16	0x41bac294	23.345009
17	0xc1b3e9e9	-22.489214
18	0xc1b7538f	-22.9158
19	0xc1bc0bb0	-23.505707
20	0x41bb5cb2	23.420261
21	0x41b5c98f	22.723417
22	0xc1b89d36	-23.076763
23	0xc1b6d1b0	-22.852386
24	0x41bb1c32	23.388767
25	0xc1b82085	-23.015879
26	0xc1b84f35	-23.038675
27	0xc1bab844	-23.339973
28	0x41b8e54e	23.111965
29	0x41b71848	22.886856
30	0x41ba8e19	23.319384
31	0x41b9dbce	23.232327

encoder.conv1.h_bias f4 [32]
0	0x00000000	0.0
1	0x413ff9c1	11.998475
2	0x416657ca	14.396433
3	0x416a6ad5	14.651082
4	0x414438db	12.263881
5	0x415deaea	13.869852
6	0x41452338	12.321098
7	0x41592de6	13.573706
8	0x41b1b48f	22.213163
9	0x4157381b	13.451198
10	0x41476f4b	12.464671
11	0x41b21e0c	22.264671
12	0xbd491684	-0.04909374
13	0x415cfba9	13.81144
14	0x4156ef68	13.433449
15	0x414122bd	12.070981
16	0x41b3b03a	22.461048
17	0x4159d45d	13.6143465
18	0x4165135c	14.317226
19	0x415ed606	13.927252
20	0x415e2d88	13.886116
21	0xbd01e88a	-0.031715907
22	0x415bc815	13.736348
23	0x415f08f1	13.939683
24	0x41487044	12.527409
25	0x415ff944	13.998356
26	0x4145e094	12.367329
27	0x4166b010	14.417984
28	0x415e0acd	13.877637
29	0x41600aa2	14.002596
30	0x413d93df	11.848601
31	0x41b08c53	22.068518

encoder.conv1.loop_weight f4 [32, 32]
0	0xbd666da8	-0.05625692
1	0x41471595	12.442769
2	0x41489d5b	12.538417
3	0x413e876e	11.908064
4	0x4146d824	12.427769
5	0x413d82e6	11.844458
6	0x4144b305	12.293706
7	0x412f7b01	10.96753
8	0xbed38faf	-0.4132056
9	0x4136eb29	11.432412
10	0x414f8dbf	12.972106
11	0xbecaa6d5	-0.39580408
12	0x3d577d15	0.052609522
13	0x41439854	12.2246895
14	0x412e5ef1	10.898179
15	0x41473aef	12.451888
16	0xbe8e9d40	-0.27854347
17	0x413dcc6d	11.862409
18	0x414483e3	12.282199
19	0x413ebabb	11.9205885
20	0x41426353	12.149249
21	0xbda023db	-0.07819339
22	0x4137b1d7	11.480918
23	0x413f0871	11.939561
24	0x414730e4	12.449436
25	0x4134950d	11.286389
26	0x4148b92f	12.545211
27	0x414c0f93	12.753802
28	0x413f51f9	11.957513
29	0x41423951	12.138993
30	0x41453116	12.324484
31	0xbe0920cd	-0.13391419
32	0x3dca3594	0.098735005
33	0x414961d1	12.586381
34	0x414947f8	12.5800705
35	0x41448fa3	12.285068
36	0x4144b610	12.294449
37	0x4138b573	11.544299
38	0x4145975b	12.349452
39	0x413c802e	11.781294
40	0x3e96a228	0.2942059
41	0x413c4065	11.765721
42	0x414ae021	12.679719
43	0x3ca76abe	0.02043664
44	0x3dba5d1e	0.09099792
45	0x41412e7d	12.07385
46	0x41381823	11.505893
47	0x4148e759	12.556481
48	0x3ea18e4e	0.31553882
49	0x41388415	11.532247
50	0x41369607	11.411628
51	0x413e54e9	11.89573
52	0x41359454	11.348713
53	0x3ecc90b7	0.3995416
54	0x413092fe	11.035887
55	0x4138d505	11.552007
56	0x4150420e	13.016127
57	0x41362b41	11.38556
58	0x4147e0b8	12.492363
59	0x414834df	12.512908
60	0x4137ff05	11.499761
61	0x4145f3ea	12.372049
62	0x413fa018	11.976585
63	0x3e4b73e7	0.19868432
64	0x3c59e4c0	0.013299167
65	0x414210cf	12.129104
66	0x414a4ecc	12.6442375
67	0x413af7a5	11.68546
68	0x41465b51	12.397294
69	0x41341992	11.256243
70	0x414a6c1c	12.651394
71	0x413ab077	11.668082
72	0x3e3a7e69	0.18212284
73	0x41387bf2	11.53026
74	0x4145bd6a	12.358744
75	0x3e2721fe	0.1632156
76	0x3e0644be	0.1311216
77	0x413c7f09	11.781014
78	0x41292e3b	10.573787
79	0x413e2b13	11.885516
80	0x3e9ab58a	0.30216628
81	0x412ea38b	10.9149275
82	0x413959c9	11.58442
83	0x413a96e5	11.6618395
84	0x4141243a	12.071344
85	0x3ec5a1ac	0.38599908
86	0x4139719a	11.590235
87	0x413e5cfe	11.897703
88	0x414c63e0	12.774384
89	0x413b83db	11.719691
90	0x41416e15	12.0893755
91	0x41448a0e	12.283705
92	0x4131a5a5	11.102941
93	0x413e3d51	11.88997
94	0x4145dba2	12.366121
95	0x3bb361e5	0.0054743164
96	0x3e3d304e	0.18475458
97	0x413e8008	11.906258
98	0x4145c979	12.361688
99	0x414268c0	12.150574
100	0x41463eb3	12.390307
101	0x41399c92	11.600725
102	0x414c28ab	12.759929
103	0x41351787	11.318244
104	0xbc802c87	-0.015646232
105	0x4137c7ee	11.486311
106	0x414ce391	12.805558
107	0xbeb1e44d	-0.34744492
108	0x3eb25f06	0.34838122
109	0x4142f51d	12.184842
110	0x4134d199	11.301171
111	0x414a42da	12.641321
112	0xbece05a5	-0.4023868
113	0x4136ccfd	11.425046
114	0x413bbaeb	11.733134
115	0x4142b424	12.16898
116	0x413e0476	11.876089
117	0xbef67d16	-0.48142308
118	0x412f1bb3	10.9442625
119	0x41447210	12.277847
120	0x41473c05	12.452153
121	0x4139622f	11.586471
122	0x415139a4	13.076572
123	0x41436e96	12.2144985
124	0x4140a301	12.039796
125	0x413f7cc0	11.967957
126	0x41447c24	12.280308
127	0x3ea5ce1a	0.32383806
128	0xbe712166	-0.23547897
129	0xc146c485	-12.422978
130	0xc14df388	-12.871956
131	0xc13b4449	-11.704171
132	0xc14f6695	-12.962544
133	0xc13e4520	-11.891876
134	0xc146a331	-12.414842
135	0xc13de2d1	-11.867875
136	0x3e7f2768	0.24917376
137	0xc140f06b	-12.058696
138	0xc149efc0	-12.621033
139	0x3e6ab343	0.22919945
140	0x3e6aa1b0	0.22913241
141	0xc1405fb4	-12.023365
142	0xc1325d8d	-11.14784
143	0xc14370f4	-12.215076
144	0x3dc0f78c	0.09422216
145	0xc134a1e9	-11.289529
146	0xc13b9d93	-11.72597
147	0xc13e9c60	-11.9131775
148	0xc137d340	-11.489075
149	0x3ec5909c	0.3858689
150	0xc13336f7	-11.200919
151	0xc13ef764	-11.935398
152	0xc153170e	-13.193129
153	0xc1312684	-11.071903
154	0xc151c878	-13.111443
155	0xc1407a74	-12.029896
156	0xc1381b5f	-11.506682
157	0xc1455fd7	-12.335898
158	0xc14225df	-12.134246
159	0x3eb0919b	0.34486088
160	0x3e846323	0.25856885
161	0x413d979b	11.849513
162	0x414ab012	12.667986
163	0x413b8c3d	11.721738
164	0x4146688b	12.400523
165	0x41341044	11.253971
166	0x4144d95f	12.303069
167	0x413a210c	11.633068
168	0xbd09de71	-0.033659402
169	0x413ca2e9	11.789773
170	0x4146d4e5	12.426976
171	0xbd6a2fc0	-0.057174444
172	0xbebd23c0	-0.36941338
173	0x413511ed	11.316876
174	0x41330f8b	11.191295
175	0x413f1053	11.941485
176	0xbe9d7927	-0.30756494
177	0x413b932c	11.723431
178	0x414298cd	12.162305
179	0x413b0a73	11.690051
180	0x4137516b	11.457377
181	0xbe61c5a3	-0.22048049
182	0x413a39fe	11.639158
183	0x41364062	11.390718
184	0x414a319c	12.637112
185	0x41328538	11.157524
186	0x41448185	12.281621
187	0x413ba213	11.727069
188	0x4138a68a	11.540659
189	0x414139bc	12.076595
190	0x413ceda3	11.808017
191	0x3e9e6f5c	0.30944335
192	0xbea56ff3	-0.32311973
193	0x4144393d	12.263974
194	0x4142b1ae	12.168379
195	0x4143bb5e	12.233244
196	0x414335b2	12.200609
197	0x413e43d1	11.891557
198	0x414f225e	12.94589
199	0x41351705	11.31812
200	0xbeb61619	-0.35563734
201	0x413e5ec3	11.898135
202	0x4149b8ae	12.607588
203	0xbef0c23a	-0.47023183
204	0x3d48ea29	0.049051438
205	0x413f3afb	11.9519
206	0x412cf766	10.8104
207	0x414a7628	12.653847
208	0xbe9f1847	-0.3107321
209	0x41380c74	11.50304
210	0x41431105	12.191655
211	0x4141b91b	12.107692
212	0x413edf63	11.929538
213	0x3de72f48	0.11288315
214	0x41366bee	11.40135
215	0x4136f6c5	11.435246
216	0x4145a66f	12.353133
217	0x41373237	11.4497595
218	0x414b23b6	12.6962185
219	0x413d4e02	11.831545
220	0x413bc909	11.736581
221	0x413855a2	11.520906
222	0x41474f9a	12.456934
223	0x3c96d05b	0.018409899
224	0xbe9ffabc	-0.31245983
225	0x4143a785	12.228398
226	0x414bf2d1	12.746781
227	0x413cf781	11.810426
228	0x4146352e	12.387983
229	0x4137dfc8	11.492134
230	0x41449ff0	12.289047
231	0x413e423f	11.891173
232	0x3ea356d4	0.31902182
233	0x41407fa2	12.03116
234	0x414fd344	12.9890785
235	0x3d337c1d	0.043819536
236	0xbede01b7	-0.43360683
237	0x413a08c8	11.627144
238	0x412fa06e	10.976667
239	0x41404b76	12.018423
240	0xbe894749	-0.268122
241	0x413c6534	11.774708
242	0x413b7101	11.715089
243	0x41419a45	12.100163
244	0x413922d8	11.571007
245	0xbee13fdc	-0.43994033
246	0x4134f126	11.308874
247	0x4141116e	12.066755
248	0x414dbcf7	12.858634
249	0x4138270f	11.509536
250	0x41504666	13.017187
251	0x41436a3b	12.213435
252	0x41406972	12.0257435
253	0x4142fe49	12.187081
254	0x413dff5c	11.874844
255	0x3d2c0dbd	0.04200529

encoder.conv1.linear_r.W f4 [2, 32, 32]
0	0xbda39269	-0.0798691
1	0xbddb8335	-0.10718385
2	0x419e9e73	19.827368
3	0x41a2af79	20.33568
4	0xbe163e5c	-0.14672226
5	0x41a43c2b	20.529379
6	0xbd767c1f	-0.060176965
7	0x41a29d08	20.326675
8	0x41a7a729	20.956621
9	0x4193712e	18.430264
10	0x3be2649c	0.006908966
11	0x41ab8f16	21.444866
12	0xbdac0825	-0.08399991
13	0x419907aa	19.128742
14	0x41a23805	20.277353
15	0xbd757588	-0.05992654
16	0x41ad1319	21.634325
17	0x419b4657	19.409346
18	0x41a48439	20.564562
19	0x419fc948	19.973282
20	0x419ad731	19.355074
21	0x3da2851f	0.07935547
22	0x41a3599f	20.41876
23	0x41a1e0b1	20.234713
24	0xbd06b7f1	-0.032890264
25	0x41a60c43	20.755987
26	0xbdb7b081	-0.08969212
27	0x41a205d5	20.252848
28	0x41a1213e	20.141232
29	0x419c9fb3	19.577978
30	0x3c8a246e	0.016863074
31	0x41aa2b17	21.27104
32	0x3e0c5f43	0.13708214
33	0x3e2ffb0d	0.17185612
34	0x419bf2d4	19.493568
35	0x41a131c3	20.149298
36	0xbd81ef8d	-0.06344519
37	0x41a31f38	20.390244
38	0xbcad37fe	-0.021144863
39	0x41a0d82c	20.105553
40	0x41a88718	21.065964
41	0x419238d9	18.277758
42	0xbdcd959d	-0.10038302
43	0x41a9ef05	21.241709
44	0xbdfaa363	-0.12238195
45	0x41977a9d	18.93487
46	0x41a28287	20.313734
47	0x3d2ba1a4	0.0419022
48	0x41aa067e	21.25317
49	0x419adaea	19.356892
50	0x41a26626	20.299877
51	0x419e1522	19.760319
52	0x419c3587	19.526136
53	0xbda1377a	-0.078719094
54	0x41a1ad42	20.209599
55	0x419eef44	19.866829
56	0xbe219d5b	-0.15782683
57	0x41a3c4ae	20.471035
58	0xbc5f89cf	-0.013643696
59	0x41a0bdc7	20.092665
60	0x419f1516	19.885296
61	0x419c7e06	19.561535
62	0x3e0ed781	0.13949396
63	0x41a7e664	20.987495
64	0xbe30b5f1	-0.17256905
65	0xbd2bf5e7	-0.041982558
66	0x419bdee6	19.483837
67	0x419eb247	19.83705
68	0x3d5ff72f	0.054679092
69	0x41a44585	20.533945
70	0xbd279255	-0.040911037
71	0x41a149c2	20.161015
72	0x41a9dfe8	21.23433
73	0x41937ac4	18.434944
74	0x3e28d6c3	0.16488175
75	0x41a7eda2	20.991032
76	0x3d0670b4	0.032822326
77	0x4197ca4b	18.973776
78	0x41a16e63	20.1789
79	0x3dfdcda6	0.1239274
80	0x41a9d97a	21.23119
81	0x419b8b0d	19.442896
82	0x41a06f97	20.054487
83	0x419bbafe	19.466305
84	0x419b81b7	19.438337
85	0xbd5e91e1	-0.05433834
86	0x41a230e6	20.273876
87	0x41a10a87	20.13014
88	0xbe08f911	-0.13376261
89	0x41a39f68	20.452835
90	0xbe3eb1b6	-0.18622479
91	0x419ee59c	19.862114
92	0x419e41e6	19.782177
93	0x419d30f4	19.648903
94	0xbd4e570a	-0.050375976
95	0x41aa0e65	21.257029
96	0x3c793a50	0.015211657
97	0x3b6aef61	0.0035848247
98	0x419c5a2a	19.544025
99	0x41a2ed2a	20.365803
100	0xbdf6d109	-0.12051589
101	0x41a2a532	20.330662
102	0x3dd1c9af	0.10243546
103	0x41a3b8a5	20.465158
104	0x41a910d8	21.133224
105	0x41918e40	18.194458
106	0x3e02e3b7	0.12782179
107	0x41ac179a	21.511524
108	0xbc473950	-0.01215966
109	0x419a0d73	19.256567
110	0x41a04c69	20.03731
111	0xbdf59cb8	-0.11992782
112	0x41ab6db6	21.42857
113	0x419d55ec	19.666954
114	0x41a468fc	20.551262
115	0x419ffef8	19.999496
116	0x419d0214	19.626015
117	0xbdde2342	-0.10846569
118	0x41a4e08d	20.609644
119	0x41a0369e	20.026669
120	0xbba2c092	-0.004966804
121	0x41a3a19d	20.453913
122	0xbd8743a8	-0.06604701
123	0x41a1f631	20.24521
124	0x41a018b7	20.012068
125	0x419ca5cf	19.580961
126	0x3d93084f	0.07179319
127	0x41a93fd8	21.156174
128	0xbd0a803c	-0.0338137
129	0xbe1cb30b	-0.15302674
130	0xc19d8614	-19.690468
131	0xc1a42333	-20.517187
132	0x3dcb0063	0.09912183
133	0xc1a5bf82	-20.71851
134	0xbe03877b	-0.1284465
135	0xc1a2f964	-20.371773
136	0xc1a8e530	-21.111908
137	0xc19169b0	-18.176605
138	0x3c85b859	0.016323255
139	0xc1acd097	-21.60185
140	0x3df91586	0.121623084
141	0xc1985243	-19.040167
142	0xc1a16e4c	-20.178856
143	0x3e01f13d	0.12689681
144	0xc1ac5e68	-21.546097
145	0xc19c52ab	-19.540365
146	0xc1a33b0f	-20.403837
147	0xc1a151de	-20.164974
148	0xc19d06b5	-19.628275
149	0x3cd5bf5f	0.02609223
150	0xc1a3350e	-20.400906
151	0xc1a067e5	-20.05073
152	0x3df2d1bb	0.11856409
153	0xc1a58935	-20.691996
154	0x3daaafed	0.083343364
155	0xc1a27278	-20.305893
156	0xc19fddf9	-19.983385
157	0xc19c4586	-19.533947
158	0xbdfaeb60	-0.122519255
159	0xc1a83a4d	-21.028467
160	0x3d4bb01c	0.049728498
161	0xbd4b2adc	-0.04960142
162	0x419acf88	19.351334
163	0x419fa545	19.955698
164	0x3de252ea	0.11050971
165	0x41a4faa2	20.62238
166	0x3beb53b4	0.007181609
167	0x41a1f3c3	20.244024
168	0x41a86749	21.050432
169	0x4191ec30	18.240326
170	0xbc6da08b	-0.014503608
171	0x41a96a3c	21.176872
172	0x3dcf1bbe	0.10112713
173	0x4198971e	19.073788
174	0x419fd48d	19.978785
175	0xbc983948	-0.018582001
176	0x41a8f6a5	21.120432
177	0x419bd337	19.478132
178	0x41a2bec0	20.34314
179	0x419e8626	19.815502
180	0x419c4688	19.53444
181	0x3ce7dc0f	0.028303174
182	0x41a34bc1	20.41199
183	0x419f212f	19.891203
184	0xbe1d2699	-0.15346755
185	0x41a417eb	20.511679
186	0x3e0bdce2	0.13658479
187	0x419f7e95	19.936808
188	0x419ee194	19.860146
189	0x419d180b	19.63674
190	0x3ceb2aa9	0.028706865
191	0x41a7f9db	20.997
192	0xbcb565c0	-0.022143245
193	0xbbe26513	-0.0069090216
194	0x419d3267	19.64961
195	0x41a0e2bf	20.110716
196	0x3d1c478e	0.038154177
197	0x41a3821e	20.438534
198	0x3e14bdc9	0.14525522
199	0x41a1f2f4	20.24363
200	0x41a8f6c4	21.120491
201	0x4192fa43	18.372198
202	0x3e0c0017	0.1367191
203	0x41a90938	21.129501
204	0xbddc2f50	-0.10751212
205	0x4199d134	19.22715
206	0x41a0b411	20.087923
207	0x3d8649e6	0.06557064
208	0x41ab026a	21.376179
209	0x419bc7b0	19.472504
210	0x41a346c2	20.40955
211	0x419d24e1	19.643007
212	0x419bf603	19.495123
213	0xbe06b970	-0.13156676
214	0x41a1e243	20.23548
215	0x41a18df9	20.194323
216	0x3ce27d9f	0.027647791
217	0x41a4ab72	20.583714
218	0xbe552041	-0.20813085
219	0x41a06f66	20.054394
220	0x41a0368f	20.02664
221	0x419cc01a	19.5938
222	0x3dc34118	0.095339
223	0x41a8f87c	21.12133
224	0x3d3ea7f0	0.046546876
225	0xbe35bc5d	-0.17747636
226	0x419c9441	19.57239
227	0x41a41b14	20.513222
228	0xbe062b06	-0.1310235
229	0x41a44d77	20.537825
230	0xbe44240f	-0.1915438
231	0x41a343cb	20.408102
232	0x41a8d953	21.106115
233	0x4191842d	18.189539
234	0xbdfcbcc7	-0.12340694
235	0x41aba43f	21.455198
236	0xbe2ffc79	-0.17186154
237	0x4199c180	19.219482
238	0x41a21736	20.261333
239	0xbd4d425c	-0.050112113
240	0x41ad54a5	21.66633
241	0x419dffbe	19.749874
242	0x41a36ab2	20.427097
243	0x419fbf3a	19.968372
244	0x419d666b	19.675009
245	0x3d6860de	0.056733005
246	0x41a49344	20.571907
247	0x419f6eed	19.929163
248	0xbd54dccf	-0.051968392
249	0x41a4945c	20.572441
250	0xbdd8f0ef	-0.105928294
251	0x41a34f2d	20.41366
252	0x419f3dde	19.905209
253	0x419ca831	19.582125
254	0xbe12348f	-0.14277862
255	0x41a9049b	21.127249

encoder.conv2.h_bias f4 [32]
0	0xc151fc28	-13.124062
1	0xc1546f4e	-13.277174
2	0x415179cc	13.092236
3	0xc150100f	-13.003921
4	0x414ea672	12.915636
5	0xc12dcb47	-10.862128
6	0x41543ee8	13.265358
7	0xc155216d	-13.320661
8	0xc12d7591	-10.841203
9	0xc1534299	-13.203759
10	0x41561f30	13.382614
11	0x4157a894	13.478657
12	0xc1322613	-11.134295
13	0xc15439ea	-13.264139
14	0x4152a846	13.166082
15	0x41489181	12.535523
16	0x41513153	13.074542
17	0xc128152e	-10.505171
18	0x4153394a	13.201487
19	0xc14afbff	-12.6865225
20	0x41526e9b	13.152003
21	0x4153b4b6	13.231619
22	0x4159aa74	13.604115
23	0xc15388a4	-13.22086
24	0x415832e8	13.512428
25	0xc15b23c2	-13.69623
26	0xc153edfb	-13.245601
27	0xc157f018	-13.496117
28	0x41391d8f	11.569716
29	0xc1571449	-13.442452
30	0x41557500	13.341064
31	0xc1292f9d	-10.574124

encoder.conv2.loop_weight f4 [32, 32]
0	0x3d469c08	0.048488647
1	0x3e49ecba	0.1971921
2	0x3e768642	0.24074653
3	0xbebeda21	-0.37275794
4	0x3e9b7af5	0.30367246
5	0xbead3727	-0.3383114
6	0x3ed8720b	0.42274508
7	0xbd92c468	-0.07166368
8	0x3e9836cf	0.29729316
9	0x3e897915	0.2685019
10	0x3e3df6b2	0.18551138
11	0x3e34d51a	0.17659417
12	0x3da90ac4	0.082540065
13	0xbdcbae10	-0.09945309
14	0xbd06e3f0	-0.032932222
15	0xbc921880	-0.017833948
16	0xbec37a43	-0.38179216
17	0xbe757476	-0.23970208
18	0xbd6024f0	-0.054722726
19	0xbed453c0	-0.41470146
20	0xbe04ee2c	-0.1298148
21	0xbda2c8d0	-0.07948458
22	0xbed6abac	-0.4192785
23	0x3e524eba	0.20537844
24	0xbed211d4	-0.41029227
25	0xbc2fdb00	-0.010733366
26	0xbe78efab	-0.24310176
27	0xbe8d4c18	-0.27597117
28	0xbe08f590	-0.13374925
29	0x3eb2a9db	0.34895214
30	0xbe84efc6	-0.25964183
31	0xbca47d30	-0.020079225
32	0xc1edea5c	-29.739433
33	0xc1e9afee	-29.210903
34	0x41e9be6e	29.217983
35	0xc1eb8d71	-29.444063
36	0x41eb470e	29.409695
37	0x41ec2879	29.519762
38	0x41ed3b3c	29.653923
39	0xc1e9bf89	-29.218523
40	0x41ecc14b	29.594381
41	0xc1ec1675	-29.510965
42	0x41eab659	29.339037
43	0x41ebb6bf	29.464231
44	0x41ef2447	29.892714
45	0xc1ece3a4	-29.611153
46	0x41ee3957	29.777998
47	0x41ec4ec5	29.538462
48	0x41e90fa1	29.132631
49	0x41ee0819	29.753954
50	0x41ec776a	29.558308
51	0xc1ee5411	-29.791048
52	0x41eef845	29.871225
53	0x41ea618d	29.297632
54	0x41eb1c5a	29.388844
55	0xc1e9b942	-29.215458
56	0x41ecd34e	29.603176
57	0xc1eeef41	-29.866823
58	0xc1ee1a20	-29.762756
59	0xc1ee789b	-29.80889
60	0xc1ec34eb	-29.525839
61	0xc1ec4f32	-29.53867
62	0x41ec7a29	29.559649
63	0x41ecd9e9	29.606401
64	0xc1409a83	-12.037723
65	0xc1482393	-12.508685
66	0x413ed8bc	11.927914
67	0xc1453e5c	-12.327724
68	0x413e9c3a	11.913141
69	0xc1317354	-11.090656
70	0x4140be04	12.046391
71	0xc1490f41	-12.566224
72	0xc137add4	-11.4799385
73	0xc1434e74	-12.206654
74	0x41447157	12.277671
75	0x4144953d	12.286435
76	0xc13a003d	-11.625058
77	0xc143ffd3	-12.249957
78	0x4144bbbf	12.295836
79	0x413d54ad	11.833173
80	0x413f799f	11.967193
81	0xc12f6072	-10.961046
82	0x4143697a	12.213251
83	0xc131b921	-11.1076975
84	0x41402bb5	12.010671
85	0x41471928	12.443642
86	0x41454a4f	12.330642
87	0xc140e0ed	-12.0549135
88	0x4145d06a	12.363382
89	0xc14a6137	-12.648734
90	0xc1467724	-12.404087
91	0xc149af85	-12.605351
92	0x41394aca	11.580759
93	0xc1456029	-12.335977
94	0x413fa8fd	11.978757
95	0xc1325b07	-11.147223
96	0xc14994de	-12.598845
97	0xc14624a9	-12.38395
98	0x41414119	12.078393
99	0xc1402c36	-12.010794
100	0x4149cea5	12.61295
101	0xc13a649f	-11.649566
102	0x41414be3	12.081027
103	0xc14517b9	-12.318292
104	0xc13da587	-11.852912
105	0xc140d694	-12.052387
106	0x4144fb4e	12.311354
107	0x4148b0d8	12.543175
108	0xc138ffb6	-11.562429
109	0xc14a3b65	-12.639501
110	0x4145764a	12.341379
111	0x4142f0e0	12.183807
112	0x41405b28	12.022255
113	0xc13431c0	-11.262146
114	0x414560ef	12.336165
115	0xc138284c	-11.509838
116	0x4146f017	12.433616
117	0x414b0358	12.688316
118	0x4149114d	12.566724
119	0xc1463980	-12.389038
120	0x4149ff56	12.624838
121	0xc1499a80	-12.60022
122	0xc149e5f5	-12.618642
123	0xc14ad3d6	-12.676718
124	0x41492118	12.57058
125	0xc149c882	-12.611452
126	0x413eb01e	11.917997
127	0xc13d4aee	-11.830793
128	0xc1e83086	-29.023693
129	0xc1ec1bf5	-29.51365
130	0x41ec3ceb	29.529745
131	0xc1ebd982	-29.481205
132	0x41e73377	28.90013
133	0x41e93006	29.148449
134	0x41ef514e	29.9147
135	0xc1eb1903	-29.387213
136	0x41eda63e	29.706173
137	0xc1e720ff	-28.891111
138	0x41e8b821	29.089907
139	0x41e81901	29.012209
140	0x41ebe2b9	29.485704
141	0xc1ea713f	-29.305296
142	0x41e9494f	29.160795
143	0x41ea29a3	29.27033
144	0x41ea5b25	29.294504
145	0x41ed2cb6	29.646832
146	0x41ec0f57	29.50749
147	0xc1e893b4	-29.07212
148	0x41ec4604	29.534187
149	0x41e87f59	29.062181
150	0x41e74b03	28.911627
151	0xc1ede915	-29.73881
152	0x41ed7cbf	29.685911
153	0xc1ec2350	-29.517242
154	0xc1e83a56	-29.028484
155	0xc1ed2b98	-29.646286
156	0xc1ea0042	-29.250126
157	0xc1edc527	-29.721266
158	0x41ec12e4	29.509224
159	0x41e87f98	29.062302
160	0xc1374ae9	-11.455789
161	0xc13fd953	-11.990558
162	0x413c07ba	11.751886
163	0xc13a44d2	-11.641802
164	0x413ff669	11.997659
165	0xc13868e3	-11.525607
166	0x414461ca	12.273874
167	0xc13ea3e9	-11.915017
168	0xc1371b65	-11.444188
169	0xc1456287	-12.336555
170	0x413e11c6	11.879339
171	0x4146ecec	12.432842
172	0xc13b6ff4	-11.714832
173	0xc1455519	-12.333276
174	0x4143ee97	12.245749
175	0x41363f9d	11.390531
176	0x413f9aad	11.975263
177	0xc12c8d03	-10.784427
178	0x4140058a	12.001352
179	0xc1385da2	-11.52286
180	0x414146c9	12.079782
181	0x41477037	12.464896
182	0x413cc6ca	11.7985325
183	0xc138cfab	-11.5507
184	0x414edf2f	12.929488
185	0xc147b326	-12.481237
186	0xc136b645	-11.419499
187	0xc1443836	-12.263723
188	0x41457929	12.34208
189	0xc149d2fc	-12.61401
190	0x413d70fe	11.840086
191	0xc1309bdf	-11.038054
192	0xc1e9b856	-29.215008
193	0xc1e78718	-28.940964
194	0x41e94ee3	29.163519
195	0xc1ec0739	-29.503527
196	0x41e8b464	29.088081
197	0x41e74e18	28.913132
198	0x41ed02e8	29.62642
199	0xc1e8c774	-29.09739
200	0x41e8683a	29.050892
201	0xc1ebe591	-29.487093
202	0x41e7ffb5	28.999857
203	0x41e7530a	28.915546
204	0x41ead1d7	29.35246
205	0xc1eb960a	-29.448261
206	0x41e93bc1	29.154177
207	0x41eb3b64	29.404
208	0x41ebcdca	29.475483
209	0x41e88eb5	29.069681
210	0x41e7cb7e	28.974361
211	0xc1eb5a87	-29.419203
212	0x41e93603	29.151373
213	0x41ec02be	29.501339
214	0x41e757ab	28.917807
215	0xc1ed2188	-29.641373
216	0x41ed8518	29.689987
217	0xc1ebe8db	-29.488699
218	0xc1ece9e0	-29.614197
219	0xc1ea3455	-29.275553
220	0xc1ec23c3	-29.517462
221	0xc1ec3d43	-29.529913
222	0x41e83d72	29.030003
223	0x41e80b93	29.005651
224	0xc139d426	-11.614294
225	0xc146cda6	-12.425207
226	0x414326c3	12.196963
227	0xc13b38c9	-11.701364
228	0x413a568a	11.646128
229	0xc13b3bb1	-11.702073
230	0x413d88ea	11.845926
231	0xc146ef76	-12.433462
232	0xc1340ecd	-11.253613
233	0xc142caad	-12.174481
234	0x414118c7	12.068549
235	0x4148146b	12.504985
236	0xc137305f	-11.449309
237	0xc13df4b4	-11.872242
238	0x41469eee	12.413801
239	0x41303d19	11.014916
240	0x41404e34	12.019093
241	0xc131010d	-11.062757
242	0x41422de6	12.136206
243	0xc13ba1e1	-11.727021
244	0x413dae5d	11.855069
245	0x413f0ad5	11.940145
246	0x41436972	12.2132435
247	0xc13cd849	-11.802804
248	0x414f06f2	12.939196
249	0xc143d104	-12.238529
250	0xc1405154	-12.0198555
251	0xc148ddc4	-12.554142
252	0x41425e90	12.148087
253	0xc14d1bc7	-12.819282
254	0x413b3344	11.700016
255	0xc12f1a70	-10.943954

encoder.conv2.linear_r.W f4 [2, 32, 32]
0	0x3b64a440	0.003488794
1	0xbddee823	-0.1088412
2	0x3cc2ed38	0.023794755
3	0xbdfee104	-0.12445262
4	0x3d9bcaea	0.07607062
5	0x3e268e1d	0.1626515
6	0xbe272550	-0.16322827
7	0xbd730cb0	-0.05933827
8	0x3dc655be	0.09684323
9	0xbcfacea8	-0.03061612
10	0x3e0436b1	0.12911488
11	0x3db7f79a	0.08982773
12	0x3d496e38	0.04917738
13	0x3d8173fa	0.06320949
14	0xbe1d0197	-0.15332638
15	0xbdbe7b22	-0.093008295
16	0x3e191561	0.14949562
17	0xbe1bf556	-0.15230307
18	0xbc70b420	-0.014691383
19	0x3dd4b58a	0.10386188
20	0xbe18c9d8	-0.14920747
21	0x3e341e93	0.17589788
22	0xbe33cfe5	-0.17559774
23	0xbde3ca39	-0.11122555
24	0xbd807178	-0.062716424
25	0x3d773db8	0.060361594
26	0xbe09f6bb	-0.13473026
27	0xbde627e4	-0.11238077
28	0x3c94f050	0.018180996
29	0xbe1da273	-0.15394
30	0xbc75a450	-0.014992788
31	0x3c7d82d0	0.015473083
32	0xc13f3f86	-11.953009
33	0xc14789df	-12.47116
34	0x41432da5	12.198644
35	0xc143918b	-12.223033
36	0x4141b1d4	12.105915
37	0xc1453137	-12.324515
38	0x414201d5	12.125447
39	0xc149aae3	-12.60422
40	0xc13e4ef0	-11.894272
41	0xc146e3d5	-12.430623
42	0x4147ff51	12.499833
43	0x4147f0e9	12.496316
44	0xc1463f30	-12.390427
45	0xc146abe4	-12.4169655
46	0x41450c80	12.315552
47	0x413845c4	11.517033
48	0x4140ce76	12.0504055
49	0xc13fa42e	-11.977583
50	0x4144f99c	12.31094
51	0xc13b7aa2	-11.71744
52	0x4143514e	12.20735
53	0x414601e2	12.37546
54	0x41435010	12.2070465
55	0xc142ee8c	-12.183239
56	0x414a3580	12.638062
57	0xc148dba0	-12.553619
58	0xc1409552	-12.036455
59	0xc1465fe5	-12.398412
60	0x41494f73	12.581897
61	0xc146bd55	-12.421224
62	0x4144e351	12.305497
63	0xc13e0858	-11.877037
64	0xc1a4be37	-20.592878
65	0xc1a5f0a7	-20.742506
66	0x41a3e4f4	20.486794
67	0xc1a4ddff	-20.608397
68	0x41a21aa3	20.263006
69	0x4101dd75	8.116567
70	0x41aaad24	21.334541
71	0xc1a93712	-21.15189
72	0x40d9e5d9	6.8093076
73	0xc1a6a890	-20.832306
74	0x41a5f0fc	20.742668
75	0x41a73a5e	20.9035
76	0x40f028e3	7.504991
77	0xc1a76026	-20.921947
78	0x41a6b8ba	20.840199
79	0x41a3aa27	20.458082
80	0x41a51676	20.635967
81	0x4103f126	8.246374
82	0x41a699f4	20.825172
83	0xc1a5c355	-20.720377
84	0x41a724d5	20.892984
85	0x41a6a5a4	20.83088
86	0x41a85e8f	21.046171
87	0xc1a7a447	-20.955214
88	0x41a9c478	21.220932
89	0xc1a7cd83	-20.975348
90	0xc1a6f6ad	-20.870447
91	0xc1a7d83a	-20.98058
92	0xc0d5006b	-6.656301
93	0xc1a80ba9	-21.005693
94	0x41aa7dd4	21.31144
95	0x41002fa0	8.011627
96	0xc1ae71d6	-21.805584
97	0xc1ae4469	-21.783403
98	0x41ad1c64	21.638863
99	0xc1aae240	-21.360474
100	0x41a85ef1	21.046358
101	0x4138296b	11.510112
102	0x41b04691	22.034456
103	0xc1addb69	-21.732134
104	0x411974a8	9.590981
105	0xc1acc60c	-21.596703
106	0x41aeaf82	21.835697
107	0x41af980d	21.949244
108	0x412b5a06	10.709478
109	0xc1b186cc	-22.190819
110	0x41ab5faa	21.421711
111	0x41ab9e77	21.452375
112	0x41aaf7d9	21.37102
113	0x413fd4dd	11.989469
114	0x41b09986	22.074963
115	0xc1ac040f	-21.501982
116	0x41ab2c07	21.396498
117	0x41ae5464	21.791206
118	0x41adbc79	21.717028
119	0xc1af1de5	-21.889597
120	0x41b007c6	22.003796
121	0xc1ad4ca8	-21.66243
122	0xc1af30cd	-21.898829
123	0xc1b25108	-22.289566
124	0xc1188ae1	-9.533906
125	0xc1b0fe42	-22.12415
126	0x41b2f400	22.36914
127	0x413125fc	11.071774
128	0xc13fcc70	-11.9874115
129	0xc146274d	-12.384595
130	0x41417b5b	12.092616
131	0xc13dcb79	-11.862176
132	0x41401f14	12.007587
133	0xc147ac25	-12.479527
134	0x4144de7d	12.304318
135	0xc1463171	-12.387071
136	0xc13e77c3	-11.904239
137	0xc1405ba4	-12.022373
138	0x414155ab	12.083415
139	0x414916ee	12.568098
140	0xc147dde0	-12.491669
141	0xc145f576	-12.372427
142	0x41459ba7	12.350501
143	0x41379dca	11.476023
144	0x4140fd73	12.061877
145	0xc13bea11	-11.744645
146	0x41411190	12.066788
147	0xc13b9a17	-11.72512
148	0x41412ddd	12.073697
149	0x4144335f	12.262542
150	0x41482417	12.508811
151	0xc1410679	-12.06408
152	0x4149a6be	12.603209
153	0xc14ada72	-12.678331
154	0xc1422485	-12.133916
155	0xc148304b	-12.51179
156	0x4145e974	12.369495
157	0xc146e24a	-12.430246
158	0x414307ea	12.189432
159	0xc13d58a2	-11.834139
160	0xc1ae7d85	-21.811289
161	0xc1afce73	-21.975805
162	0x41aee242	21.860477
163	0xc1adb88e	-21.715115
164	0x41aa6931	21.301363
165	0x414871ab	12.527751
166	0x41b1099a	22.129688
167	0xc1b0d936	-22.10606
168	0x41352aec	11.322979
169	0xc1af8eb6	-21.944683
170	0x41af9508	21.94777
171	0x41af60e5	21.922312
172	0x41407e6d	12.030866
173	0xc1afad20	-21.959534
174	0x41ae5767	21.792677
175	0x41acbe66	21.592968
176	0x41abc3dc	21.470634
177	0x414cb9d3	12.795367
178	0x41aeac0a	21.834003
179	0xc1ae976d	-21.823938
180	0x41aeb0e5	21.836374
181	0x41aef058	21.867355
182	0x41ae7a6d	21.809778
183	0xc1b0954d	-22.0729
184	0x41b2d51e	22.354061
185	0xc1b04a87	-22.03639
186	0xc1b0c0bb	-22.094107
187	0xc1b1a449	-22.205217
188	0xc130aadb	-11.041713
189	0xc1b24838	-22.285263
190	0x41b27dba	22.31139
191	0x4147111c	12.441677
192	0xc1402ff0	-12.0117035
193	0xc1456ab6	-12.338552
194	0x413e5986	11.896856
195	0xc13ead80	-11.917358
196	0x413c658b	11.774791
197	0xc14414ba	-12.25506
198	0x4143f8b9	12.248223
199	0xc147066d	-12.439069
200	0xc13c1592	-11.755266
201	0xc1431b6f	-12.194198
202	0x413fbdca	11.983835
203	0x4144afd5	12.292928
204	0xc141b035	-12.105519
205	0xc13ea182	-11.914431
206	0x414360be	12.211119
207	0x41352326	11.321081
208	0x413da566	11.8528805
209	0xc13a7af6	-11.65502
210	0x413f3fda	11.953089
211	0xc13b57a4	-11.708897
212	0x413b6229	11.711465
213	0x41410c78	12.065544
214	0x41459f23	12.351352
215	0xc140b632	-12.044481
216	0x41493dc0	12.577576
217	0xc1463678	-12.388298
218	0xc13e714d	-11.902661
219	0xc14690d3	-12.410357
220	0x4147eea4	12.495762
221	0xc146d195	-12.4261675
222	0x4140d290	12.051407
223	0xc13d7bd9	-11.842736
224	0xc1ad1b61	-21.638369
225	0xc1af290e	-21.895046
226	0x41adb1e8	21.711868
227	0xc1ac4d3c	-21.537712
228	0x41acd0f6	21.602032
229	0x4142a595	12.165425
230	0x41af098d	21.879663
231	0xc1b0f34e	-22.118801
232	0x412f1fae	10.945234
233	0xc1ae72c3	-21.806036
234	0x41ad60a8	21.672195
235	0x41afec9e	21.990536
236	0x4135a37c	11.352413
237	0xc1af946d	-21.947474
238	0x41abf28a	21.493427
239	0x41abd72c	21.480064
240	0x41abf6c6	21.495495
241	0x4146174d	12.380689
242	0x41afda09	21.981462
243	0xc1ad1b3f	-21.638304
244	0x41ac21b1	21.51645
245	0x41acbb85	21.591562
246	0x41aeb435	21.837992
247	0xc1ad90f3	-21.695776
248	0x41b0cd83	22.100348
249	0xc1af6629	-21.924883
250	0xc1aec2fd	-21.84521
251	0xc1afaaef	-21.958464
252	0xc129261c	-10.571804
253	0xc1aed827	-21.855543
254	0x41b02821	22.019594
255	0x414195d1	12.099076

decoder.shift_attention_embedding.weight f4 [32, 32]
0	0xc1aec776	-21.847393
1	0xc1b07ede	-22.061947
2	0x41b187ec	22.191368
3	0xc1aea229	-21.82918
4	0x41adb098	21.711227
5	0x41af3821	21.902407
6	0x41b14acb	22.16152
7	0xc1af31c0	-21.899292
8	0x41ae9d56	21.826824
9	0xc1b094c0	-22.072632
10	0x41b0ba40	22.090942
11	0x41ae4038	21.781357
12	0x41aedd80	21.858154
13	0xc1b0b8bf	-22.090208
14	0x41b185d3	22.190344
15	0x41aead80	21.834717
16	0x41b0a5bf	22.08093
17	0x41b1110f	22.13333
18	0x41b11d8d	22.13943
19	0xc1aeef93	-21.86698
20	0x41b18096	22.187786
21	0x41b0212e	22.016201
22	0x41b018d4	22.012123
23	0xc1af385d	-21.902521
24	0x41afdb7b	21.982168
25	0xc1afcd31	-21.975191
26	0xc1ae3f28	-21.780838
27	0xc1b07f2d	-22.062098
28	0xc1adb6b7	-21.714216
29	0xc1ae261e	-21.768612
30	0x41b1d8c2	22.230839
31	0x41aeaff0	21.835907
32	0xc1aee092	-21.859653
33	0xc1b0d3a2	-22.103336
34	0x41af0777	21.878645
35	0xc1b00b49	-22.00551
36	0x41ad57cf	21.667875
37	0x41b07327	22.056227
38	0x41af2eed	21.897913
39	0xc1b042d1	-22.032625
40	0x41af35c5	21.901255
41	0xc1b06346	-22.048473
42	0x41ae78b1	21.808931
43	0x41afe8f0	21.988739
44	0x41af5aa3	21.919256
45	0xc1b0fc59	-22.123217
46	0x41afd4e3	21.978949
47	0x41af3784	21.902107
48	0x41b06385	22.048594
49	0x41b0759c	22.057426
50	0x41afe7aa	21.988117
51	0xc1b02a25	-22.020578
52	0x41af18f2	21.88718
53	0x41b04683	22.03443
54	0x41aecbc8	21.849503
55	0xc1b06cba	-22.05309
56	0x41b06593	22.049597
57	0xc1afbc56	-21.96696
58	0xc1af9503	-21.94776
59	0xc1b09cf0	-22.07663
60	0xc1b00633	-22.003027
61	0xc1aecf9b	-21.85137
62	0x41b0696b	22.051474
63	0x41ae3f24	21.78083
64	0xc1af1483	-21.885015
65	0xc1ae6ff2	-21.80466
66	0x41afdd70	21.983124
67	0xc1ad5dab	-21.670736
68	0x41adba62	21.716007
69	0x41ad68a4	21.676094
70	0x41acfea6	21.62434
71	0xc1aeeab0	-21.864594
72	0x41abf932	21.496677
73	0xc1adca6a	-21.723835
74	0x41aeeb48	21.864883
75	0x41ae3b64	21.779
76	0x41ae42d3	21.782629
77	0xc1ad9117	-21.695845
78	0x41ae8933	21.816992
79	0x41ad4923	21.660711
80	0x41ad8742	21.691044
81	0x41ad1818	21.636765
82	0x41aeb09a	21.836231
83	0xc1ace1dc	-21.610283
84	0x41aefa57	21.872236
85	0x41ae3da2	21.780094
86	0x41afae62	21.960148
87	0xc1ae2510	-21.768097
88	0x41adc781	21.722414
89	0xc1af4994	-21.910927
90	0xc1ae6df9	-21.803698
91	0xc1accee3	-21.601019
92	0xc1aef364	-21.868843
93	0xc1af1eb6	-21.889996
94	0x41afbfb9	21.968615
95	0x41acc3aa	21.59554
96	0x41ae0da0	21.756653
97	0x41aef336	21.868755
98	0xc1ae014c	-21.750633
99	0x41aeb703	21.839361
100	0xc1adf57f	-21.744871
101	0xc1af0143	-21.875616
102	0xc1ae298e	-21.77029
103	0x41ada850	21.707184
104	0xc1ad6850	-21.675934
105	0x41ae6093	21.797155
106	0xc1ac6d93	-21.553503
107	0xc1aeba59	-21.84099
108	0xc1adb064	-21.711128
109	0x41aed255	21.852701
110	0xc1adc5d9	-21.721605
111	0xc1af4c26	-21.912182
112	0xc1af9c1c	-21.951225
113	0xc1ad8775	-21.691141
114	0xc1ae1138	-21.758408
115	0x41ae319b	21.774221
116	0xc1af4f64	-21.913765
117	0xc1ae590f	-21.793486
118	0xc1af5669	-21.917192
119	0x41ae61f1	21.797823
120	0xc1aea813	-21.832067
121	0x41ad5c3d	21.670038
122	0x41ad3a83	21.65357
123	0x41acf72a	21.620686
124	0x41ad7fe2	21.687443
125	0x41ad3263	21.649603
126	0xc1afa277	-21.954329
127	0xc1ae5401	-21.791018
128	0x41aed322	21.853092
129	0x41ae6120	21.797424
130	0xc1ae973e	-21.823849
131	0x41ac9794	21.574013
132	0xc1ad407e	-21.65649
133	0xc1afc872	-21.972874
134	0xc1adc891	-21.722933
135	0x41ad2bb9	21.646349
136	0xc1acb53c	-21.588493
137	0x41ad6508	21.674332
138	0xc1ae67f3	-21.800756
139	0xc1ad2755	-21.644205
140	0xc1aeb099	-21.83623
141	0x41aea8cb	21.832418
142	0xc1aef802	-21.871098
143	0xc1ad5fa1	-21.671694
144	0xc1add439	-21.728624
145	0xc1af8d22	-21.943913
146	0xc1ad90b5	-21.695658
147	0x41ae37f5	21.777323
148	0xc1ae0d67	-21.756544
149	0xc1afb1db	-21.961843
150	0xc1aefb5c	-21.872734
151	0x41af1706	21.886242
152	0xc1ad2d60	-21.647156
153	0x41ad7bf3	21.685522
154	0x41acf582	21.619877
155	0x41adcf48	21.726212
156	0x41ae6ecc	21.8041
157	0x41ad933c	21.696892
158	0xc1aec901	-21.848146
159	0xc1ac1e87	-21.514906
160	0x41ad8b41	21.692995
161	0x41b0b4ff	22.088377
162	0xc1ae03a6	-21.751781
163	0x41acab7e	21.583736
164	0xc1ad9e43	-21.702276
165	0xc1ad1450	-21.634918
166	0xc1afc773	-21.972387
167	0x41ae2223	21.766668
168	0xc1ada516	-21.705608
169	0x41ae27f9	21.769518
170	0xc1af1dc2	-21.88953
171	0xc1af9cac	-21.9515
172	0xc1ad4d2d	-21.662683
173	0x41ae935c	21.821953
174	0xc1af49af	-21.910978
175	0xc1ae57d3	-21.792883
176	0xc1af95a8	-21.948074
177	0xc1af6627	-21.92488
178	0xc1afc928	-21.97322
179	0x41ad17f5	21.636698
180	0xc1ae3513	-21.775915
181	0xc1b08b89	-22.068132
182	0xc1af5c9e	-21.920223
183	0x41b00298	22.001266
184	0xc1ad5e11	-21.67093
185	0x41aedf55	21.859049
186	0x41af85bd	21.940302
187	0x41ae944b	21.822409
188	0x41ad88c1	21.691774
189	0x41ae4d79	21.787828
190	0xc1b211e4	-22.258736
191	0xc1ae4fa4	-21.788887
192	0xc1ad20f9	-21.6411
193	0xc1ac2bc3	-21.521368
194	0x41acc9f4	21.59861
195	0xc1acd6ab	-21.604818
196	0x41a90cbe	21.131222
197	0x41abb743	21.464483
198	0x41ac57cc	21.54287
199	0xc1ad056e	-21.627651
200	0x41a8d952	21.106113
201	0xc1acada0	-21.584778
202	0x41adf06c	21.742393
203	0x41acacaa	21.584309
204	0x41aae27f	21.360594
205	0xc1ad9bbf	-21.701048
206	0x41adc66c	21.721886
207	0x41ab79fb	21.43456
208	0x41acd780	21.605225
209	0x41ac12b1	21.509127
210	0x41ada490	21.705353
211	0xc1ad1926	-21.63728
212	0x41ad8968	21.692093
213	0x41ade3f6	21.73631
214	0x41acc418	21.595749
215	0xc1ae175c	-21.761406
216	0x41aaddc3	21.358282
217	0xc1ab4259	-21.407396
218	0xc1ac0e63	-21.507025
219	0xc1ac7f03	-21.562017
220	0xc1acbcdd	-21.592218
221	0xc1abd438	-21.478622
222	0x41af395d	21.90301
223	0x41aacbe9	21.349566
224	0x41ac62b8	21.548203
225	0x41ae77d8	21.808517
226	0xc1ad73b3	-21.681494
227	0x41ad1a25	21.637766
228	0xc1ac0d52	-21.506504
229	0xc1ad6ac7	-21.677137
230	0xc1aef425	-21.869211
231	0x41ad9d1e	21.701717
232	0xc1ab0e19	-21.381884
233	0x41acd941	21.606081
234	0xc1ae9901	-21.824709
235	0xc1ae1a09	-21.762712
236	0xc1acad64	-21.584663
237	0x41afe658	21.987473
238	0xc1af3f02	-21.905766
239	0xc1acf1f9	-21.61815
240	0xc1adfe47	-21.749159
241	0xc1aece3e	-21.850704
242	0xc1add383	-21.728277
243	0x41ae031e	21.751522
244	0xc1ae540b	-21.791037
245	0xc1ae217d	-21.766352
246	0xc1aeb3b8	-21.837753
247	0x41ae6b97	21.802534
248	0xc1aebd8e	-21.842556
249	0x41aed9f4	21.856422
250	0x41acff23	21.624578
251	0x41afd418	21.978561
252	0x41acc946	21.598278
253	0x41ae9e69	21.827349
254	0xc1b0d9ac	-22.106285
255	0xc1ac7a3b	-21.559683

decoder.shift_attention_embedding.bias f4 [32]
0	0x41b7370c	22.901878
1	0x41b742a9	22.907549
2	0x41b88902	23.066898
3	0xc1b796fd	-22.948725
4	0xc1b73be0	-22.904236
5	0xc1b982fe	-23.188961
6	0x41b61ec1	22.765017
7	0xc1b7b5f5	-22.963846
8	0xc1b87fdb	-23.06243
9	0xc1ba31ff	-23.274412
10	0xc1b9a5cf	-23.205961
11	0x41b86d50	23.053375
12	0x41b962d8	23.173264
13	0x41b86272	23.048069
14	0x41b783db	22.939383
15	0x41b87cb9	23.0609
16	0xc1b8c11a	-23.094288
17	0x41b7b32e	22.96249
18	0x41b8316b	23.02413
19	0xc1b76f09	-22.929216
20	0x41b72a86	22.895763
21	0xc1b983b3	-23.189306
22	0xc1b920cf	-23.14102
23	0x41b84575	23.033915
24	0xc1b65df8	-22.795883
25	0x41b45871	22.543184
26	0xc1b72443	-22.892706
27	0x41b74c7d	22.912348
28	0xc1b98674	-23.19065
29	0x41b8cbcb	23.099508
30	0x41b68b41	22.817995
31	0x41b6ab99	22.833788

decoder.worker_attention_embedding.weight f4 [32, 32]
0	0xc1a3595c	-20.418633
1	0xc1a57e87	-20.68678
2	0x41a37cf6	20.436016
3	0xc1a27b6a	-20.31026
4	0x41a50bd1	20.63077
5	0xc1a0eeea	-20.116657
6	0x41a3eef4	20.491676
7	0xc1a3a682	-20.456303
8	0xc1a073ed	-20.056604
9	0xc1a4e534	-20.611916
10	0x41a3df70	20.4841
11	0x41a49435	20.572367
12	0xc19fb1cc	-19.961815
13	0xc1a40545	-20.502573
14	0x41a27603	20.307623
15	0x41a3d74b	20.480124
16	0x41a47c27	20.560621
17	0xc1a1c1a7	-20.219557
18	0x41a22671	20.26877
19	0xc1a0a8fb	-20.08251
20	0x41a1dad1	20.231844
21	0x41a3d906	20.480968
22	0x41a3f7a5	20.49592
23	0xc1a3c51d	-20.471247
24	0x41a0e1c9	20.110247
25	0xc1a27502	-20.307133
26	0xc1a29dcd	-20.327051
27	0xc1a10889	-20.129168
28	0x41a423c6	20.517467
29	0xc1a2aae4	-20.333443
30	0x41a1fcb6	20.248394
31	0xc1a0d646	-20.104626
32	0xc1a0fe05	-20.124033
33	0xc1a22d03	-20.271978
34	0x41a1c9e2	20.223576
35	0xc1a1ee5d	-20.241388
36	0x41a232b3	20.274755
37	0xc19fbaf6	-19.96629
38	0x41a03a70	20.028534
39	0xc1a14ffd	-20.164057
40	0xc1a064e9	-20.049273
41	0xc1a05f20	-20.046448
42	0x41a0f532	20.119724
43	0x41a11ed5	20.140055
44	0xc19f28ae	-19.894863
45	0xc19ffc89	-19.998308
46	0x41a01b85	20.013437
47	0x419ef4db	19.869558
48	0x41a289ac	20.317223
49	0xc1a0493e	-20.035763
50	0x41a1a8c8	20.207413
51	0xc1a107e0	-20.128845
52	0x41a22f01	20.272951
53	0x419fe459	19.986498
54	0x419fa97c	19.957756
55	0xc1a09efb	-20.077627
56	0x41a27140	20.305298
57	0xc19d9b7b	-19.700918
58	0xc1a0d1d2	-20.102451
59	0xc1a16452	-20.173985
60	0x419d243a	19.642689
61	0xc19f3f1e	-19.905819
62	0x41a1b722	20.21442
63	0xc1a0aef8	-20.085434
64	0xc1a2d9cb	-20.356344
65	0xc1a4df0f	-20.608915
66	0x41a456e7	20.542433
67	0xc1a3d043	-20.47669
68	0x41a43435	20.525492
69	0xc1a0209d	-20.015924
70	0x41a324ec	20.393028
71	0xc1a4ebde	-20.61517
72	0xc1a2f6b2	-20.370457
73	0xc1a5a2c9	-20.704485
74	0x41a3a439	20.455187
75	0x41a14b89	20.161882
76	0xc1a16666	-20.175
77	0xc1a32667	-20.393751
78	0x41a19f4c	20.202782
79	0x41a491b4	20.571144
80	0x41a53134	20.649025
81	0xc1a3b3ed	-20.462854
82	0x41a282bd	20.313837
83	0xc1a187ad	-20.191248
84	0x41a39289	20.44655
85	0x41a4ad7b	20.584707
86	0x41a33c0a	20.404316
87	0xc1a27663	-20.307806
88	0x41a2dd8f	20.358183
89	0xc1a5a465	-20.70527
90	0xc1a21010	-20.257843
91	0xc1a2d3ef	-20.353483
92	0x41a2c702	20.347172
93	0xc1a24c8a	-20.287373
94	0x41a2bd8d	20.342554
95	0xc19fbe5b	-19.967947
96	0x41a2f68b	20.370382
97	0x41a274fa	20.307117
98	0xc1a41bd8	-20.513596
99	0x41a55f2b	20.671469
100	0xc1a34591	-20.408968
101	0x41a2acbe	20.334347
102	0xc1a4152c	-20.510338
103	0x41a52022	20.64069
104	0x41a40658	20.503098
105	0x41a25d4c	20.295555
106	0xc1a26868	-20.30098
107	0xc1a388fa	-20.441883
108	0x41a18d2f	20.193937
109	0x41a0fc95	20.123331
110	0xc1a4c452	-20.59586
111	0xc1a2c991	-20.348421
112	0xc1a30c63	-20.381048
113	0x41a2cdc8	20.35048
114	0xc1a4a3b3	-20.579931
115	0x41a1b8a5	20.215158
116	0xc1a55bba	-20.669788
117	0xc1a397ae	-20.449062
118	0xc1a4da84	-20.606697
119	0x41a2df3a	20.358997
120	0xc1a2dd5a	-20.358082
121	0x41a3f12e	20.492764
122	0x41a3dc75	20.482645
123	0x41a5f78a	20.745869
124	0xc1a3c8b6	-20.473003
125	0x41a16968	20.176468
126	0xc1a4a3f6	-20.58006
127	0x41a294d4	20.32267
128	0x41a59cfb	20.70165
129	0x41a36a98	20.427048
130	0xc1a2dce9	-20.357866
131	0x419f3282	19.899662
132	0xc1a4c2d1	-20.595125
133	0x41a1cbcb	20.224508
134	0xc1a0dc03	-20.107428
135	0x41a06657	20.04997
136	0x41a23bd1	20.279207
137	0x41a41def	20.514616
138	0xc1a39eac	-20.452477
139	0xc1a28391	-20.314241
140	0x419ff8e0	19.996521
141	0x41a37ef5	20.43699
142	0xc1a3943e	-20.447384
143	0xc1a27b82	-20.310307
144	0xc1a29fc6	-20.328014
145	0x41a2e809	20.363298
146	0xc1a2b729	-20.339434
147	0x41a13b87	20.154066
148	0xc1a11a5b	-20.137869
149	0xc1a1b398	-20.212692
150	0xc1a47984	-20.559334
151	0x41a15c1d	20.169977
152	0xc1a20be9	-20.255816
153	0x41a3107d	20.38305
154	0x41a10294	20.126259
155	0x41a3d210	20.47757
156	0xc1a2270d	-20.269068
157	0x41a18613	20.190466
158	0xc1a4f775	-20.620829
159	0x41a1a344	20.20472
160	0x41a3a03a	20.453236
161	0x41a41f34	20.515236
162	0xc1a386d0	-20.440826
163	0x41a36a0e	20.426785
164	0xc1a56ac2	-20.677128
165	0x41a401aa	20.500813
166	0xc1a25167	-20.289747
167	0x41a222d5	20.267008
168	0x41a0bd2c	20.09237
169	0x41a65836	20.793072
170	0xc1a46186	-20.547619
171	0xc1a22683	-20.268805
172	0x41a2e865	20.363474
173	0x41a2fbf2	20.37302
174	0xc1a1854f	-20.190092
175	0xc1a2ed42	-20.365849
176	0xc1a57d04	-20.686043
177	0x41a4a189	20.578875
178	0xc1a16e9e	-20.179012
179	0x41a071e0	20.055603
180	0xc1a237ab	-20.277182
181	0xc1a374bf	-20.432005
182	0xc1a38056	-20.437664
183	0x41a408be	20.504269
184	0xc1a4a294	-20.579384
185	0x41a249f8	20.286118
186	0x41a04e40	20.038208
187	0x41a5232d	20.642176
188	0xc1a20319	-20.251513
189	0x41a202a5	20.251291
190	0xc1a1a48a	-20.205341
191	0x41a49e15	20.577188
192	0xc1a45629	-20.54207
193	0xc1a37eb2	-20.436863
194	0x41a3b261	20.4621
195	0xc1a0d4a6	-20.103832
196	0x41a28cb3	20.3187
197	0xc1a09707	-20.073744
198	0x419ffe29	19.999102
199	0xc1a133a9	-20.150225
200	0xc1a217f6	-20.2617
201	0xc1a33ae2	-20.403751
202	0x419fda06	19.981457
203	0x41a266b7	20.300154
204	0xc1a013e7	-20.009718
205	0xc1a1aa12	-20.208042
206	0x41a393fd	20.44726
207	0x41a2db3d	20.35705
208	0x41a34e7f	20.413328
209	0xc1a0cfc7	-20.101454
210	0x419f7ca3	19.935858
211	0xc1a19453	-20.197424
212	0x419fdc8b	19.982687
213	0x419f8fb5	19.94517
214	0x41a333c6	20.40028
215	0xc1a0d236	-20.102642
216	0x41a12109	20.14113
217	0xc1a12475	-20.142801
218	0xc1a01312	-20.009312
219	0xc1a2b100	-20.336426
220	0x41a2cab9	20.348986
221	0xc1a16d9e	-20.178524
222	0x41a10e4a	20.131977
223	0xc1a1aa81	-20.208254
224	0x41a268e2	20.301212
225	0x41a12f7c	20.148186
226	0xc1a48829	-20.566484
227	0x41a24d1a	20.287647
228	0xc1a30edf	-20.382261
229	0x41a0c0ab	20.094076
230	0xc1a32117	-20.391157
231	0x41a2208e	20.265896
232	0x41a2917b	20.321035
233	0x41a2b7b3	20.339697
234	0xc1a4c310	-20.595245
235	0xc1a32754	-20.394203
236	0x41a19fef	20.203093
237	0x41a34a3c	20.411247
238	0xc1a34aa9	-20.411455
239	0xc19ff523	-19.994696
240	0xc1a77f10	-20.937042
241	0x41a1fb50	20.247711
242	0xc1a44f9a	-20.538868
243	0x41a2132c	20.259361
244	0xc1a35f49	-20.421526
245	0xc1a285b4	-20.315285
246	0xc1a278be	-20.308956
247	0x41a28cf6	20.318829
248	0xc1a20e77	-20.257063
249	0x41a3fc61	20.498232
250	0x41a08c4a	20.0685
251	0x41a266e9	20.30025
252	0xc1a2b1b7	-20.336775
253	0x41a2f44d	20.369287
254	0xc1a3f76c	-20.495811
255	0x41a26a81	20.302004

decoder.worker_attention_embedding.bias f4 [32]
0	0x41cdb4b0	25.713226
1	0x41cc79b2	25.559422
2	0x41ce2be8	25.771439
3	0xc1b283eb	-22.314413
4	0xc1c99a50	-25.200348
5	0xc1cf2c5d	-25.896662
6	0x41cf1d35	25.889261
7	0xc1cfa90b	-25.95754
8	0xc1c95d1c	-25.170464
9	0xc1cb4ca7	-25.412428
10	0xc1cb3439	-25.4005
11	0x41cc1895	25.512003
12	0x41ca764e	25.307766
13	0x41cbd2e2	25.47797
14	0x41bfcd21	23.97516
15	0x41cb4d64	25.412788
16	0xc1cdc57b	-25.721426
17	0x41cce800	25.613281
18	0x41cafdba	25.37389
19	0xc1cc45e5	-25.534128
20	0x41ce3886	25.7776
21	0xc1cb4dc5	-25.412973
22	0xc1c899b7	-25.075056
23	0x41ca6785	25.300547
24	0xc1c9b765	-25.214548
25	0x41c7c3d4	24.97062
26	0xc1ce6806	-25.800793
27	0x41cd907c	25.695549
28	0xc1cc6086	-25.54713
29	0x41ce2bd8	25.771408
30	0x41cd416c	25.656944
31	0x41c932c8	25.149796
